checkpoints/GHGNN/zara2/train_best.pth (torch, 128930 bytes, 58 tensors)

sparse_weighted_adjacency_matrices.edge_inital.x_embedding.weight f4 [16, 2]
00000000: 14af adb1 5629 bab0 6b74 d2b7 6b78 74b7
00000010: d768 86b6 198c 1cb6 74fb cab6 783c f1b5
00000020: 94a8 fe33 c7e6 0b34 7f22 9fb0 e45b 4cae
00000030: 4954 4bb5 a901 0db5 a76b e12e d63d 932d
00000040: 9650 27b8 759d acb7 1d03 3337 db14 ba37
00000050: af10 d437 3624 3838 605d 46b3 b2c1 a7b2
00000060: 3e6a e136 ce05 1b37 d8e3 1dad a3ff adad
00000070: f6aa 6634 47cd 6d33 f5cf f235 0b9c 3035
-5.0548667e-09 -1.354503e-09 -2.5088162e-05 -1.457157e-05 -4.005716e-06 -2.332736e-06 -6.049342e-06 -1.7973498e-06
1.1858461e-07 1.302934e-07 -1.1578577e-09 -4.6465845e-11 -7.5746044e-07 -5.252901e-07 1.0250938e-10 1.6739426e-11
-3.9890954e-05 -2.057732e-05 1.0669956e-05 2.218264e-05 2.5280138e-05 4.3902743e-05 -4.618539e-08 -1.9529441e-08
6.7178908e-06 9.240071e-06 -8.975008e-12 -1.9781348e-11 2.1482614e-07 5.536756e-08 1.8090929e-06 6.579218e-07

sparse_weighted_adjacency_matrices.edge_inital.x_embedding.bias f4 [16]
00000000: c394 b4b5 1ce3 a038 4805 4ebb 73f5 42bc
00000010: 93ed c3b6 384a 8db4 4547 c9b9 8c9a 8932
00000020: 470a 1738 ff1a c0b9 e569 99b8 603b 97b7
00000030: 0942 f53b 9710 2132 6245 6438 22be 7b3a
-1.345434e-06 7.671697e-05 -0.0031436253 -0.01189934 -5.83911e-06 -2.6317298e-07 -0.00038390807 1.6019179e-08
3.6010777e-05 -0.00036641207 -7.315333e-05 -1.8028251e-05 0.0074846786 9.3752055e-09 5.4424054e-05 0.0009603222

sparse_weighted_adjacency_matrices.edge_inital.edge_embedding.weight f4 [16, 16]
00000000: 1daa 8a2f 7f16 8739 4e15 e8b5 4ca5 00b8
00000010: 6452 10b5 4570 742e 261e 93b5 064c 94ab
00000020: 6fb5 9cb9 31ec 93ba 88a3 ba3a 9150 98b0
00000030: 507b de37 9d10 152d 2e90 2cb2 dfd8 d130
00000040: b683 ab2b 1e0b 29b9 7a7e af33 c81f cf35
00000050: 185a b8b2 7d6d a92a 1e7b a333 87b1 7fa8
00000060: 7a06 c3b8 c2e3 b539 a0d1 a839 9d7b a42e
00000070: cbbb bbb5 979f 3caa 2062 5eae 0e2e 3cb1
00000080: cedb d32f 4bb3 ef39 bea1 23b7 60f6 1f38
00000090: 2994 c935 f6ad 992e 3429 aab6 cde6 a3ac
000000a0: ae54 58ba 766e ae3a f226 aeb9 9d53 1a31
000000b0: 739e 9737 3922 5aae ed09 88b2 d5cb d4b3
000000c0: 632b c9ad 0452 86b0 6637 90b2 55d4 28b3
000000d0: 14e3 fbad 7e32 9bac e557 feb0 f0d0 d52a
000000e0: 72e6 61b0 72c6 67b0 3178 cbb1 fd46 17af
000000f0: 0b77 eb32 6982 d529 cc17 5d30 9655 d831
00000100: 8065 b723 e64c 4931 6b3d 7227 e44b 92aa
00000110: 60bb 80a5 2a80 9322 d505 39a6 e703 83a0
00000120: ac3e 95af 19d9 902f 20b2 0ab2 14dc 1e25
00000130: dda7 362a a49f c49f 45c8 6ba6 0220 e7a7
00000140: 601c 602a 9f00 5f35 7ebd 7c31 da4a 8f34
00000150: 6781 3231 afdf 2129 fb69 0931 ace1 94a7
00000160: 5a55 2738 95fb 37b8 5576 1339 bd78 8a2c
00000170: 43ff 7531 22e2 bba7 4d94 20ad eb10 47af
00000180: 75fc 17ad 7712 3338 b3e7 0bb3 0a03 c5b5
00000190: 9175 02b4 fe18 10ac 7d42 6eb2 ea1b 81a8
000001a0: e063 afb8 623c 0e38 aa79 acb9 ce90 00af
000001b0: 72d0 6935 276f ca29 5d52 bf2f fdcb b231
000001c0: 9275 2bad 4e67 fcba e397 92b6 0b0a e6b7
000001d0: 16a1 f2b5 e66a 41ac 9329 7eb5 172f 9329
000001e0: 7950 4cba a3d0 c83a 19be 29bb 00f2 a3b1
000001f0: 25bc b538 d34e af30 1aad bb2f 6531 4133
00000200: e9d5 6ab0 4df2 8bb9 210c 0534 cdb9 ddb7
00000210: 4711 4d33 b011 48af 4055 7db4 b573 3d2d
00000220: 48fa 68b9 1683 b038 13c6 cd37 95f8 beb1
00000230: f8e4 feb6 7fcb 372d 65ac 1733 c73f 8c34
00000240: 5a8f 7428 e93b 1b37 df65 6bae 29b0 98b0
00000250: d68d 00af a2f0 5c27 a8da 4aad cd9e b8a5
00000260: 7c57 5cb4 7db1 5fb6 8a4b 71b5 4808 5da7
00000270: ae76 e630 9abc 1f25 0e75 3fab 045d bfab
00000280: 7195 302f 48b5 79bb 52b6 07b7 32e7 dd39
00000290: b60c 0838 1b3f 3f2e 2bce c237 7c6d fbab
000002a0: 593b 23bb a1b3 5e3b a447 05ba 3475 8d33
000002b0: d149 2437 19f3 1031 1197 d2b1 847a 20b5
000002c0: ed11 da2d 9b03 4db9 692c 8bb4 5a6a 07b7
000002d0: 2c3c 29b5 8dbc ce2c 6dfa 0fb4 5630 11a7
000002e0: 3368 8438 7cb0 9839 05f9 eeb9 fe5a a92e
000002f0: 4b69 6736 14be 222a 6164 88b0 78f7 c6b1
00000300: aa7b 012b 7703 9337 40dc a332 c824 a935
00000310: 35f0 ca33 83ba d129 7720 2d32 3bd7 7da7
00000320: 9db9 96b8 a194 b838 4c71 4039 453b 0f2e
00000330: edf3 6fb5 a82f 3da9 7ef2 9cad ce3e a1b0
00000340: fe66 40b3 208f f33a f729 7cb9 ba88 50b8
00000350: 2a90 b137 d33a 3bb2 1b9c 53b8 2e50 ea2f
00000360: c4fc 8d3a c437 163b 7b81 bb3b d1da 9bb5
00000370: ad58 6c3a 954f a430 08b2 e435 3453 3038
00000380: c93d 8c30 2473 0bb9 3acb 5036 c849 fe37
00000390: a1c8 9332 e84f 8c2f f1f6 9e35 af34 6a2d
000003a0: b5f9 8839 19ec 0f3a 457c 043a 13b9 eb31
000003b0: 2800 97b7 b51c 04ad f880 2ab3 1fd6 92b4
000003c0: 5e92 1526 d35f f3aa 29c6 222a 4e5c e32a
000003d0: 9f17 8925 1919 bd24 24fd 9c28 f2aa 1fa3
000003e0: a101 70aa 8eaf 1aab 70f5 02ac 5c86 be26
000003f0: 42ae 8eaa e150 41a1 8996 d2a8 2067 90a9
2.5222927e-10 0.00025765967 -1.7291547e-06 -3.0671523e-05 -5.3764074e-07 5.5578892e-11 -1.0961128e-06 -1.0537133e-12
-0.00029889817 -0.00112856 0.001423941 -1.1082354e-09 2.6521884e-05 8.473358e-12 -1.00445e-08 1.526839e-09
1.2186838e-12 -0.00016121237 8.1720785e-08 1.5431951e-06 -2.1461389e-08 3.0096403e-13 7.612674e-08 -1.4193839e-14
-9.299531e-05 0.00034692703 0.0003219964 7.479815e-11 -1.3987241e-06 -1.6753123e-13 -5.056411e-11 -2.738378e-09
3.8536857e-10 0.00045719216 -9.753216e-06 3.813801e-05 1.5018787e-06 6.988536e-11 -5.0711915e-06 -4.6583627e-12
-0.00082523644 0.0013308066 -0.00033216883 2.2457478e-09 1.8074386e-05 -4.9597857e-11 -1.5836997e-08 -9.909096e-08
-2.2870322e-11 -9.773093e-10 -1.6788999e-08 -3.9308663e-08 -2.863624e-11 -4.4109707e-12 -1.8505913e-09 3.798138e-13
-8.2182006e-10 -8.431932e-10 -5.9217418e-09 -1.375859e-10 2.7411735e-08 9.481723e-14 8.043315e-10 6.2961574e-09
1.9883887e-17 2.9293061e-09 3.3617541e-15 -2.598747e-13 -2.233143e-16 3.998013e-18 -6.419267e-16 -2.2194846e-19
-2.7147473e-10 2.6347705e-10 -8.073158e-09 1.3778881e-16 1.6223087e-13 -8.327333e-20 -8.180342e-16 -6.4150083e-15
1.9905041e-13 8.307488e-07 3.677854e-09 2.6690287e-07 2.5975966e-09 3.5943196e-14 1.9996367e-09 -4.1322926e-15
3.9895393e-05 -4.3864904e-05 0.00014063095 3.9356005e-12 3.5797292e-09 -5.21481e-15 -9.127876e-12 -1.8104955e-10
-8.639413e-12 4.2694122e-05 -3.257419e-08 -1.4678528e-06 -1.2149964e-07 -2.0477504e-12 -1.3868541e-08 -1.4333983e-14
-8.3632534e-05 3.3911674e-05 -0.00032897043 -1.1692977e-10 8.710259e-07 8.989884e-14 3.480122e-10 5.2036726e-09
-9.7463305e-12 -0.0019256861 -4.368821e-06 -2.7422813e-05 -1.8077287e-06 -2.748629e-12 -9.468287e-07 6.53628e-14
-0.0007793974 0.0015320968 -0.002590066 -4.7714366e-09 8.665797e-05 1.2755329e-09 3.4138098e-10 4.498124e-08
-8.543269e-10 -0.00026692674 1.2391003e-07 -2.6431773e-05 4.7745996e-08 -1.8196178e-10 -2.3593475e-07 1.0769098e-11
-0.00022218481 8.416751e-05 2.453014e-05 -5.5579883e-09 -7.5964454e-06 1.0447531e-11 3.531422e-08 2.6123436e-07
1.3575805e-14 9.252669e-06 -5.3523293e-11 -1.1109523e-09 -1.1691922e-10 3.066158e-15 -1.1530922e-11 -3.202652e-16
-2.0520923e-07 -3.3332901e-06 -8.988942e-07 -3.06744e-15 1.6768433e-09 1.3854952e-16 -6.8019277e-13 -1.3597183e-12
1.6060199e-10 -0.0038102437 -8.089077e-06 0.0004232466 3.2436765e-05 4.348442e-11 2.3222607e-05 -1.7865011e-12
-0.00249072 0.003398158 -0.00050842226 6.587143e-08 9.7923485e-06 2.1092943e-09 -6.1289787e-09 -5.978293e-07
2.4791691e-11 -0.00019551667 -2.592308e-07 -8.071389e-06 -6.304497e-07 5.8758055e-12 -1.3409017e-07 -2.0148995e-15
6.313659e-05 0.0002912319 -0.00045580431 7.701394e-11 3.448297e-06 1.4454437e-13 -9.923832e-10 -5.7906924e-09
4.6001625e-13 1.7525379e-05 1.9075856e-08 1.2602186e-06 9.4500514e-08 9.313819e-14 1.0077307e-08 -3.522748e-15
-7.1871305e-05 8.801488e-05 0.00018352753 3.2567078e-11 -8.9389397e-07 -4.2007766e-14 -1.7842835e-11 -1.1732142e-09
-4.4797154e-08 0.0018582083 -0.00024048226 -4.97184e-05 2.1167176e-05 -1.0898208e-08 -5.0451705e-05 4.2621323e-10
0.0010832776 0.0022921422 0.0057222224 -1.1612084e-06 0.0009015899 1.1955189e-09 1.7039138e-06 4.203916e-05
1.0203901e-09 -0.00013298966 3.1112709e-06 3.0313517e-05 1.7204288e-08 2.5522628e-10 1.1843787e-06 1.3313058e-11
0.00026125988 0.00054901984 0.0005053918 6.8604407e-09 -1.8000675e-05 -7.5097055e-12 -3.9698506e-08 -2.7350413e-07
5.1893124e-16 -4.3231963e-13 1.4457241e-13 4.038735e-13 2.3781718e-16 8.20082e-17 1.7429261e-14 -8.655606e-18
-2.1316847e-13 -5.495542e-13 -1.8610356e-12 1.3220317e-15 -2.5345183e-13 -6.5497986e-19 -2.3379968e-14 -6.412774e-14

sparse_weighted_adjacency_matrices.edge_inital.edge_embedding.bias f4 [16]
00000000: a218 4936 1ffd 7334 b1ac be36 e0f4 8035
00000010: 3a6b 15ac e63f 1bb2 38bf c0b3 2f76 14b5
00000020: 2da5 7db7 a0a5 76b1 2452 0c37 0459 a833
00000030: 852b bc33 b9f4 a3bb 1fdd 1038 140f 89ac
2.9965672e-06 2.2723223e-07 5.682545e-06 9.608011e-07 -2.1233696e-12 -9.036716e-09 -8.975479e-08 -5.5306276e-07
-1.5118433e-05 -3.5891858e-09 8.363775e-06 7.8393015e-08 8.7623484e-08 -0.0050035384 3.453821e-05 -3.895448e-12

sparse_weighted_adjacency_matrices.pair_attention.embedding.weight f4 [64, 2]
00000000: 6089 0080 7f9c 0000 8389 0080 2494 0080
00000010: 358a 0000 be89 0000 8d8b 0000 fd8d 0000
00000020: bb88 0080 ae89 0000 9b8b 0080 078b 0000
00000030: 0e8b 0080 8389 0000 558e 0080 3c8c 0000
00000040: cba7 0080 32aa 0000 9a8a 0080 548e 0000
00000050: 1294 0000 5e8a 0080 5d89 0080 a78c 0080
00000060: 14ac 0080 4089 0000 138b 0080 9690 0000
00000070: fd89 0080 8c8c 0080 d08d 0080 2b89 0000
00000080: 7289 0000 918b 0080 c188 0080 5689 0080
00000090: 2789 0000 a88c 0080 c891 0000 6b8a 0000
000000a0: 678f 0000 8089 0000 2f8f 0000 038c 0000
000000b0: db9a 0000 ca88 0080 e08a 0000 c48d 0080
000000c0: 748a 0080 a089 0080 7193 0080 4a89 0080
000000d0: 148b 0000 f688 0080 4693 0080 ffa3 0080
000000e0: 3c8b 0000 3f9f 0000 2691 0000 13a9 0000
000000f0: 7289 0000 cb88 0000 7c8c 0000 a48a 0080
00000100: a290 0000 4b8d 0080 3392 0080 b9a5 0000
00000110: 0289 0080 238a 0080 a889 0080 be8a 0080
00000120: cf89 0000 d78e 0000 019c 0080 96a9 0000
00000130: 85a1 0000 ca8a 0080 138a 0080 0c89 0080
00000140: c088 0000 6f91 0000 b290 0000 f189 0000
00000150: b38e 0000 478c 0000 168a 0000 8a9b 0080
00000160: c98a 0000 a289 0080 dd8c 0000 798a 0000
00000170: 148a 0000 e98f 0000 2f89 0080 5892 0000
00000180: ac8a 0080 a692 0000 6195 0000 7b8d 0080
00000190: c6a2 0080 b890 0000 138c 0080 da88 0080
000001a0: 5d8a 0000 558a 0080 be88 0000 8a89 0000
000001b0: 3e8a 0000 ca09 0080 b88b 0000 9f89 0000
000001c0: 748a 0080 0b90 0080 4291 0080 af8a 0000
000001d0: a495 0080 fc8d 0080 2b8a 0080 27ac 0080
000001e0: c889 0000 6689 0000 4b8b 0000 5d8b 0080
000001f0: 6b8b 0080 29ae 0080 7c8a 0000 448a 0080
-4.9281e-41 5.614e-41 -4.933e-41 -5.3143e-41 4.958e-41 4.9413e-41 5.0061e-41 5.0936e-41
-4.905e-41 4.939e-41 -5.0081e-41 4.9874e-41 -4.9883e-41 4.933e-41 -5.1059e-41 5.0307e-41
-6.0193e-41 6.1055e-41 -4.9721e-41 5.1058e-41 5.3118e-41 -4.9637e-41 -4.9277e-41 -5.0457e-41
-6.173e-41 4.9236e-41 -4.989e-41 5.1868e-41 -4.9501e-41 -5.0419e-41 -5.0873e-41 4.9207e-41
4.9306e-41 -5.0067e-41 -4.9058e-41 -4.9267e-41 4.9201e-41 -5.0458e-41 5.2296e-41 4.9655e-41
5.1443e-41 4.9326e-41 5.1365e-41 5.0227e-41 5.5552e-41 -4.907e-41 4.9819e-41 -5.0856e-41
-4.9668e-41 -4.937e-41 -5.2892e-41 -4.925e-41 4.9892e-41 -4.9132e-41 -5.2832e-41 -5.8831e-41
4.9948e-41 5.7127e-41 5.207e-41 6.0652e-41 4.9306e-41 4.9072e-41 5.0396e-41 -4.9735e-41
5.1884e-41 -5.0686e-41 -5.2446e-41 5.945e-41 -4.9149e-41 -4.9554e-41 -4.9382e-41 -4.9771e-41
4.9436e-41 5.1241e-41 -5.5964e-41 6.0836e-41 5.7942e-41 -4.9788e-41 -4.9532e-41 -4.9163e-41
4.9057e-41 5.2172e-41 5.1907e-41 4.9484e-41 5.1191e-41 5.0322e-41 4.9536e-41 -5.5797e-41
4.9787e-41 -4.9373e-41 5.0532e-41 4.9675e-41 4.9533e-41 5.1625e-41 -4.9212e-41 5.2498e-41
-4.9746e-41 5.2608e-41 5.3587e-41 -5.0754e-41 -5.8392e-41 5.1915e-41 -5.0249e-41 -4.9093e-41
4.9635e-41 -4.9624e-41 4.9054e-41 4.934e-41 4.9592e-41 -3.512e-42 5.0122e-41 4.9369e-41
-4.9668e-41 -5.1673e-41 -5.2109e-41 4.975e-41 -5.3681e-41 -5.0934e-41 -4.9565e-41 -6.1757e-41
4.9427e-41 4.9289e-41 4.9969e-41 -4.9994e-41 -5.0014e-41 -6.2477e-41 4.9679e-41 -4.96e-41

sparse_weighted_adjacency_matrices.pair_attention.embedding.bias f4 [64]
00000000: b396 0000 df88 0080 1789 0000 ce88 0080
00000010: a08b 0000 508d 0080 da91 0080 1591 0000
00000020: fd88 0080 0a8c 0000 988a 0080 67a9 0080
00000030: c689 0080 5c8c 0000 148c 0080 948d 0000
00000040: e188 0000 c78a 0000 de8c 0080 8289 0000
00000050: cb8a 0080 812c 0280 b58b 0080 9c8a 0080
00000060: be89 0000 f888 0080 638e 0000 fe8b 0000
00000070: 0b8a 0000 d888 0000 778c 0080 238a 0080
00000080: c589 0000 a68a 0080 4b8b 0000 ce8e 0080
00000090: c7a2 0000 0f8b 0080 d58c 0000 199d 0080
000000a0: c68a 0000 f489 0000 f993 0000 ca89 0080
000000b0: cb8a 0080 7f8e 0080 768a 0080 5f8a 0000
000000c0: 318b 0000 628a 0000 0a3c 0180 308e 0000
000000d0: ad8c 0000 d98c 0080 0a8c 0080 e489 0080
000000e0: 0d89 0080 c7aa 0080 ec8a 0000 5989 0080
000000f0: 2999 0080 a98a 0080 4898 0080 fea9 0080
5.406e-41 -4.91e-41 4.9179e-41 -4.9076e-41 5.0088e-41 -5.0693e-41 -5.2322e-41 5.2046e-41
-4.9142e-41 5.0237e-41 -4.9718e-41 -6.077e-41 -4.9424e-41 5.0351e-41 -5.025e-41 5.0789e-41
4.9103e-41 4.9784e-41 -5.0534e-41 4.9329e-41 -4.979e-41 -1.99636e-40 -5.0117e-41 -4.9724e-41
4.9413e-41 -4.9135e-41 5.1079e-41 5.022e-41 4.952e-41 4.909e-41 -5.0389e-41 -4.9554e-41
4.9422e-41 -4.9738e-41 4.9969e-41 -5.1229e-41 5.8394e-41 -4.9885e-41 5.0521e-41 -5.6356e-41
4.9783e-41 4.9488e-41 5.3083e-41 -4.943e-41 -4.979e-41 -5.1118e-41 -4.967e-41 4.9638e-41
4.9932e-41 4.9642e-41 -1.13373e-40 5.1007e-41 5.0465e-41 -5.0527e-41 -5.0237e-41 -4.9466e-41
-4.9165e-41 -6.1263e-41 4.9836e-41 -4.9271e-41 -5.4944e-41 -4.9742e-41 -5.4628e-41 -6.0982e-41

sparse_weighted_adjacency_matrices.pair_attention.query.weight f4 [64, 64]
00000000: 3567 0080 d695 0000 f4a4 0080 68a0 0000
00000010: 6da5 0000 2989 0000 0c91 0080 2990 0000
00000020: 28aa 0080 479c 0080 cd88 0080 ce9a 0000
00000030: 568f 0080 73a5 0000 abae 0080 1293 0000
00000040: 1d93 0000 e693 0080 6f89 0000 5fa9 0000
00000050: a38e 0080 429e 0080 becc 0280 a59e 0080
00000060: f39b 0080 ba93 0080 8493 0080 5189 0000
00000070: 828c 0000 2e89 0080 b0ae 0080 848c 0000
00000080: fd09 0080 7a9d 0080 5894 0000 04aa 0080
00000090: 83ab 0080 5d98 0080 85a0 0080 269a 0080
000000a0: 089d 0000 6793 0000 899d 0000 e0a4 0000
000000b0: e788 0080 eda4 0080 67ac 0080 13a2 0000
000000c0: 459b 0080 a99a 0000 5189 0000 848a 0080
000000d0: 698a 0080 9ca8 0000 469d 0080 3392 0080
000000e0: 4aae 0080 be9c 0080 0bad 0080 2d9d 0000
000000f0: cc92 0080 9799 0000 45a2 0000 fb88 0080
00000100: f195 0000 e4a4 0080 2898 0000 cf8b 0000
00000110: 9b5e 0000 649d 0080 2889 0000 4c57 0000
00000120: 75a2 0080 ba9f 0080 72a3 0000 46a5 0080
00000130: 638d 0080 fdab 0000 c7ae 0000 ca88 0000
00000140: 859c 0080 8890 0000 070a 0080 cda2 0080
00000150: cb95 0000 508c 0000 6b98 0080 08a1 0080
00000160: 919c 0000 9c8e 0000 9706 0000 908b 0000
00000170: 75a1 0080 fe9d 0080 139b 0080 9789 0000
00000180: 11ad 0000 1aa6 0080 5454 0000 18ad 0080
00000190: c688 0000 d1a3 0080 3b96 0000 dea7 0000
000001a0: 73ac 0000 2aa3 0000 ef9f 0000 9117 0080
000001b0: 3b91 0000 cc9f 0080 d3a6 0080 2095 0080
000001c0: 64ab 0080 4aa5 0000 5393 0100 d79e 0000
000001d0: c599 0000 95ae 0000 9499 0080 f388 0000
000001e0: b7a5 0000 caae 0000 119c 0000 9a8b 0000
000001f0: 2e8b 0000 709f 0000 b99e 0000 1e8e 0080
00000200: cea0 0080 af9a 0000 be9e 0000 7398 0000
00000210: eb9b 0000 dc9e 0080 acf5 0180 ec75 0000
00000220: 19a4 0000 279b 0080 a29c 0000 149e 0000
00000230: 1f15 0100 a2ae 0000 e988 0000 ca9b 0080
00000240: 2997 0000 a293 0000 e6cf 0100 ef8d 0000
00000250: 3a9b 0000 6ca4 0080 31a5 0080 ed74 0180
00000260: 089e 0080 8289 0080 89a3 0080 e79a 0000
00000270: 7989 0000 9089 0000 d49d 0080 b129 0100
00000280: 9dad 0000 769f 0000 b69c 0080 2ba2 0080
00000290: 398e 0080 ec9b 0080 6392 0080 ffad 0080
000002a0: 1cac 0000 2a93 0000 0f89 0000 dd8a 0000
000002b0: 40af 0000 57ab 0000 708b 0080 a691 0080
000002c0: 129f 0000 ed88 0080 c897 0080 3ac8 0180
000002d0: 5ea7 0000 e188 0080 c990 0080 c59a 0080
000002e0: d0a8 0080 3d95 0000 81a5 0000 699f 0080
000002f0: a792 0000 9ba3 0000 2592 0000 1f9b 0000
00000300: e857 0100 b3ae 0080 79a8 0000 da8d 0080
00000310: e093 0080 2698 0000 f8a0 0000 cf18 0180
00000320: a122 0300 06a5 0080 c590 0080 b247 0180
00000330: 0b9b 0080 a4a1 0080 9089 0000 759e 0080
00000340: bd88 0080 e41e 0080 75a2 0000 8995 0000
00000350: 32a3 0000 7889 0080 c598 0080 8b99 0080
00000360: ee88 0080 c78e 0000 0f9d 0080 3596 0080
00000370: 9695 0000 69b9 0100 3da1 0080 7991 0000
00000380: 7a96 0080 fd9f 0080 248f 0080 e870 0280
00000390: 99a1 0080 968e 0000 a5a9 0080 2291 0080
000003a0: b2a2 0080 2d90 0080 58ab 0000 d8ae 0000
000003b0: 6992 0000 b9ad 0080 4699 0000 88aa 0080
000003c0: 3089 0080 3fa9 0000 1397 0000 1666 0100
000003d0: b492 0080 f29b 0000 0d98 0000 a5a4 0080
000003e0: 9890 0080 21a9 0000 5eab 0000 ac25 0300
000003f0: eb88 0080 c43e 0080 feaa 0000 8598 0000
-3.7024e-41 5.3751e-41 -5.9174e-41 5.7543e-41 5.9344e-41 4.9204e-41 -5.2033e-41 5.1715e-41
-6.104e-41 -5.6062e-41 -4.9075e-41 5.5533e-41 -5.1419e-41 5.9352e-41 -6.2659e-41 5.2759e-41
5.2774e-41 -5.3056e-41 4.9302e-41 6.0759e-41 -5.1168e-41 -5.6772e-41 -2.57119e-40 -5.6911e-41
-5.5944e-41 -5.2994e-41 -5.2919e-41 4.926e-41 5.0405e-41 -4.9211e-41 -6.2666e-41 5.0408e-41
-3.583e-42 -5.6492e-41 5.3216e-41 -6.099e-41 -6.1527e-41 -5.4658e-41 -5.7584e-41 -5.5298e-41
5.6332e-41 5.2878e-41 5.6513e-41 5.9146e-41 -4.9111e-41 -5.9164e-41 -6.1846e-41 5.8141e-41
-5.57e-41 5.5482e-41 4.926e-41 -4.969e-41 -4.9652e-41 6.0486e-41 -5.6419e-41 -5.2446e-41
-6.2523e-41 -5.6229e-41 -6.2076e-41 5.6384e-41 -5.2661e-41 5.5098e-41 5.8211e-41 -4.914e-41
5.3789e-41 -5.9152e-41 5.4583e-41 5.0154e-41 3.3938e-41 -5.6461e-41 4.9202e-41 3.1316e-41
-5.8279e-41 -5.7299e-41 5.8633e-41 -5.9289e-41 -5.072e-41 6.1698e-41 6.2698e-41 4.907e-41
-5.6149e-41 5.1848e-41 -3.597e-42 -5.8402e-41 5.3736e-41 5.0335e-41 -5.4677e-41 -5.7767e-41
5.6165e-41 5.1159e-41 2.364e-42 5.0066e-41 -5.792e-41 -5.6677e-41 -5.563e-41 4.9358e-41
6.2085e-41 -5.9586e-41 3.0251e-41 -6.2094e-41 4.9065e-41 -5.8766e-41 5.3893e-41 6.022e-41
6.1863e-41 5.8532e-41 5.7373e-41 -8.454e-42 5.2099e-41 -5.7324e-41 -5.9845e-41 -5.3496e-41
-6.1483e-41 5.9295e-41 1.44685e-40 5.6981e-41 5.5162e-41 6.2628e-41 -5.5093e-41 4.9128e-41
5.9447e-41 6.2703e-41 5.5986e-41 5.008e-41 4.9928e-41 5.7195e-41 5.6939e-41 -5.0982e-41
-5.7686e-41 5.549e-41 5.6946e-41 5.4688e-41 5.5933e-41 -5.6988e-41 -1.79966e-40 4.2302e-41
5.8867e-41 -5.5658e-41 5.6189e-41 5.6708e-41 9.9412e-41 6.2646e-41 4.9114e-41 -5.5887e-41
5.4226e-41 5.296e-41 1.66415e-40 5.0916e-41 5.5685e-41 -5.8983e-41 -5.926e-41 -1.3378e-40
-5.6691e-41 -4.9329e-41 -5.8665e-41 5.5568e-41 4.9316e-41 4.9348e-41 -5.6618e-41 1.06792e-40
6.2281e-41 5.7204e-41 -5.6217e-41 -5.8175e-41 -5.102e-41 -5.5934e-41 -5.2514e-41 -6.2418e-41
6.1741e-41 5.2793e-41 4.9167e-41 4.9815e-41 6.2868e-41 6.1465e-41 -5.0021e-41 -5.2249e-41
5.7064e-41 -4.912e-41 -5.4449e-41 -1.63663e-40 6.004e-41 -4.9103e-41 -5.1939e-41 -5.5521e-41
-6.0559e-41 5.3537e-41 5.9372e-41 -5.7186e-41 5.2609e-41 5.869e-41 5.2427e-41 5.5647e-41
1.2337e-40 -6.267e-41 6.0437e-41 -5.0887e-41 -5.3048e-41 5.458e-41 5.7745e-41 -1.00735e-40
2.87929e-40 -5.9199e-41 -5.1934e-41 -1.17555e-40 -5.5619e-41 -5.7986e-41 4.9348e-41 -5.6844e-41
-4.9052e-41 -1.1081e-41 5.8279e-41 5.3643e-41 5.8543e-41 -4.9314e-41 -5.4803e-41 -5.5081e-41
-4.9121e-41 5.1219e-41 -5.6342e-41 -5.3884e-41 5.3661e-41 1.58348e-40 -5.7841e-41 5.2186e-41
-5.3981e-41 -5.7393e-41 -5.1349e-41 -2.24174e-40 -5.797e-41 5.115e-41 -6.0857e-41 -5.2064e-41
-5.8364e-41 -5.172e-41 6.1467e-41 6.2722e-41 5.2522e-41 -6.232e-41 5.4984e-41 -6.1175e-41
-4.9214e-41 6.0714e-41 5.4195e-41 1.28457e-40 -5.2627e-41 5.5943e-41 5.4546e-41 -5.9063e-41
-5.187e-41 6.0672e-41 6.1475e-41 2.8902e-40 -4.9117e-41 -2.2516e-41 6.134e-41 5.4714e-41

sparse_weighted_adjacency_matrices.pair_attention.query.bias f4 [64]
00000000: d999 0000 70a1 0000 79a5 0080 db9a 0080
00000010: f398 0000 9f92 0000 aa72 0080 b096 0000
00000020: 828a 0080 d893 0000 f688 0080 0189 0080
00000030: 628f 0080 4b9c 0080 a5ab 0000 399d 0000
00000040: ad93 0000 7762 0180 609d 0000 95ab 0080
00000050: 6c81 0080 ff01 0000 c49a 0080 3389 0080
00000060: a5ae 0080 c29f 0000 cbaa 0080 8696 0080
00000070: 3789 0080 2089 0000 c88b 0000 4557 0300
00000080: f6a2 0000 c1a5 0080 da99 0000 d38e 0000
00000090: cb88 0000 fea8 0000 8d92 0080 349f 0080
000000a0: d9a5 0080 8da3 0000 ed8f 0000 0aab 0080
000000b0: 4d96 0000 a81b 0080 8397 0080 ffa8 0080
000000c0: ca4a 0100 b988 0080 a5a9 0080 4276 0080
000000d0: 9bae 0000 679f 0080 d1ae 0080 088c 0080
000000e0: 0724 0000 0f8a 0080 d194 0080 2f98 0080
000000f0: 1494 0000 4ca8 0080 8094 0080 2298 0080
5.519e-41 5.7913e-41 -5.936e-41 -5.5552e-41 5.4868e-41 5.2598e-41 -4.1134e-41 5.4056e-41
-4.9687e-41 5.3036e-41 -4.9132e-41 -4.9148e-41 -5.1436e-41 -5.6067e-41 6.1574e-41 5.6401e-41
5.2976e-41 -1.27158e-40 5.6456e-41 -6.1552e-41 -4.6428e-41 7.16e-43 -5.552e-41 -4.9218e-41
-6.265e-41 5.731e-41 -6.1269e-41 -5.3998e-41 -4.9223e-41 4.9191e-41 5.0144e-41 3.06813e-40
5.846e-41 -5.9461e-41 5.5192e-41 5.1236e-41 4.9072e-41 6.0623e-41 -5.2573e-41 -5.7111e-41
-5.9495e-41 5.8671e-41 5.1631e-41 -6.1357e-41 5.3918e-41 -9.921e-42 -5.4352e-41 -6.0624e-41
1.18665e-40 -4.9047e-41 -6.0857e-41 -4.2423e-41 6.2637e-41 -5.7183e-41 -6.2712e-41 -5.0234e-41
1.2924e-41 -4.9526e-41 -5.3385e-41 -5.4593e-41 5.312e-41 -6.0374e-41 -5.3272e-41 -5.4575e-41

sparse_weighted_adjacency_matrices.pair_attention.key.weight f4 [64, 64]
00000000: d788 0000 3f92 0000 84aa 0080 47a1 0080
00000010: 069f 0080 2391 0000 04ae 0000 2dae 0080
00000020: 769f 0000 a790 0200 a3a9 0080 b8a7 0080
00000030: aaa5 0080 389d 0080 448b 0000 664e 0080
00000040: 562e 0100 419d 0080 deab 0000 aa96 0000
00000050: 38a4 0000 a1a4 0000 4daf 0080 608c 0080
00000060: a798 0080 cfa5 0000 5390 0000 1f93 0080
00000070: d788 0000 9eac 0000 c188 0000 899d 0080
00000080: 6e89 0000 f7b5 0180 9cae 0000 8b8d 0080
00000090: d388 0000 0a89 0000 6faf 0000 70a0 0000
000000a0: 1790 0080 37b5 0180 927f 0300 f19b 0000
000000b0: e2a7 0000 fd89 0080 64a6 0080 0289 0080
000000c0: b988 0080 b99f 0080 528a 0000 2da1 0080
000000d0: 428f 0000 ceab 0080 fb88 0000 3ea9 0000
000000e0: 8ca7 0000 718e 0000 b489 0100 f2a8 0080
000000f0: 1296 0000 52a9 0080 638d 0080 c99b 0000
00000100: 4894 0000 47a6 0080 de0a 0080 3d81 0180
00000110: 6d8a 0080 689b 0000 f399 0000 3e90 0000
00000120: 67a9 0080 0e95 0000 a8c9 0200 b1a9 0000
00000130: 068d 0000 2895 0080 ed94 0000 dba0 0000
00000140: ee97 0080 b0a7 0000 dca0 0000 611e 0180
00000150: 21a6 0080 c3a3 0080 030d 0080 37a7 0000
00000160: 639c 0000 cc97 0080 668c 0000 228c 0080
00000170: e67c 0080 0590 0080 e092 0080 b5a0 0000
00000180: c99c 0080 078b 0080 e3a4 0000 0489 0080
00000190: 2495 0000 8d96 0080 1ba0 0080 34a2 0000
000001a0: 2192 0000 bfa5 0000 d0a5 0080 b650 0180
000001b0: 459b 0080 3d8d 0080 a399 0000 f991 0080
000001c0: 03a6 0080 e38b 0080 ed90 0000 b775 0100
000001d0: 59a5 0000 ed96 0080 43a8 0080 c4ae 0000
000001e0: 8b98 0000 bfa0 0000 939c 0000 daa0 0000
000001f0: 3690 0000 4b95 0000 349c 0080 7989 0080
00000200: 1292 0080 8689 0000 428d 0000 0f9b 0000
00000210: af95 0080 0298 0080 3298 0080 6290 0080
00000220: 20aa 0080 3d93 0000 86a4 0000 b88a 0000
00000230: 88ad 0080 17a3 0080 4795 0080 7c92 0080
00000240: f9a5 0080 e48f 0080 9995 0080 d28e 0000
00000250: 308c 0080 f188 0000 b0ab 0080 20a2 0000
00000260: de8e 0000 3198 0000 e197 0000 e79f 0080
00000270: 878a 0080 5991 0000 068d 0000 e66b 0180
00000280: 819c 0080 e290 0000 46a7 0080 4b91 0000
00000290: bea0 0000 e588 0000 748c 0000 d88c 0080
000002a0: bc88 0080 568b 0000 2f98 0000 8a96 0000
000002b0: 648b 0080 439f 0080 a795 0080 a2a2 0000
000002c0: e499 0080 819f 0080 9a99 0080 629f 0000
000002d0: ef91 0080 3399 0000 607a 0180 4894 0000
000002e0: 5193 0080 7ca8 0080 3b77 0080 44a0 0080
000002f0: 2a92 0000 e490 0000 7eaf 0080 f088 0000
00000300: b988 0000 699e 0080 c389 0000 3da6 0000
00000310: 44a9 0000 6f97 0080 c5a8 0080 c891 0080
00000320: c09c 0080 75a0 0080 ec11 0100 c388 0080
00000330: f190 0000 94a8 0000 f797 0000 eaa5 0080
00000340: b28f 0000 7c03 0080 c5ae 0080 b994 0080
00000350: e988 0080 6992 0080 c89d 0000 5589 0000
00000360: 7c96 0080 c99d 0000 75ac 0000 dc8d 0080
00000370: 3fa3 0000 1591 0080 c99e 0080 8a99 0000
00000380: 56ad 0000 f33d 0180 9398 0080 6cab 0080
00000390: 539d 0000 368b 0000 d622 0080 f79b 0080
000003a0: cc88 0000 7cad 0000 9d9a 0000 0c89 0080
000003b0: 709b 0080 90a5 0080 818d 0000 6799 0000
000003c0: 6d29 0180 a349 0180 ab89 0080 4f98 0000
000003d0: 78aa 0000 680a 0180 7f9b 0000 cdad 0080
000003e0: 39a1 0000 568a 0080 1b96 0080 508c 0080
000003f0: f288 0000 b0a1 0000 c288 0000 0e89 0080
4.9089e-41 5.2463e-41 -6.117e-41 -5.7855e-41 -5.7047e-41 5.2065e-41 6.2425e-41 -6.2482e-41
5.7204e-41 2.35562e-40 -6.0854e-41 -6.0166e-41 -5.9429e-41 -5.64e-41 4.9959e-41 -2.8124e-41
1.08458e-40 -5.6412e-41 6.1654e-41 5.4048e-41 5.891e-41 5.9058e-41 -6.2886e-41 -5.0357e-41
-5.4761e-41 5.9481e-41 5.1774e-41 -5.2777e-41 4.9089e-41 6.1923e-41 4.9058e-41 -5.6513e-41
4.93e-41 -1.57112e-40 6.2638e-41 -5.0776e-41 4.9083e-41 4.916e-41 6.2934e-41 5.7554e-41
-5.169e-41 -1.56843e-40 3.2127e-40 5.5941e-41 6.0225e-41 -4.9501e-41 -5.969e-41 -4.9149e-41
-4.9047e-41 -5.7298e-41 4.962e-41 -5.7819e-41 5.1391e-41 -6.1632e-41 4.914e-41 6.0713e-41
6.0104e-41 5.1098e-41 1.41234e-40 -6.0606e-41 5.3835e-41 -6.074e-41 -5.072e-41 5.5885e-41
5.3193e-41 -5.9649e-41 -3.898e-42 -1.38197e-40 -4.9658e-41 5.5749e-41 5.5227e-41 5.1744e-41
-6.077e-41 5.3471e-41 2.56012e-40 6.0874e-41 5.059e-41 -5.3507e-41 5.3425e-41 5.7704e-41
-5.4502e-41 6.0155e-41 5.7705e-41 -1.02733e-40 -5.9596e-41 -5.8747e-41 -4.668e-42 5.9985e-41
5.6101e-41 -5.4454e-41 5.0365e-41 -5.027e-41 -4.4805e-41 -5.1664e-41 -5.2689e-41 5.7651e-41
-5.6244e-41 -4.9874e-41 5.915e-41 -4.9152e-41 5.3502e-41 -5.4007e-41 -5.7435e-41 5.8188e-41
5.2421e-41 5.9458e-41 -5.9482e-41 -1.20789e-40 -5.57e-41 -5.0667e-41 5.5114e-41 -5.2365e-41
-5.9554e-41 -5.0182e-41 5.199e-41 1.34064e-40 5.9316e-41 -5.4142e-41 -6.0361e-41 6.2694e-41
5.4722e-41 5.7665e-41 5.6168e-41 5.7703e-41 5.1733e-41 5.3556e-41 -5.6035e-41 -4.9316e-41
-5.24e-41 4.9334e-41 5.0674e-41 5.5625e-41 -5.3696e-41 -5.453e-41 -5.4597e-41 -5.1795e-41
-6.103e-41 5.2819e-41 5.902e-41 4.9763e-41 -6.2251e-41 -5.8506e-41 -5.355e-41 -5.2549e-41
-5.954e-41 -5.1618e-41 -5.3666e-41 5.1234e-41 -5.029e-41 4.9125e-41 -6.159e-41 5.816e-41
5.1251e-41 5.4596e-41 5.4484e-41 -5.7362e-41 -4.9694e-41 5.2141e-41 5.059e-41 -1.30542e-40
-5.6143e-41 5.1974e-41 -6.0006e-41 5.2121e-41 5.7663e-41 4.9109e-41 5.0385e-41 -5.0525e-41
-4.9051e-41 4.9984e-41 5.4593e-41 5.4003e-41 -5.0004e-41 -5.7132e-41 -5.3685e-41 5.8342e-41
-5.5206e-41 -5.7219e-41 -5.5102e-41 5.7176e-41 -5.2351e-41 5.4958e-41 -1.35735e-40 5.3193e-41
-5.2847e-41 -6.0441e-41 -4.2772e-41 -5.7492e-41 5.2434e-41 5.1977e-41 -6.2955e-41 4.9124e-41
4.9047e-41 -5.6827e-41 4.942e-41 5.9635e-41 6.0721e-41 -5.4324e-41 -6.0543e-41 -5.2296e-41
-5.6231e-41 -5.7561e-41 9.8265e-41 -4.9061e-41 5.1995e-41 6.0474e-41 5.4515e-41 -5.9519e-41
5.1548e-41 -1.25e-42 -6.2695e-41 -5.3352e-41 -4.9114e-41 -5.2522e-41 5.6601e-41 4.9265e-41
-5.3984e-41 5.6603e-41 6.1866e-41 -5.089e-41 5.8562e-41 -5.2046e-41 -5.6961e-41 5.508e-41
6.2181e-41 -1.14059e-40 -5.4733e-41 -6.1495e-41 5.6437e-41 4.994e-41 -1.2497e-41 -5.595e-41
4.9073e-41 6.2234e-41 5.5465e-41 -4.9163e-41 -5.576e-41 -5.9393e-41 5.0762e-41 5.503e-41
-1.06696e-40 -1.18251e-40 -4.9386e-41 5.4638e-41 6.1153e-41 -9.5569e-41 5.5781e-41 -6.2348e-41
5.7836e-41 -4.9626e-41 -5.3848e-41 -5.0335e-41 4.9127e-41 5.8003e-41 4.906e-41 -4.9166e-41

sparse_weighted_adjacency_matrices.pair_attention.key.bias f4 [64]
00000000: 8c9f 0000 97a5 0080 f088 0000 a4a2 0000
00000010: 26a3 0000 c288 0000 8e8a 0000 b89a 0000
00000020: c71c 0300 5776 0100 25c0 0180 64a4 0000
00000030: 4089 0080 9f96 0080 9899 0000 21a1 0000
00000040: 6ef4 0100 e194 0000 71a0 0000 c49f 0080
00000050: fb1c 0200 b98a 0000 b99f 0000 80a1 0080
00000060: a494 0000 4795 0080 cba7 0000 d1a7 0000
00000070: 138b 0000 1091 0000 1189 0080 6fa3 0080
00000080: 7295 0000 9ea6 0000 fb8b 0000 7ba3 0080
00000090: d4f8 0000 0aaa 0080 3b8f 0080 249a 0180
000000a0: b988 0000 dc95 0080 7c8e 0000 779d 0080
000000b0: 4a8b 0000 4cac 0000 ca93 0080 cc8d 0000
000000c0: b2a5 0080 8d98 0000 ad9b 0080 238e 0000
000000d0: 3fa3 0000 7592 0000 609d 0000 35aa 0000
000000e0: aa92 0000 f03f 0100 da95 0080 d69b 0080
000000f0: 0a9f 0080 e699 0000 0d8f 0080 30ae 0000
5.7235e-41 -5.9402e-41 4.9124e-41 5.8344e-41 5.8527e-41 4.906e-41 4.9704e-41 5.5503e-41
2.8583e-40 1.34288e-40 -1.60764e-40 5.8972e-41 -4.9236e-41 -5.4033e-41 5.5099e-41 5.7802e-41
1.7952e-40 5.3408e-41 5.7556e-41 -5.7313e-41 1.94067e-40 4.9764e-41 5.7298e-41 -5.7935e-41
5.3322e-41 -5.355e-41 6.0193e-41 6.0201e-41 4.989e-41 5.2039e-41 -4.917e-41 -5.8629e-41
5.3611e-41 5.9771e-41 5.0216e-41 -5.8646e-41 8.9263e-41 -6.0999e-41 -5.1381e-41 -1.47131e-40
4.9047e-41 -5.376e-41 5.1114e-41 -5.6488e-41 4.9968e-41 6.1808e-41 -5.3017e-41 5.0867e-41
-5.944e-41 5.4725e-41 -5.5846e-41 5.0989e-41 5.8562e-41 5.2539e-41 5.6456e-41 6.1059e-41
5.2613e-41 1.14772e-40 -5.3757e-41 -5.5903e-41 -5.7052e-41 5.5208e-41 -5.1317e-41 6.2487e-41

sparse_weighted_adjacency_matrices.pair_attention.edge_query.weight f4 [16, 16]
00000000: 0eda 283e be7b 3f3e b04f febd 80d7 94bc
00000010: c407 1cbe 6e97 593e 0454 92bd 283c b13d
00000020: 0004 103b a07c cdbd 8e97 6d3e 4a59 0e3e
00000030: 405c f83b 5c94 c93d c845 24bd 28e2 363d
00000040: 28cf fabd a01c 663c 7a4c 563e e4ad 54be
00000050: d649 0fbe e886 cd3d b456 003e 5ab3 643e
00000060: 80ae 303e a87e 56be a445 eebd a652 55be
00000070: c0be babc ecad 9e3d b814 0ebe 6802 56bd
00000080: 4026 abbc 7e7c 2e3e a825 16bd 9ef7 6d3e
00000090: 50da 613d 5a86 543e ca9b 56be 6cc1 6e3e
000000a0: 0043 5bbd 96f6 51be 728e 4cbe 2046 a5bc
000000b0: c43b 6c3e 2afe 40be 2675 00be 94a5 24be
000000c0: f8da 38be 6e15 6ebe acb2 83bd 78e7 bdbd
000000d0: 80f1 14bd f8e8 69bd c88b a3bd 5cd8 09be
000000e0: 12bc 4dbe d833 6c3d 4014 d4bd e4b0 783e
000000f0: daeb 653e c08e 00bc a40a 2abe dcf1 ec3d
00000100: 649c 8ebd f4e7 2dbe d08e aabd 089f 8f3d
00000110: 00c6 45be 686b 29be dc02 dd3d 00a0 9c3d
00000120: 1013 5ebd c2fe 1d3e 24e1 733e 9ef8 3f3e
00000130: ea9b 40be b0ae 3ebe e847 b73d 64e4 303e
00000140: 00f0 b93b 3a00 01be d42d f0bd 4cdc 533e
00000150: d8ff 00bd 703d 6c3d c0c3 ae3d e6cb 58be
00000160: 608e 26bc dc7b c03d 8298 0c3e 821c 41be
00000170: 8830 5c3e 4c2a c33d 9ee2 403e e664 64be
00000180: c868 333e 0023 4abc a829 0e3e 0c41 6fbe
00000190: 340b 643e dec4 363e e6c9 32be b8dd 7b3e
000001a0: 285a 18bd 2ceb 883d fc80 a3bd da85 193e
000001b0: e2a8 1abe 2c0e 19be f65f 053e c49a 87bd
000001c0: 00a2 263d 8080 3a3d c0aa 4dbe c88f 7b3d
000001d0: 94ec 83bd c0ff e7bc 9cf9 9bbd 5ac4 093e
000001e0: 0068 3a3b bc1f b0bd f29f 78be 6082 dbbc
000001f0: 08df 9ebd 1c72 54be 3c8e 22be f016 aebd
00000200: 6c37 cebd 3480 483e 7a0f 243e 5a26 03be
00000210: 9662 313e 08ac abbd cc0a 71be 462d 113e
00000220: b452 173e 78ff 7ebe 5694 5c3e 1a3e 19be
00000230: 7882 36bd c8a4 90bd 08e3 f43d f4ab 86bd
00000240: d62b 6cbe d491 e2bd a4f4 103e 9088 9b3c
00000250: 6009 073e b89e 88bd de90 4a3e 9c15 d43d
00000260: a496 ca3d 9606 3c3e da37 593e dc7b 383e
00000270: 22ff 173e b419 063e 4072 2fbd 9c0f 033e
00000280: 7483 dc3d 009b 2c3b ca32 7bbe a0e3 063c
00000290: 70cc 1ebe e09e 44bd da3b 29be a0cb 84bc
000002a0: e497 773e f662 20be 242d 773e d8d1 653e
000002b0: 10ba f2bc 54f2 533e 3015 abbc f683 673e
000002c0: 849e 53be be44 723e cc0b 773e f8fa fbbd
000002d0: 10e0 ccbc 409c 643d 00cb f33b eec7 333e
000002e0: 9cfc 293e fca8 7e3e 4057 703d f8cf 7b3e
000002f0: 348f 6d3e 40db b3bc 5a82 233e 941e 09be
00000300: 4478 3ebe 7019 6e3e 9c5e 65be 5206 0c3e
00000310: f89c c53d de68 07be 4099 e1bc 5233 433e
00000320: 8625 2fbe a623 493e 50c3 92bc 64fe c73d
00000330: 2870 6d3d 0881 e4bd 2820 743d a239 3bbe
00000340: 3eb0 5dbe 8a2c 3dbe e260 52be a4b2 7cbe
00000350: 784f 91bd c03c edbd 88b5 163e 0082 9cbb
00000360: f031 c43c 2031 51bc 0007 303e 420d 6dbe
00000370: 944c 6ebe 48d1 413e a668 603e b4d0 593e
00000380: 3a72 1c3e fca8 79be 982a 7fbe 5ce1 6d3e
00000390: 2a5e 3e3e 7897 1b3d 185c ae3d 28a1 2cbe
000003a0: b472 223e a48d c43d 6c86 b0bd 4212 793e
000003b0: a269 7f3e 1ac5 31be b4b5 0f3e e0fd 41bd
000003c0: fcb5 19be 9065 883d c0ee febd 8412 5abe
000003d0: 2ed9 223e 1802 9c3d f81d 523e 78f9 073e
000003e0: 1006 e43c c84a 1d3e 485b 43be fce7 b23d
000003f0: bc2d f7bd 067d 30be c0ec 573d f618 4b3e
0.16489431 0.18699548 -0.12417543 -0.018169165 -0.15237337 0.21249172 -0.07144931 0.08654052
0.002197504 -0.10033536 0.23202345 0.13901249 0.0075793564 0.098427504 -0.04010561 0.044649273
-0.12246543 0.014044911 0.20927611 -0.20769459 -0.1399301 0.10035497 0.12533075 0.22334042
0.17254066 -0.20946753 -0.11634377 -0.20832309 -0.022796035 0.07748017 -0.13875091 -0.05224839
-0.020892262 0.17039678 -0.036657006 0.2323899 0.05513984 0.20754376 -0.20957866 0.23315972
-0.053530693 -0.20504221 -0.19976214 -0.02017504 0.23069674 -0.18846956 -0.12544689 -0.16078788
-0.1805228 -0.23250362 -0.06430563 -0.09272665 -0.036363125 -0.057106942 -0.079856455 -0.13461441
-0.20091274 0.05766663 -0.10355425 0.24286228 0.22453251 -0.007846534 -0.16605622 0.115695685
-0.06963423 -0.16983014 -0.083280206 0.07012755 -0.19313812 -0.16544878 0.10791561 0.07647705
-0.0542174 0.15429214 0.23816353 0.18747184 -0.18809476 -0.18621325 0.08949262 0.17274624
0.005674362 -0.12597743 -0.11727491 0.20689505 -0.03149399 0.05767578 0.0853343 -0.21171531
-0.010165781 0.09398624 0.13730052 -0.18858531 0.21502888 0.09529552 0.18836448 -0.22304115
0.1752044 -0.012337446 0.13883078 -0.23364657 0.22269899 0.17848536 -0.1745983 0.24596298
-0.037195355 0.066854805 -0.07983586 0.14992467 -0.15103486 -0.14946812 0.13024887 -0.06621316
0.04068184 0.045532703 -0.20084667 0.061416417 -0.06441608 -0.028320193 -0.076159686 0.13453808
0.0028443336 -0.08599803 -0.24279764 -0.026795566 -0.077573836 -0.20746654 -0.1587457 -0.08500469
-0.10069165 0.19580156 0.16021529 -0.12807599 0.17322764 -0.08382422 -0.23539275 0.14177427
0.14777642 -0.24902141 0.2154096 -0.14965096 -0.04455802 -0.070626795 0.11957365 -0.06575766
-0.23063597 -0.11062971 0.14155823 0.018986017 0.1318717 -0.06670898 0.19781825 0.10355684
0.09892014 0.18361887 0.21212712 0.18015999 0.14843419 0.13095742 -0.042833567 0.12798923
0.1076726 0.0026337504 -0.24531093 0.008232981 -0.15507674 -0.048003078 -0.16526738 -0.016210377
0.24179035 -0.1566275 0.24138314 0.2244333 -0.029629737 0.2069791 -0.020884126 0.22608933
-0.20665938 0.23659036 0.24125594 -0.12303728 -0.025009185 0.055813074 0.007439971 0.17556736
0.16600269 0.2486915 0.058676958 0.24591053 0.23199159 -0.021955132 0.15967694 -0.13390571
-0.18600565 0.23251891 -0.22399372 0.13674286 0.0964908 -0.13223597 -0.027538896 0.19062546
-0.17104158 0.19642505 -0.017915398 0.09765318 0.05796829 -0.11157423 0.05960098 -0.18283704
-0.21649262 -0.18474022 -0.2054477 -0.24677521 -0.070952356 -0.11583853 0.14717686 -0.0047762394
0.023949593 -0.01276806 0.1719017 -0.23149589 -0.232714 0.1892749 0.2191492 0.2127102
0.15277949 -0.24380869 -0.24918592 0.23230499 0.18590608 0.03798625 0.08513659 -0.16858351
0.15864068 0.09597328 -0.08619389 0.24323371 0.2494264 -0.17360345 0.14034158 -0.047361255
-0.15010828 0.066599965 -0.12447882 -0.21296126 0.1590316 0.07617587 0.20519245 0.13278759
0.027834922 0.15360558 -0.1907779 0.08735654 -0.1206927 -0.17235193 0.052716017 0.1983374

sparse_weighted_adjacency_matrices.pair_attention.edge_query.bias f4 [16]
00000000: a87b 66be 80c9 b9bb 9eef 453e c8d0 103d
00000010: 7634 44be 3040 f83c fcd0 213e b0df 413d
00000020: 2af8 393e 66a3 0c3e 3435 e83d 0424 783e
00000030: 322f 6c3e 9863 9ebd 30c5 e03d c8da c9bd
-0.22508109 -0.0056697726 0.19329688 0.03535536 -0.19160637 0.030304044 0.15802377 0.047332466
0.18161073 0.13734207 0.11338273 0.24232489 0.23064879 -0.0773384 0.109751105 -0.09856182

sparse_weighted_adjacency_matrices.pair_attention.edge_key.weight f4 [16, 16]
00000000: 1c0d d53d 5ce6 75be 6048 433c 7621 603e
00000010: 500e cbbd a8ca ebbd 842b 5c3e 10f2 39bd
00000020: 5225 07be 2472 d0bd 2c82 3a3e 409e ee3c
00000030: 9660 683e cedc 553e 6000 533d 1a7d 59be
00000040: 8824 093e d4d1 4b3e 585a 22bd 102f 233d
00000050: 980c 143d 70f8 903c d496 113e 00e6 91bd
00000060: 00b3 e2bb 188e 913d d2ce 72be 64d3 f0bd
00000070: c803 473d 2800 d33d 8890 53be a0e5 ddbc
00000080: a058 d1bd f4e3 bb3d f0c4 cfbc 2e29 4dbe
00000090: 14c3 c33d acc2 50be b699 753e cca6 623e
000000a0: 8e4c 5abe 8840 3cbd 78a4 36bd 46b9 693e
000000b0: 66a0 58be 3876 5bbe 00e1 adbc 2884 b6bd
000000c0: c4af e4bd 4c64 0cbe b42d d63d b224 62be
000000d0: f493 213e dc57 27be 3e37 55be b4f4 dcbd
000000e0: d0cd 9a3d b835 12bd 480e b43d 1026 92bc
000000f0: 5017 2a3d 4ade 52be 8814 5abe 902c 613d
00000100: 108d 963c 6279 44be 4097 c5bc 949b 67be
00000110: e012 023c b85a 10bd 24de b23d 74f7 4c3e
00000120: c8ac 03bd c4ca 00be c8ac 2d3e f00a a4bd
00000130: b675 79be 00cc a83a bccd d6bd 1c2a 20be
00000140: f89a 363e 0625 633e 1899 3abd a8d8 343e
00000150: a0cc 5cbe 48d2 813d 4693 34be 583a 3cbd
00000160: e45e 273e 109c e23c a8a0 c5bd 281a 0d3d
00000170: e860 673d 6045 aebd a600 6fbe e49f 12be
00000180: 808d 983d 3418 b2bd 0856 703e 78c5 683d
00000190: 48b6 7cbd 80fc 283b 082d 68be 54d9 c13d
000001a0: 087d 493d 9256 77be 0c00 fbbd f8aa 10be
000001b0: b078 bc3c 00f6 46ba 38db 773e a885 dc3d
000001c0: a87d 143e dc52 a43d b073 6f3d 687a 2a3d
000001d0: 40bc 913c 8c58 b43d f66b 14be 001a 373b
000001e0: 0886 f9bd 5eb4 62be d87a 6f3d 488d dc3d
000001f0: e0f6 1cbd 788e 1e3d 1415 893d b090 e6bc
00000200: 1c2e 25be 6854 abbd 0eba 7c3e d0eb 343d
00000210: a4fb 323e 8466 80bd 0e59 133e 607d 633c
00000220: ccf2 ecbd 00bb 443d 0069 433b 0656 003e
00000230: 8ea4 343e 8c83 993d a0e7 99bc e465 f2bd
00000240: 78f3 6abe 5c36 0abe 602a 963c 3c2e 86bd
00000250: 2210 13be 50d6 e3bc 9a11 75be 7eb1 2abe
00000260: 1831 1bbd 2009 46bd 4023 a4bc d28d 073e
00000270: 281e 403e 8883 533d 4e90 4d3e 36fb 673e
00000280: 24fe 143e 6042 08bc cca1 c33d 7404 723e
00000290: 7086 f13d 00be 953a 70c8 c7bc a8c7 11be
000002a0: cc1d 87bd 7e9f 5abe a0ae 71be 321f 19be
000002b0: 3cb9 13be 7ca3 c53d 60c1 dd3c a82b 39be
000002c0: 1c64 9abd b068 803d 5a82 233e 4038 92bd
000002d0: cc6e bfbd fcdb fe3d 300f 283d 5890 15be
000002e0: 584e 743e c05f cfbd 6eac 3b3e 4051 8b3c
000002f0: 28fa 45bd 2c6f 3ebe be33 4dbe 3c85 9cbd
00000300: c061 d63b 9acf 0ebe 3cbc 66be 283b c83d
00000310: 60ed 7dbc b038 4a3e 9a76 38be e6ee 15be
00000320: 40a1 0a3d 38c7 773d a6a4 433e b24d 733e
00000330: ecaf 1e3e d2e8 72be cacd 6ebe d032 f13d
00000340: b8d9 42be 1807 8f3d eed6 2d3e 56eb 223e
00000350: 7245 6cbe 385f edbd b8f4 77bd 52fe 67be
00000360: 2675 74be 404b b1bc 6cfc 853d 68d0 42bd
00000370: e085 5d3c cc8b 123e 5ad1 4d3e 54a2 5b3e
00000380: e6b8 5c3e 4808 fe3d 32f7 71be 08a8 ecbd
00000390: 4061 193c 1ca0 2e3e 48eb a13d 8c48 5fbe
000003a0: 0ccc b7bd ecb6 6fbe 10a6 4e3e 686c b13d
000003b0: 6077 793c 6c94 c03d 68b8 9d3d 42f9 2ebe
000003c0: a8bc 6a3d c0b4 c93b f2c3 023e 847a 36be
000003d0: 78bf b33d ce30 193e aa18 443e d002 ebbd
000003e0: a04f 90bd 543a 5d3e 12f2 6dbe 5853 67be
000003f0: b0dd dc3c 00a0 ac3a 6c25 733e 8090 1fbb
0.10402891 -0.24013656 0.011919111 0.21887764 -0.09914839 -0.11513263 0.21500975 -0.045396864
-0.1319783 -0.101780206 0.18213719 0.029128194 0.22693095 0.20885012 0.05151403 -0.21239129
0.13392842 0.19904262 -0.03963694 0.039839804 0.036144823 0.01769659 0.14217693 -0.07123947
-0.006918311 0.0710718 -0.23711708 -0.117590696 0.04858759 0.10302764 -0.20660603 -0.027087033
-0.10221982 0.09174338 -0.025362462 -0.2003524 0.095586926 -0.20386761 0.23984417 0.2213394
-0.21318266 -0.04595998 -0.044590443 0.22824582 -0.21154937 -0.21431816 -0.021225452 -0.089119256
-0.11166337 -0.13710135 0.10457936 -0.2208431 0.15779096 -0.1634211 -0.20821854 -0.10788861
0.07558787 -0.03569576 0.087917864 -0.017840415 0.04152614 -0.20592609 -0.21296895 0.05497414
0.01837781 -0.19186929 -0.024119973 -0.22617942 0.00793907 -0.035242766 0.08733776 0.20016271
-0.0321472 -0.12577349 0.16960442 -0.08009899 -0.2436131 0.001287818 -0.104884595 -0.15641063
0.17832553 0.22182092 -0.045556158 0.17660773 -0.21562433 0.06338936 -0.17634305 -0.04595408
0.16344792 0.027662307 -0.096497834 0.034448773 0.0564889 -0.08509326 -0.23340091 -0.14318806
0.07448864 -0.08696023 0.23470318 0.056828946 -0.061697274 0.0025785267 -0.22673428 0.0946528
0.049191505 -0.24154118 -0.12255868 -0.1412772 0.023006767 -0.00075897574 0.24204719 0.107676804
0.14501059 0.08023617 0.058459938 0.041620642 0.01778996 0.088059515 -0.14494309 0.0027939081
-0.121837676 -0.22139117 0.058466762 0.10769135 -0.038321376 0.038710088 0.066934735 -0.028145164
-0.1613087 -0.083657086 0.24680349 0.0441702 0.17478806 -0.06269553 0.1438944 0.013884872
-0.11569747 0.0480299 0.0029817224 0.12532815 0.17640898 0.07495794 -0.018787205 -0.1183584
-0.22944438 -0.13497299 0.018330753 -0.06551787 -0.14361623 -0.027812153 -0.23932496 -0.1666927
-0.037888616 -0.048348546 -0.02003634 0.13237694 0.18761504 0.05163911 0.20074579 0.22654423
0.14550072 -0.008316606 0.09552345 0.23634511 0.1179322 0.0011424422 -0.024387568 -0.14236319
-0.0659748 -0.21349904 -0.2360177 -0.14953306 -0.1442613 0.09650323 0.027069747 -0.1808306
-0.075386256 0.062699676 0.15967694 -0.07139635 -0.09347305 0.124443024 0.04103011 -0.14605844
0.23858011 -0.10125685 0.18327495 0.017006516 -0.04833427 -0.18597096 -0.2003927 -0.076426
0.0065424144 -0.13946381 -0.22532743 0.09776908 -0.015498489 0.19748187 -0.18013993 -0.14641914
0.033845186 0.060492724 0.19105777 0.23760107 0.15496796 -0.23721626 -0.2332069 0.1177727
-0.19028366 0.06983775 0.1697652 0.15910086 -0.23073366 -0.11590427 -0.060536116 -0.22655609
-0.23872814 -0.021642327 0.06542286 -0.047562033 0.013520688 0.14311141 0.20099393 0.21448642
0.21554908 0.12403923 -0.23629454 -0.11555487 0.009361565 0.17053264 0.079062045 -0.21805018
-0.08974466 -0.23409623 0.20180535 0.08663255 0.015226215 0.09403309 0.07701188 -0.17087272
0.057308823 0.0061555803 0.1277006 -0.17820174 0.08776754 0.14960024 0.19150034 -0.11475146
-0.07046437 0.21604282 -0.23236874 -0.22590387 0.026961178 0.0013170242 0.23744744 -0.0024347603

sparse_weighted_adjacency_matrices.pair_attention.edge_key.bias f4 [16]
00000000: 2c2f b53d 2655 40be 1ca1 f5bd 646e b73d
00000010: 028a 633e a899 a5bd 10e4 18be 945e 1dbe
00000020: b246 533e d0fd 14bd 60de 15bd 00cc 07bb
00000030: 1c45 4fbe d467 3e3e d2d1 0d3e 480a 543e
0.08846888 -0.18782482 -0.1199362 0.08956602 0.22220615 -0.08085948 -0.14930749 -0.1536811
0.20632437 -0.036374867 -0.036589026 -0.0020720959 -0.20241207 0.18594295 0.13849571 0.20707047

sparse_weighted_adjacency_matrices.group_attention.embedding.weight f4 [64, 2]
00000000: 5a8b 0080 8f8c 0000 cc88 0080 0e8e 0000
00000010: 95a6 0080 2f94 0000 a18c 0000 628b 0080
00000020: 588d 0080 988a 0080 ff89 0000 018b 0000
00000030: db8d 0000 2990 0000 8693 0080 8e89 0080
00000040: 7c8f 0080 46a3 0000 998c 0100 998a 0000
00000050: c68a 0080 3789 0080 858a 0080 458b 0000
00000060: 558b 0000 f988 0000 af89 0000 d28c 0000
00000070: 75ae 0080 578d 0000 6a8d 0000 718a 0000
00000080: bf91 0080 d694 0080 1e9e 0080 6189 0080
00000090: 7e89 0080 8089 0080 c692 0000 718b 0000
000000a0: 659a 0000 3e8a 0080 e189 0000 ef8b 0080
000000b0: 6a8a 0080 628b 0080 5796 0000 9e91 0080
000000c0: 7b8a 0080 9f8a 0000 f28c 0080 d089 0000
000000d0: 5289 0000 6891 0000 bb89 0000 928a 0080
000000e0: 648e 0000 5b89 0080 268a 0080 748d 0080
000000f0: e288 0000 f493 0000 2689 0000 4fa8 0000
00000100: 148b 0000 398e 0000 1a8a 0080 068d 0000
00000110: cc8e 0000 4a89 0080 288c 0080 e58c 0080
00000120: ce88 0000 089b 0000 0c8b 0080 c29d 0080
00000130: a58b 0000 0089 0000 db89 0080 558f 0080
00000140: 5489 0000 e28b 0000 cc8c 0000 7491 0080
00000150: 2d8b 0080 9647 0180 ff8d 0080 688a 0000
00000160: 878e 0000 3289 0080 db8c 0000 f98c 0080
00000170: cf88 0000 cd89 0080 248a 0080 f98c 0080
00000180: ef88 0080 4a8b 0000 5489 0080 c58f 0000
00000190: 11ae 0080 1a8a 0080 5e89 0000 128b 0000
000001a0: 378b 0080 3c8b 0080 eb8a 0080 1a8a 0080
000001b0: 098b 0000 a58c 0000 a597 0000 2f8a 0080
000001c0: 068a 0000 0698 0000 8d89 0000 7b8b 0080
000001d0: 1289 0000 218c 0000 cd8a 0000 649a 0080
000001e0: 2989 0000 9a8b 0080 c98e 0000 c88e 0000
000001f0: 4b89 0000 1ca9 0080 7491 0000 3aa5 0000
-4.999e-41 5.0423e-41 -4.9073e-41 5.096e-41 -5.9758e-41 5.3158e-41 5.0448e-41 -5.0001e-41
-5.0705e-41 -4.9718e-41 4.9504e-41 4.9865e-41 5.0888e-41 5.1715e-41 -5.2921e-41 -4.9345e-41
-5.1472e-41 5.8571e-41 1.42272e-40 4.972e-41 -4.9783e-41 -4.9223e-41 -4.9691e-41 4.996e-41
4.9983e-41 4.9137e-41 4.9392e-41 5.0517e-41 -6.2583e-41 5.0703e-41 5.073e-41 4.9663e-41
-5.2284e-41 -5.3392e-41 -5.6722e-41 -4.9282e-41 -4.9323e-41 -4.9326e-41 5.2652e-41 5.0022e-41
5.5386e-41 -4.9592e-41 4.9462e-41 -5.0199e-41 -4.9654e-41 -5.0001e-41 5.3932e-41 -5.2238e-41
-4.9677e-41 4.9728e-41 -5.0562e-41 4.9438e-41 4.9261e-41 5.2162e-41 4.9408e-41 -4.971e-41
5.108e-41 -4.9274e-41 -4.9558e-41 -5.0744e-41 4.9104e-41 5.3076e-41 4.92e-41 6.0378e-41
4.9892e-41 5.102e-41 -4.9542e-41 5.059e-41 5.1226e-41 -4.925e-41 -5.0279e-41 -5.0543e-41
4.9076e-41 5.5615e-41 -4.988e-41 -5.6593e-41 5.0095e-41 4.9146e-41 -4.9453e-41 -5.1418e-41
4.9264e-41 5.018e-41 5.0508e-41 -5.2179e-41 -4.9927e-41 -1.17516e-40 -5.0939e-41 4.9651e-41
5.1129e-41 -4.9216e-41 5.053e-41 -5.0571e-41 4.9078e-41 -4.9434e-41 -4.9556e-41 -5.0571e-41
-4.9123e-41 4.9968e-41 -4.9264e-41 5.1575e-41 -6.2443e-41 -4.9542e-41 4.9278e-41 4.9889e-41
-4.9941e-41 -4.9948e-41 -4.9834e-41 -4.9542e-41 4.9876e-41 5.0454e-41 5.44e-41 -4.9571e-41
4.9513e-41 5.4536e-41 4.9344e-41 -5.0036e-41 4.9172e-41 5.0269e-41 4.9792e-41 -5.5385e-41
4.9204e-41 -5.008e-41 5.1222e-41 5.122e-41 4.9251e-41 -6.0665e-41 5.2179e-41 5.9272e-41

sparse_weighted_adjacency_matrices.group_attention.embedding.bias f4 [64]
00000000: 3d8a 0080 c78c 0080 309f 0000 1f94 0080
00000010: 578b 0000 508b 0000 6f8a 0080 028b 0000
00000020: 2d89 0000 6eab 0000 9d9b 0000 6389 0000
00000030: 7d8a 0080 d5a0 0080 839a 0080 1489 0000
00000040: 2b89 0080 cb89 0080 bc93 0000 6c91 0000
00000050: 3689 0000 138c 0000 008e 0000 f08a 0000
00000060: 4e92 0080 4ca5 0080 098a 0000 3792 0080
00000070: 458d 0080 e18e 0080 c68c 0000 fc8a 0000
00000080: 6689 0000 fe8a 0080 2989 0000 2a97 0080
00000090: 488a 0080 5d8d 0000 de8a 0000 fd8a 0000
000000a0: e189 0080 8699 0080 f288 0000 7d8f 0000
000000b0: b18c 0080 6b8a 0000 c989 0000 e289 0000
000000c0: 808b 0000 0989 0080 0e8e 0000 be88 0080
000000d0: f388 0000 f18f 0080 558b 0000 1e8a 0000
000000e0: 8c89 0080 e98a 0000 dc88 0000 1889 0080
000000f0: ae89 0080 a389 0080 258b 0080 7089 0000
-4.959e-41 -5.0501e-41 5.7106e-41 -5.3136e-41 4.9986e-41 4.9976e-41 -4.966e-41 4.9867e-41
4.921e-41 6.1497e-41 5.5824e-41 4.9285e-41 -4.968e-41 -5.7696e-41 -5.5428e-41 4.9174e-41
-4.9207e-41 -4.9431e-41 5.2997e-41 5.2168e-41 4.9222e-41 5.0249e-41 5.094e-41 4.9841e-41
-5.2484e-41 -5.9297e-41 4.9518e-41 -5.2452e-41 -5.0678e-41 -5.1255e-41 5.05e-41 4.9858e-41
4.9289e-41 -4.9861e-41 4.9204e-41 -5.4227e-41 -4.9606e-41 5.0712e-41 4.9816e-41 4.986e-41
-4.9462e-41 -5.5074e-41 4.9127e-41 5.1474e-41 -5.047e-41 4.9655e-41 4.9428e-41 4.9463e-41
5.0043e-41 -4.9159e-41 5.096e-41 -4.9054e-41 4.9128e-41 -5.1636e-41 4.9983e-41 4.9547e-41
-4.9343e-41 4.9832e-41 4.9096e-41 -4.918e-41 -4.939e-41 -4.9375e-41 -4.9916e-41 4.9303e-41
