checkpoints/GHGNN/zara2/val_best.pth (torch, 128786 bytes, 58 tensors)

sparse_weighted_adjacency_matrices.edge_inital.x_embedding.weight f4 [16, 2]
0	0xb259820a	-1.266063e-08
1	0x31a1e8df	4.712191e-09
2	0x38f6fb58	0.000117770105
3	0x38e67726	0.00010989448
4	0xb798a1ec	-1.8195213e-05
5	0xb7eb7d33	-2.8072483e-05
6	0x38130bc4	3.505849e-05
7	0x385f11dc	5.3183976e-05
8	0x35d8f28b	1.6163843e-06
9	0x36d3994b	6.3061357e-06
10	0xb1a88994	-4.9050843e-09
11	0x3171b13d	3.5170864e-09
12	0xb680978c	-3.8323396e-06
13	0xb7212a33	-9.606173e-06
14	0x2faaa5c8	3.1040615e-10
15	0xaf85ac29	-2.4314886e-10
16	0x38cb085c	9.6813514e-05
17	0x368c5f83	4.183444e-06
18	0x38789e2a	5.927511e-05
19	0x3986db9f	0.00025722102
20	0x39192564	0.00014605146
21	0x3a2067ea	0.0006119
22	0xb4486bb5	-1.8665635e-07
23	0xb42837c9	-1.5666514e-07
24	0x38835d5f	6.2639585e-05
25	0x38cecc86	9.860941e-05
26	0x2fe7287a	4.2047416e-10
27	0xae905e58	-6.565121e-11
28	0x3505aba9	4.979616e-07
29	0xb45ff793	-2.085856e-07
30	0x369072a7	4.3048817e-06
31	0x35e9318c	1.7374273e-06

sparse_weighted_adjacency_matrices.edge_inital.x_embedding.bias f4 [16]
0	0xb68bcd90	-4.1664534e-06
1	0x3808058f	3.2430104e-05
2	0xbbde6803	-0.0067873015
3	0xbcb38491	-0.021913799
4	0xb8422969	-4.629177e-05
5	0xb5f79638	-1.8446653e-06
6	0xbaa429db	-0.0012524681
7	0x33a62088	7.735895e-08
8	0xb83108a0	-4.220812e-05
9	0xbadae026	-0.0016698882
10	0xba98c39a	-0.0011654973
11	0xb8b39c3e	-8.5644875e-05
12	0x3c72af31	0.014812277
13	0x34313e50	1.6507079e-07
14	0x3924d67a	0.00015720158
15	0x3b10e5a2	0.0022109528

sparse_weighted_adjacency_matrices.edge_inital.edge_embedding.weight f4 [16, 16]
0	0x31bf4d40	5.567614e-09
1	0x3a47bc83	0.0007619338
2	0xb74f7cc0	-1.2367207e-05
3	0xb922a8ff	-0.0001551248
4	0xb68ffce4	-4.2911724e-06
5	0x312a9b31	2.4826472e-09
6	0xb738ffa2	-1.1026774e-05
7	0xaf3c0b6b	-1.7102557e-10
8	0xba70a05c	-0.0009179169
9	0xbb4a9d62	-0.0030916561
10	0x3b71b5dd	0.003688208
11	0x32ca8d04	2.3580021e-08
12	0x39117aa1	0.0001387396
13	0x305360fa	7.6899165e-10
14	0xb460cdea	-2.0936537e-07
15	0xb5b43e35	-1.342915e-06
16	0x2e98d08c	6.949205e-11
17	0xba1e3bb0	-0.0006036116
18	0x3602663c	1.9431018e-06
19	0x378adb83	1.65531e-05
20	0xb4a4132e	-3.0561336e-07
21	0x2e2a41c2	3.871193e-11
22	0x35ec1389	1.7589056e-06
23	0xab788873	-8.829666e-13
24	0xb9bdeef9	-0.00036226938
25	0x3aab4502	0.001306683
26	0x3a943b80	0.0011309236
27	0x31ce698f	6.0073897e-09
28	0xb78407a9	-1.5739193e-05
29	0xae54b9ac	-4.836813e-11
30	0xb1373538	-2.6660256e-09
31	0xb3de5653	-1.0353383e-07
32	0x32114144	8.4549505e-09
33	0x3aa4f1c4	0.0012584259
34	0xb888ca51	-6.52267e-05
35	0x397006d7	0.00022890732
36	0x377d4117	1.509513e-05
37	0x3180f2f7	3.752912e-09
38	0xb82370b7	-3.8967202e-05
39	0xaf5d2019	-2.0111236e-10
40	0xbb2091c8	-0.0024500955
41	0x3b67ec6f	0.0035388728
42	0xba5a5a2f	-0.00083294784
43	0x3435b243	1.692179e-07
44	0x38a06ccd	7.64966e-05
45	0xb16b6459	-3.4254042e-09
46	0xb4b5b67b	-3.384665e-07
47	0xb66d95fd	-3.5403057e-06
48	0xae630147	-5.161496e-11
49	0xb317b4a2	-3.5321712e-08
50	0xb1866223	-3.91107e-09
51	0xb34e56a1	-4.80419e-08
52	0xafdc78ae	-4.0103515e-10
53	0xad9fac42	-1.8152705e-11
54	0xb0ca1514	-1.4703425e-09
55	0x2c8bcbb9	3.9732354e-12
56	0xb2e6e147	-2.6877968e-08
57	0x3173af9d	3.5460979e-09
58	0xb4400d44	-1.788622e-07
59	0x2e84acf1	6.0333856e-11
60	0x32edb5fb	2.7673186e-08
61	0xaa48e4f9	-1.7843009e-13
62	0x30a173e2	1.1747228e-09
63	0xb002544c	-4.741352e-10
64	0xa91cfd32	-3.485857e-14
65	0x33d1cd12	9.769623e-08
66	0xae1d4bbd	-3.5764936e-11
67	0xaf1ea5d0	-1.4428925e-10
68	0xab03d766	-4.6839475e-13
69	0xa8573a15	-1.1947492e-14
70	0xacfb9ef9	-7.1514986e-12
71	0x26ed3caa	1.6461622e-15
72	0xb23b6ebd	-1.0910012e-08
73	0x320ced01	8.202961e-09
74	0xb4617f4d	-2.100107e-07
75	0xaabfbf9b	-3.4061369e-13
76	0x2ed0a55b	9.488118e-11
77	0x263f8dfb	6.6458856e-16
78	0x2be4a41a	1.6245922e-12
79	0x2d1bb2cb	8.85043e-12
80	0x2cbaaf77	5.3059185e-12
81	0x36879206	4.040313e-06
82	0x33d6575d	9.981043e-08
83	0x368898d3	4.070907e-06
84	0x33bd2183	8.807094e-08
85	0x2c5c24dd	3.1284344e-12
86	0x338c71d7	6.5399654e-08
87	0xa9786019	-5.5150413e-14
88	0x39625cb1	0.0002158757
89	0xb95331c2	-0.00020141064
90	0x3a1b8d60	0.0005933847
91	0x2fbb444b	3.4063627e-10
92	0x33c63f39	9.2315936e-08
93	0xac15b100	-2.1272428e-12
94	0xaf40d542	-1.7538063e-10
95	0xb1f87291	-7.2307746e-09
96	0xafc756ae	-3.625948e-10
97	0x39437553	0.00018640356
98	0xb5934731	-1.0973073e-06
99	0xb7a10c08	-1.9198298e-05
100	0xb6112b68	-2.163195e-06
101	0xaf26c338	-1.5166968e-10
102	0xb4fe9384	-4.7418519e-07
103	0x2d747f50	1.3898063e-11
104	0xb9c7eb04	-0.00038131338
105	0x3913bbad	0.00014088927
106	0xbaa6b352	-0.0012718237
107	0xb1f00f25	-6.986641e-09
108	0x37471b7e	1.1867725e-05
109	0x2db0b86a	2.009078e-11
110	0x32666312	1.3410288e-08
111	0x3419c0c7	1.4319367e-07
112	0xafca7313	-3.682535e-10
113	0xbba3cd9d	-0.0049988762
114	0xb83a2ca9	-4.438745e-05
115	0xb91f5e27	-0.00015198496
116	0xb758b35d	-1.29163645e-05
117	0xaf83eb82	-2.39961e-10
118	0xb71acfbd	-9.227483e-06
119	0x2cb33a18	5.0939357e-12
120	0xbb0a9310	-0.0021144785
121	0x3b813ce4	0.0039440263
122	0xbbd20f46	-0.006410512
123	0xb4392af0	-1.7245088e-07
124	0x39fa869a	0.00047784002
125	0x337b5c76	5.8524584e-08
126	0x32551d82	1.2404941e-08
127	0x3586d89d	1.0046821e-06
128	0xb296c090	-1.7549866e-08
129	0xba5c9bc9	-0.0008415548
130	0xb7897ac0	-1.6388833e-05
131	0xb97a3056	-0.00023859864
132	0x34886595	2.5405885e-07
133	0xb209ffa1	-8.032573e-09
134	0xb6d1dbaf	-6.25426e-06
135	0x2fe1480e	4.097846e-10
136	0xba48c080	-0.0007658079
137	0x3984037d	0.000251796
138	0x3885f1f2	6.387e-05
139	0xb4ae27af	-3.24389e-07
140	0xb788ec84	-1.63226e-05
141	0x30d7f56d	1.5713063e-09
142	0x353d3bd5	7.0495054e-07
143	0x36ef86b9	7.138439e-06
144	0xab97db29	-1.0790024e-12
145	0x388c79bd	6.698396e-05
146	0xb1b80f3d	-5.356837e-09
147	0xb3754e6c	-5.7114832e-08
148	0xb2065054	-7.818091e-09
149	0xab0dc282	-5.0363197e-13
150	0xb0ce401c	-1.5006694e-09
151	0x28b24e03	1.9795802e-14
152	0xb5dbc773	-1.6374819e-06
153	0xb7e2de22	-2.7044738e-05
154	0xb6ed02ae	-7.0634624e-06
155	0xae1195e6	-3.310232e-11
156	0x33a00106	7.450767e-08
157	0x2a26df45	1.4821224e-13
158	0x2e2d2c34	3.9374906e-11
159	0x3044f271	7.1648915e-10
160	0x31825070	3.7926426e-09
161	0xbc0c45af	-0.008561536
162	0xb8584d77	-5.1570558e-05
163	0x3ad7ec85	0.0016473687
164	0x39353b61	0.00017283625
165	0x3127dec4	2.4428326e-09
166	0x39180eab	0.00014501314
167	0xae8bb290	-6.352707e-11
168	0xbbc06928	-0.0058719106
169	0x3bf14666	0.0073631285
170	0xba8a5585	-0.0010554051
171	0x35b43ad8	1.3428171e-06
172	0x3822e181	3.8833827e-05
173	0x336f5562	5.572418e-08
174	0xb4098ea1	-1.2811007e-07
175	0xb70ec75b	-8.510276e-06
176	0x303eded0	6.9438233e-10
177	0xba3d322b	-0.00072172534
178	0xb6a13847	-4.8047254e-06
179	0xb892dc8a	-7.002901e-05
180	0xb707d69b	-8.096594e-06
181	0x2f9f12cf	2.8935296e-10
182	0xb62e3f69	-2.596493e-06
183	0xade4039c	-2.5922202e-11
184	0x39802078	0.00024438254
185	0x3a84afd0	0.0010123197
186	0xbac211fb	-0.0014806384
187	0xaf4ed9ea	-1.881301e-10
188	0x37faf13b	2.9914654e-05
189	0x2e8183aa	5.889629e-11
190	0xb2dde2fc	-2.5831007e-08
191	0xb3ab6f63	-7.983069e-08
192	0x2e37f915	4.1830612e-11
193	0x38a4bd9f	7.855449e-05
194	0x3544c450	7.330136e-07
195	0x3795a5b1	1.783934e-05
196	0x35e9baad	1.7414183e-06
197	0x2db25f54	2.0278591e-11
198	0x34db47bd	4.0844125e-07
199	0xab146b08	-5.27287e-13
200	0xb9b05b34	-0.00033637288
201	0x39c8cea4	0.00038300932
202	0x3a435e61	0.0007452723
203	0x316ef68a	3.47737e-09
204	0xb762a8e9	-1.3509977e-05
205	0xad9d9a4d	-1.7917357e-11
206	0xb0d339da	-1.5368713e-09
207	0xb37c5a78	-5.8755603e-08
208	0x33a5911d	7.709807e-08
209	0x3b8ce2ac	0.0042994823
210	0xba1588bd	-0.00057042745
211	0x3a90b9c2	0.0011041688
212	0x38f11b8c	0.000114969065
213	0x32dd063e	2.5730625e-08
214	0xb9389e9e	-0.00017606697
215	0xb1447ad8	-2.8591582e-09
216	0x3b2e3b95	0.0026585807
217	0x3b9f4ddc	0.0048615765
218	0x3c3d12c7	0.011540121
219	0xb63ca966	-2.8112786e-06
220	0x3b0423b2	0.0020162878
221	0x31f37800	7.085873e-09
222	0xb6649af6	-3.4064847e-06
223	0x37ed7464	2.83068e-05
224	0x330a0023	3.2130753e-08
225	0xb9ec3046	-0.00045049394
226	0x388749b9	6.4510336e-05
227	0x398bcb66	0.0002666369
228	0x35340733	6.70657e-07
229	0x326d65cc	1.3818362e-08
230	0x37ae172e	2.075321e-05
231	0xb080e842	-9.379237e-10
232	0x3a7bd00a	0.00096058904
233	0x3ae3189a	0.0017326057
234	0x3ac3a0ae	0.0014925206
235	0x352a50b7	6.344739e-07
236	0xb9272e9d	-0.00015943726
237	0xb10ae16b	-2.0209778e-09
238	0xb5a381c0	-1.2182209e-06
239	0xb764fef5	-1.3649221e-05
240	0x295b586b	4.870446e-14
241	0xaf68cbcd	-2.1172682e-10
242	0x2e2db257	3.9494043e-11
243	0x2ea87510	7.66055e-11
244	0x2a1c6757	1.3891437e-13
245	0x28b59316	2.0158825e-14
246	0x2cfaf557	7.1326656e-12
247	0xa7385d48	-2.5585697e-15
248	0xaf124344	-1.330252e-10
249	0xaf79c5de	-2.2716715e-10
250	0xb00fd3f8	-5.232432e-10
251	0x2b711a61	8.565701e-13
252	0xae64b7a5	-5.2004307e-11
253	0xa6fbb293	-1.7465026e-15
254	0xac0690ff	-1.9123034e-12
255	0xadb5200e	-2.0591553e-11

sparse_weighted_adjacency_matrices.edge_inital.edge_embedding.bias f4 [16]
0	0xb95228c5	-0.00020042348
1	0x36b7d6d0	5.4788325e-06
2	0xb98b2dce	-0.00026546273
3	0xb4968fa1	-2.804418e-07
4	0x2e6cbcd7	5.382791e-11
5	0x350ad354	5.171653e-07
6	0x371839d1	9.073367e-06
7	0xb7788c57	-1.4814627e-05
8	0x3a2591e5	0.00063159905
9	0xb3866bc6	-6.259465e-08
10	0x37838bb7	1.5681477e-05
11	0xb80e27c7	-3.3892484e-05
12	0x365858c3	3.2238174e-06
13	0xbc695022	-0.014240297
14	0xba2a5b03	-0.0006498547
15	0xb0d00068	-1.5134107e-09

sparse_weighted_adjacency_matrices.pair_attention.embedding.weight f4 [64, 2]
0	0x80008960	-4.9281e-41
1	0x00009c7f	5.614e-41
2	0x80008983	-4.933e-41
3	0x80009424	-5.3143e-41
4	0x00008a35	4.958e-41
5	0x000089be	4.9413e-41
6	0x00008b8d	5.0061e-41
7	0x00008dfd	5.0936e-41
8	0x800088bb	-4.905e-41
9	0x000089ae	4.939e-41
10	0x80008b9b	-5.0081e-41
11	0x00008b07	4.9874e-41
12	0x80008b0e	-4.9883e-41
13	0x00008983	4.933e-41
14	0x80008e55	-5.1059e-41
15	0x00008c3c	5.0307e-41
16	0x8000a7cb	-6.0193e-41
17	0x0000aa32	6.1055e-41
18	0x80008a9a	-4.9721e-41
19	0x00008e54	5.1058e-41
20	0x00009412	5.3118e-41
21	0x80008a5e	-4.9637e-41
22	0x8000895d	-4.9277e-41
23	0x80008ca7	-5.0457e-41
24	0x8000ac14	-6.173e-41
25	0x00008940	4.9236e-41
26	0x80008b13	-4.989e-41
27	0x00009096	5.1868e-41
28	0x800089fd	-4.9501e-41
29	0x80008c8c	-5.0419e-41
30	0x80008dd0	-5.0873e-41
31	0x0000892b	4.9207e-41
32	0x00008972	4.9306e-41
33	0x80008b91	-5.0067e-41
34	0x800088c1	-4.9058e-41
35	0x80008956	-4.9267e-41
36	0x00008927	4.9201e-41
37	0x80008ca8	-5.0458e-41
38	0x000091c8	5.2296e-41
39	0x00008a6b	4.9655e-41
40	0x00008f67	5.1443e-41
41	0x00008980	4.9326e-41
42	0x00008f2f	5.1365e-41
43	0x00008c03	5.0227e-41
44	0x00009adb	5.5552e-41
45	0x0000f7a6	8.884e-41
46	0x00008ae0	4.9819e-41
47	0x80008dc4	-5.0856e-41
48	0x80008a74	-4.9668e-41
49	0x800089a0	-4.937e-41
50	0x80009371	-5.2892e-41
51	0x8000894a	-4.925e-41
52	0x00008b14	4.9892e-41
53	0x800088f6	-4.9132e-41
54	0x80009346	-5.2832e-41
55	0x8000a3ff	-5.8831e-41
56	0x00008b3c	4.9948e-41
57	0x00009f3f	5.7127e-41
58	0x00009126	5.207e-41
59	0x0000a913	6.0652e-41
60	0x00008972	4.9306e-41
61	0x000088cb	4.9072e-41
62	0x00008c7c	5.0396e-41
63	0x80008aa4	-4.9735e-41
64	0x000090a2	5.1884e-41
65	0x80008d4b	-5.0686e-41
66	0x80009233	-5.2446e-41
67	0x0000a5b9	5.945e-41
68	0x80008902	-4.9149e-41
69	0x80008a23	-4.9554e-41
70	0x800089a8	-4.9382e-41
71	0x80008abe	-4.9771e-41
72	0x000089cf	4.9436e-41
73	0x00008ed7	5.1241e-41
74	0x80009c01	-5.5964e-41
75	0x0000a996	6.0836e-41
76	0x0000a185	5.7942e-41
77	0x80008aca	-4.9788e-41
78	0x80008a13	-4.9532e-41
79	0x8000890c	-4.9163e-41
80	0x000088c0	4.9057e-41
81	0x0000916f	5.2172e-41
82	0x000090b2	5.1907e-41
83	0x000089f1	4.9484e-41
84	0x00008eb3	5.1191e-41
85	0x00008c47	5.0322e-41
86	0x00008a16	4.9536e-41
87	0x80009b8a	-5.5797e-41
88	0x00008ac9	4.9787e-41
89	0x800089a2	-4.9373e-41
90	0x00008cdd	5.0532e-41
91	0x00008a79	4.9675e-41
92	0x00008a14	4.9533e-41
93	0x00008fe9	5.1625e-41
94	0x8000892f	-4.9212e-41
95	0x00009258	5.2498e-41
96	0x80008aac	-4.9746e-41
97	0x000092a6	5.2608e-41
98	0x00009561	5.3587e-41
99	0x80008d7b	-5.0754e-41
100	0x8000a2c6	-5.8392e-41
101	0x000090b8	5.1915e-41
102	0x80008c13	-5.0249e-41
103	0x800088da	-4.9093e-41
104	0x00008a5d	4.9635e-41
105	0x80008a55	-4.9624e-41
106	0x000088be	4.9054e-41
107	0x0000898a	4.934e-41
108	0x00008a3e	4.9592e-41
109	0x0000fa50	8.9795e-41
110	0x00008bb8	5.0122e-41
111	0x0000899f	4.9369e-41
112	0x80008a74	-4.9668e-41
113	0x8000900b	-5.1673e-41
114	0x80009142	-5.2109e-41
115	0x00008aaf	4.975e-41
116	0x800095a4	-5.3681e-41
117	0x80008dfc	-5.0934e-41
118	0x80008a2b	-4.9565e-41
119	0x8000ac27	-6.1757e-41
120	0x000089c8	4.9427e-41
121	0x00008966	4.9289e-41
122	0x00008b4b	4.9969e-41
123	0x80008b5d	-4.9994e-41
124	0x80008b6b	-5.0014e-41
125	0x8000ae29	-6.2477e-41
126	0x00008a7c	4.9679e-41
127	0x80008a44	-4.96e-41

sparse_weighted_adjacency_matrices.pair_attention.embedding.bias f4 [64]
0	0x000096b3	5.406e-41
1	0x800088df	-4.91e-41
2	0x00008917	4.9179e-41
3	0x800088ce	-4.9076e-41
4	0x00008ba0	5.0088e-41
5	0x80008d50	-5.0693e-41
6	0x800091da	-5.2322e-41
7	0x00009115	5.2046e-41
8	0x800088fd	-4.9142e-41
9	0x00008c0a	5.0237e-41
10	0x80008a98	-4.9718e-41
11	0x8000a967	-6.077e-41
12	0x800089c6	-4.9424e-41
13	0x00008c5c	5.0351e-41
14	0x80008c14	-5.025e-41
15	0x00008d94	5.0789e-41
16	0x000088e1	4.9103e-41
17	0x00008ac7	4.9784e-41
18	0x80008cde	-5.0534e-41
19	0x00008982	4.9329e-41
20	0x80008acb	-4.979e-41
21	0x8001bab8	-1.58818e-40
22	0x80008bb5	-5.0117e-41
23	0x80008a9c	-4.9724e-41
24	0x000089be	4.9413e-41
25	0x800130d8	-1.09357e-40
26	0x00008e63	5.1079e-41
27	0x00008bfe	5.022e-41
28	0x00008a0b	4.952e-41
29	0x000088d8	4.909e-41
30	0x80008c77	-5.0389e-41
31	0x80008a23	-4.9554e-41
32	0x000089c5	4.9422e-41
33	0x80008aa6	-4.9738e-41
34	0x00008b4b	4.9969e-41
35	0x80008ece	-5.1229e-41
36	0x0000a2c7	5.8394e-41
37	0x80008b0f	-4.9885e-41
38	0x00008cd5	5.0521e-41
39	0x80009d19	-5.6356e-41
40	0x00008ac6	4.9783e-41
41	0x000089f4	4.9488e-41
42	0x000093f9	5.3083e-41
43	0x800089ca	-4.943e-41
44	0x80008acb	-4.979e-41
45	0x80008e7f	-5.1118e-41
46	0x80008a76	-4.967e-41
47	0x00008a5f	4.9638e-41
48	0x00008b31	4.9932e-41
49	0x00008a62	4.9642e-41
50	0x0000d8aa	7.7724e-41
51	0x00008e30	5.1007e-41
52	0x00008cad	5.0465e-41
53	0x80008cd9	-5.0527e-41
54	0x80008c0a	-5.0237e-41
55	0x800089e4	-4.9466e-41
56	0x8000890d	-4.9165e-41
57	0x8000aac7	-6.1263e-41
58	0x00008aec	4.9836e-41
59	0x80008959	-4.9271e-41
60	0x80009929	-5.4944e-41
61	0x80008aa9	-4.9742e-41
62	0x80009848	-5.4628e-41
63	0x8000a9fe	-6.0982e-41

sparse_weighted_adjacency_matrices.pair_attention.query.weight f4 [64, 64]
0	0x000117c0	1.00355e-40
1	0x000095d6	5.3751e-41
2	0x8000a4f4	-5.9174e-41
3	0x0000a068	5.7543e-41
4	0x0000a56d	5.9344e-41
5	0x00008929	4.9204e-41
6	0x8000910c	-5.2033e-41
7	0x00009029	5.1715e-41
8	0x8000aa28	-6.104e-41
9	0x80009c47	-5.6062e-41
10	0x80008167	-4.6421e-41
11	0x00009ace	5.5533e-41
12	0x80008f56	-5.1419e-41
13	0x0000a573	5.9352e-41
14	0x8000aeab	-6.2659e-41
15	0x00009312	5.2759e-41
16	0x0000931d	5.2774e-41
17	0x800093e6	-5.3056e-41
18	0x0000896f	4.9302e-41
19	0x0000a95f	6.0759e-41
20	0x80008ea3	-5.1168e-41
21	0x80009e42	-5.6772e-41
22	0x80012197	-1.03885e-40
23	0x80009ea5	-5.6911e-41
24	0x80009bf3	-5.5944e-41
25	0x800093ba	-5.2994e-41
26	0x80009384	-5.2919e-41
27	0x800069f9	-3.8016e-41
28	0x00008c82	5.0405e-41
29	0x0000f0d1	8.6389e-41
30	0x8000aeb0	-6.2666e-41
31	0x00008c84	5.0408e-41
32	0x0002a9c0	2.44566e-40
33	0x80009d7a	-5.6492e-41
34	0x00009458	5.3216e-41
35	0x8000aa04	-6.099e-41
36	0x8000ab83	-6.1527e-41
37	0x8000985d	-5.4658e-41
38	0x8000a085	-5.7584e-41
39	0x80009a26	-5.5298e-41
40	0x00009d08	5.6332e-41
41	0x00009367	5.2878e-41
42	0x00009d89	5.6513e-41
43	0x0000a4e0	5.9146e-41
44	0x00010f9a	9.7432e-41
45	0x8000a4ed	-5.9164e-41
46	0x8000ac67	-6.1846e-41
47	0x0000a213	5.8141e-41
48	0x80009b45	-5.57e-41
49	0x00009aa9	5.5482e-41
50	0x00008951	4.926e-41
51	0x80008a84	-4.969e-41
52	0x80008a69	-4.9652e-41
53	0x0000a89c	6.0486e-41
54	0x80009d46	-5.6419e-41
55	0x80009233	-5.2446e-41
56	0x8000ae4a	-6.2523e-41
57	0x80009cbe	-5.6229e-41
58	0x8000ad0b	-6.2076e-41
59	0x00009d2d	5.6384e-41
60	0x800092cc	-5.2661e-41
61	0x00009997	5.5098e-41
62	0x0000a245	5.8211e-41
63	0x800088fb	-4.914e-41
64	0x000095f1	5.3789e-41
65	0x8000a4e4	-5.9152e-41
66	0x00009828	5.4583e-41
67	0x00008bcf	5.0154e-41
68	0x000047b4	2.5722e-41
69	0x80009d64	-5.6461e-41
70	0x000005b2	2.043e-42
71	0x0003535b	3.05409e-40
72	0x8000a275	-5.8279e-41
73	0x80009fba	-5.7299e-41
74	0x0000a372	5.8633e-41
75	0x8000a546	-5.9289e-41
76	0x80008d63	-5.072e-41
77	0x0000abfd	6.1698e-41
78	0x0000aec7	6.2698e-41
79	0x000088ca	4.907e-41
80	0x000250aa	2.12608e-40
81	0x00009088	5.1848e-41
82	0x80019b5d	-1.4757e-40
83	0x8000a2cd	-5.8402e-41
84	0x000095cb	5.3736e-41
85	0x00008c50	5.0335e-41
86	0x8000986b	-5.4677e-41
87	0x8000a108	-5.7767e-41
88	0x00009c91	5.6165e-41
89	0x00008e9c	5.1159e-41
90	0x0000ef7f	8.5915e-41
91	0x00008b90	5.0066e-41
92	0x8000a175	-5.792e-41
93	0x80009dfe	-5.6677e-41
94	0x80009b13	-5.563e-41
95	0x00008997	4.9358e-41
96	0x0000ad11	6.2085e-41
97	0x8000a61a	-5.9586e-41
98	0x00004076	2.3124e-41
99	0x8000ad18	-6.2094e-41
100	0x000088c6	4.9065e-41
101	0x8000a3d1	-5.8766e-41
102	0x0000963b	5.3893e-41
103	0x0000a7de	6.022e-41
104	0x0000ac73	6.1863e-41
105	0x0000a32a	5.8532e-41
106	0x00009fef	5.7373e-41
107	0x8002cf9c	-2.58147e-40
108	0x0000913b	5.2099e-41
109	0x80009fcc	-5.7324e-41
110	0x8000a6d3	-5.9845e-41
111	0x80009520	-5.3496e-41
112	0x8000ab64	-6.1483e-41
113	0x0000a54a	5.9295e-41
114	0x00029d9f	2.40215e-40
115	0x00009ed7	5.6981e-41
116	0x000099c5	5.5162e-41
117	0x0000ae95	6.2628e-41
118	0x80009994	-5.5093e-41
119	0x000088f3	4.9128e-41
120	0x0000a5b7	5.9447e-41
121	0x0000aeca	6.2703e-41
122	0x00009c11	5.5986e-41
123	0x00008b9a	5.008e-41
124	0x00008b2e	4.9928e-41
125	0x00009f70	5.7195e-41
126	0x00009eb9	5.6939e-41
127	0x80008e1e	-5.0982e-41
128	0x8000a0ce	-5.7686e-41
129	0x00009aaf	5.549e-41
130	0x00009ebe	5.6946e-41
131	0x00009873	5.4688e-41
132	0x00009beb	5.5933e-41
133	0x80009edc	-5.6988e-41
134	0x80000772	-2.671e-42
135	0x800129e4	-1.06863e-40
136	0x0000a419	5.8867e-41
137	0x80009b27	-5.5658e-41
138	0x00009ca2	5.6189e-41
139	0x00009e14	5.6708e-41
140	0x80004883	-2.6012e-41
141	0x0000aea2	6.2646e-41
142	0x80010db5	-9.6753e-41
143	0x80009bca	-5.5887e-41
144	0x00009729	5.4226e-41
145	0x000093a2	5.296e-41
146	0x000191d6	1.44152e-40
147	0x00008def	5.0916e-41
148	0x00009b3a	5.5685e-41
149	0x8000a46c	-5.8983e-41
150	0x8000a531	-5.926e-41
151	0x80013633	-1.11279e-40
152	0x80009e08	-5.6691e-41
153	0x80008982	-4.9329e-41
154	0x8000a389	-5.8665e-41
155	0x00009ae7	5.5568e-41
156	0x00008979	4.9316e-41
157	0x00008990	4.9348e-41
158	0x80009dd4	-5.6618e-41
159	0x0000ea1d	8.3984e-41
160	0x0000ad9d	6.2281e-41
161	0x00009f76	5.7204e-41
162	0x80009cb6	-5.6217e-41
163	0x8000a22b	-5.8175e-41
164	0x80008e39	-5.102e-41
165	0x80009bec	-5.5934e-41
166	0x80009263	-5.2514e-41
167	0x8000adff	-6.2418e-41
168	0x0000ac1c	6.1741e-41
169	0x0000932a	5.2793e-41
170	0x80003d95	-2.2091e-41
171	0x00008add	4.9815e-41
172	0x0000af40	6.2868e-41
173	0x0000ab57	6.1465e-41
174	0x80008b70	-5.0021e-41
175	0x800091a6	-5.2249e-41
176	0x00009f12	5.7064e-41
177	0x800088ed	-4.912e-41
178	0x800097c8	-5.4449e-41
179	0x80018712	-1.4029e-40
180	0x0000a75e	6.004e-41
181	0x0000e68b	8.2703e-41
182	0x800090c9	-5.1939e-41
183	0x80009ac5	-5.5521e-41
184	0x8000a8d0	-6.0559e-41
185	0x0000953d	5.3537e-41
186	0x0000a581	5.9372e-41
187	0x80009f69	-5.7186e-41
188	0x000092a7	5.2609e-41
189	0x0000a39b	5.869e-41
190	0x00009225	5.2427e-41
191	0x00009b1f	5.5647e-41
192	0x8001e5b4	-1.74237e-40
193	0x8000aeb3	-6.267e-41
194	0x0000a879	6.0437e-41
195	0x80008dda	-5.0887e-41
196	0x800093e0	-5.3048e-41
197	0x00009826	5.458e-41
198	0x0000a0f8	5.7745e-41
199	0x8001afa1	-1.54839e-40
200	0x00016dcb	1.31222e-40
201	0x8000a506	-5.9199e-41
202	0x800090c5	-5.1934e-41
203	0x80010946	-9.5162e-41
204	0x80009b0b	-5.5619e-41
205	0x8000a1a4	-5.7986e-41
206	0x00008990	4.9348e-41
207	0x80009e75	-5.6844e-41
208	0x800088bd	-4.9052e-41
209	0x8000186b	-8.76e-42
210	0x0000a275	5.8279e-41
211	0x00009589	5.3643e-41
212	0x0000a332	5.8543e-41
213	0x80008978	-4.9314e-41
214	0x800098c5	-5.4803e-41
215	0x8000998b	-5.5081e-41
216	0x00002787	1.418e-41
217	0x00008ec7	5.1219e-41
218	0x80009d0f	-5.6342e-41
219	0x80009635	-5.3884e-41
220	0x00009596	5.3661e-41
221	0x000057a0	3.1434e-41
222	0x8000a13d	-5.7841e-41
223	0x00009179	5.2186e-41
224	0x8000967a	-5.3981e-41
225	0x80009ffd	-5.7393e-41
226	0x80008f24	-5.1349e-41
227	0x00022291	1.96071e-40
228	0x8000a199	-5.797e-41
229	0x00008e96	5.115e-41
230	0x8000a9a5	-6.0857e-41
231	0x80009122	-5.2064e-41
232	0x8000a2b2	-5.8364e-41
233	0x8000902d	-5.172e-41
234	0x0000ab58	6.1467e-41
235	0x0000aed8	6.2722e-41
236	0x00009269	5.2522e-41
237	0x8000adb9	-6.232e-41
238	0x00009946	5.4984e-41
239	0x8000aa88	-6.1175e-41
240	0x8000d7e6	-7.745e-41
241	0x0000a93f	6.0714e-41
242	0x00009713	5.4195e-41
243	0x00012536	1.05184e-40
244	0x800092b4	-5.2627e-41
245	0x00009bf2	5.5943e-41
246	0x0000980d	5.4546e-41
247	0x8000a4a5	-5.9063e-41
248	0x80009098	-5.187e-41
249	0x0000a921	6.0672e-41
250	0x0000ab5e	6.1475e-41
251	0x00015744	1.2314e-40
252	0x80000db4	-4.916e-42
253	0x0002b504	2.48607e-40
254	0x0000aafe	6.134e-41
255	0x00009885	5.4714e-41

sparse_weighted_adjacency_matrices.pair_attention.query.bias f4 [64]
0	0x000099d9	5.519e-41
1	0x0000a170	5.7913e-41
2	0x8000a579	-5.936e-41
3	0x80009adb	-5.5552e-41
4	0x000098f3	5.4868e-41
5	0x0000929f	5.2598e-41
6	0x8001dfc7	-1.72112e-40
7	0x000096b0	5.4056e-41
8	0x80008a82	-4.9687e-41
9	0x000093d8	5.3036e-41
10	0x800088f6	-4.9132e-41
11	0x80008901	-4.9148e-41
12	0x80008f62	-5.1436e-41
13	0x80009c4b	-5.6067e-41
14	0x0000aba5	6.1574e-41
15	0x00009d39	5.6401e-41
16	0x000093ad	5.2976e-41
17	0x0001a03c	1.49317e-40
18	0x00009d60	5.6456e-41
19	0x8000ab95	-6.1552e-41
20	0x8001f182	-1.78472e-40
21	0x8002001d	-1.83712e-40
22	0x80009ac4	-5.552e-41
23	0x8000e9b4	-8.3837e-41
24	0x8000aea5	-6.265e-41
25	0x00009fc2	5.731e-41
26	0x8000aacb	-6.1269e-41
27	0x80009686	-5.3998e-41
28	0x80008937	-4.9223e-41
29	0x00008920	4.9191e-41
30	0x00008bc8	5.0144e-41
31	0x80030a48	-2.79195e-40
32	0x0000a2f6	5.846e-41
33	0x8000a5c1	-5.9461e-41
34	0x000099da	5.5192e-41
35	0x00008ed3	5.1236e-41
36	0x80006ab9	-3.8285e-41
37	0x0000a8fe	6.0623e-41
38	0x8000928d	-5.2573e-41
39	0x80009f34	-5.7111e-41
40	0x8000a5d9	-5.9495e-41
41	0x0000a38d	5.8671e-41
42	0x00008fed	5.1631e-41
43	0x8000ab0a	-6.1357e-41
44	0x0000964d	5.3918e-41
45	0x8002d0c2	-2.58559e-40
46	0x80009783	-5.4352e-41
47	0x8000a8ff	-6.0624e-41
48	0x000110eb	9.7905e-41
49	0x0000dc54	7.9039e-41
50	0x8000a9a5	-6.0857e-41
51	0x0000e2cd	8.1361e-41
52	0x0000ae9b	6.2637e-41
53	0x80009f67	-5.7183e-41
54	0x8000aed1	-6.2712e-41
55	0x80008c08	-5.0234e-41
56	0x8000fb26	-9.0095e-41
57	0x80008a0f	-4.9526e-41
58	0x800094d1	-5.3385e-41
59	0x8000982f	-5.4593e-41
60	0x00009414	5.312e-41
61	0x8000a84c	-6.0374e-41
62	0x80009480	-5.3272e-41
63	0x80009822	-5.4575e-41

sparse_weighted_adjacency_matrices.pair_attention.key.weight f4 [64, 64]
0	0x0000f5b2	8.8139e-41
1	0x0000923f	5.2463e-41
2	0x8000aa84	-6.117e-41
3	0x8000a147	-5.7855e-41
4	0x80009f06	-5.7047e-41
5	0x00009123	5.2065e-41
6	0x0000ae04	6.2425e-41
7	0x8000ae2d	-6.2482e-41
8	0x00009f76	5.7204e-41
9	0x80020ae8	-1.87583e-40
10	0x8000a9a3	-6.0854e-41
11	0x8000a7b8	-6.0166e-41
12	0x8000a5aa	-5.9429e-41
13	0x80009d38	-5.64e-41
14	0x00008b44	4.9959e-41
15	0x0000ed77	8.5186e-41
16	0x800048df	-2.6141e-41
17	0x80009d41	-5.6412e-41
18	0x0000abde	6.1654e-41
19	0x000096aa	5.4048e-41
20	0x0000a438	5.891e-41
21	0x0000a4a1	5.9058e-41
22	0x8000af4d	-6.2886e-41
23	0x80008c60	-5.0357e-41
24	0x800098a7	-5.4761e-41
25	0x0000a5cf	5.9481e-41
26	0x00009053	5.1774e-41
27	0x8000931f	-5.2777e-41
28	0x0000ddd3	7.9576e-41
29	0x0000ac9e	6.1923e-41
30	0x80010aa9	-9.566e-41
31	0x80009d89	-5.6513e-41
32	0x0000896e	4.93e-41
33	0x8002c039	-2.52627e-40
34	0x0000ae9c	6.2638e-41
35	0x80008d8b	-5.0776e-41
36	0x8000f2cb	-8.7098e-41
37	0x0000890a	4.916e-41
38	0x0000af6f	6.2934e-41
39	0x0000a070	5.7554e-41
40	0x80009017	-5.169e-41
41	0x80002872	-1.4509e-41
42	0x00003557	1.9135e-41
43	0x00009bf1	5.5941e-41
44	0x0000a7e2	6.0225e-41
45	0x800089fd	-4.9501e-41
46	0x8000a664	-5.969e-41
47	0x00002e49	1.6604e-41
48	0x00003883	2.0273e-41
49	0x80009fb9	-5.7298e-41
50	0x00008a52	4.962e-41
51	0x8000a12d	-5.7819e-41
52	0x00008f42	5.1391e-41
53	0x8000abce	-6.1632e-41
54	0x000088fb	4.914e-41
55	0x0000a93e	6.0713e-41
56	0x0000a78c	6.0104e-41
57	0x00008e71	5.1098e-41
58	0x8004b82b	-4.33409e-40
59	0x8000a8f2	-6.0606e-41
60	0x00009612	5.3835e-41
61	0x8000a952	-6.074e-41
62	0x80008d63	-5.072e-41
63	0x00009bc9	5.5885e-41
64	0x00009448	5.3193e-41
65	0x8000a647	-5.9649e-41
66	0x8000ed75	-8.5184e-41
67	0x8002d5d2	-2.60375e-40
68	0x80008a6d	-4.9658e-41
69	0x00009b68	5.5749e-41
70	0x000099f3	5.5227e-41
71	0x0000903e	5.1744e-41
72	0x8000a967	-6.077e-41
73	0x0000950e	5.3471e-41
74	0x000131c4	1.09688e-40
75	0x0000a9b1	6.0874e-41
76	0x00008d06	5.059e-41
77	0x80009528	-5.3507e-41
78	0x000094ed	5.3425e-41
79	0x0000a0db	5.7704e-41
80	0x800097ee	-5.4502e-41
81	0x0000a7b0	6.0155e-41
82	0x0000a0dc	5.7705e-41
83	0x00005d49	3.3464e-41
84	0x8000a621	-5.9596e-41
85	0x8000a3c3	-5.8747e-41
86	0x800009e6	-3.551e-42
87	0x0000a737	5.9985e-41
88	0x00009c63	5.6101e-41
89	0x800097cc	-5.4454e-41
90	0x00008c66	5.0365e-41
91	0x80008c22	-5.027e-41
92	0x0000b5d1	6.5223e-41
93	0x80009005	-5.1664e-41
94	0x800092e0	-5.2689e-41
95	0x0000a0b5	5.7651e-41
96	0x80009cc9	-5.6244e-41
97	0x80008b07	-4.9874e-41
98	0x0000a4e3	5.915e-41
99	0x80001010	-5.762e-42
100	0x00009524	5.3502e-41
101	0x8000968d	-5.4007e-41
102	0x8000a01b	-5.7435e-41
103	0x0000a234	5.8188e-41
104	0x00009221	5.2421e-41
105	0x0000a5bf	5.9458e-41
106	0x8000a5d0	-5.9482e-41
107	0x00011a69	1.0131e-40
108	0x80009b45	-5.57e-41
109	0x80008d3d	-5.0667e-41
110	0x000099a3	5.5114e-41
111	0x800091f9	-5.2365e-41
112	0x8000a603	-5.9554e-41
113	0x80008be3	-5.0182e-41
114	0x000090ed	5.199e-41
115	0x00002916	1.4739e-41
116	0x0000a559	5.9316e-41
117	0x800096ed	-5.4142e-41
118	0x8000a843	-6.0361e-41
119	0x0000aec4	6.2694e-41
120	0x0000988b	5.4722e-41
121	0x0000a0bf	5.7665e-41
122	0x00009c93	5.6168e-41
123	0x0000a0da	5.7703e-41
124	0x00009036	5.1733e-41
125	0x0000954b	5.3556e-41
126	0x80009c34	-5.6035e-41
127	0x80008979	-4.9316e-41
128	0x80009212	-5.24e-41
129	0x00008986	4.9334e-41
130	0x00008d42	5.0674e-41
131	0x00009b0f	5.5625e-41
132	0x800095af	-5.3696e-41
133	0x80009802	-5.453e-41
134	0x80009832	-5.4597e-41
135	0x80009062	-5.1795e-41
136	0x8000aa20	-6.103e-41
137	0x0000933d	5.2819e-41
138	0x0000a486	5.902e-41
139	0x00008ab8	4.9763e-41
140	0x8000ad88	-6.2251e-41
141	0x8000a317	-5.8506e-41
142	0x80009547	-5.355e-41
143	0x8000927c	-5.2549e-41
144	0x8000a5f9	-5.954e-41
145	0x80008fe4	-5.1618e-41
146	0x80009599	-5.3666e-41
147	0x00008ed2	5.1234e-41
148	0x80008c30	-5.029e-41
149	0x000088f1	4.9125e-41
150	0x8000abb0	-6.159e-41
151	0x0000a220	5.816e-41
152	0x00008ede	5.1251e-41
153	0x00009831	5.4596e-41
154	0x000097e1	5.4484e-41
155	0x80009fe7	-5.7362e-41
156	0x80008a87	-4.9694e-41
157	0x00009159	5.2141e-41
158	0x00008d06	5.059e-41
159	0x80012b15	-1.0729e-40
160	0x80009c81	-5.6143e-41
161	0x000090e2	5.1974e-41
162	0x8000a746	-6.0006e-41
163	0x0000914b	5.2121e-41
164	0x0000a0be	5.7663e-41
165	0x0001f7db	1.80749e-40
166	0x00008c74	5.0385e-41
167	0x80008cd8	-5.0525e-41
168	0x0000fbaf	9.0287e-41
169	0x00008b56	4.9984e-41
170	0x0000982f	5.4593e-41
171	0x0000968a	5.4003e-41
172	0x80008b64	-5.0004e-41
173	0x80009f43	-5.7132e-41
174	0x800095a7	-5.3685e-41
175	0x0000a2a2	5.8342e-41
176	0x800099e4	-5.5206e-41
177	0x80009f81	-5.7219e-41
178	0x8000999a	-5.5102e-41
179	0x00009f62	5.7176e-41
180	0x800091ef	-5.2351e-41
181	0x00009933	5.4958e-41
182	0x000112d8	9.8595e-41
183	0x00009448	5.3193e-41
184	0x80009351	-5.2847e-41
185	0x8000a87c	-6.0441e-41
186	0x0000dbeb	7.8892e-41
187	0x8000a044	-5.7492e-41
188	0x0000922a	5.2434e-41
189	0x000090e4	5.1977e-41
190	0x8000af7e	-6.2955e-41
191	0x000088f0	4.9124e-41
192	0x0000850f	4.7732e-41
193	0x80009e69	-5.6827e-41
194	0x000089c3	4.942e-41
195	0x0000a63d	5.9635e-41
196	0x0000a944	6.0721e-41
197	0x8000976f	-5.4324e-41
198	0x8000a8c5	-6.0543e-41
199	0x800091c8	-5.2296e-41
200	0x80009cc0	-5.6231e-41
201	0x8000a075	-5.7561e-41
202	0x80001c70	-1.0201e-41
203	0x800088c3	-4.9061e-41
204	0x000090f1	5.1995e-41
205	0x0000a894	6.0474e-41
206	0x000097f7	5.4515e-41
207	0x8000a5ea	-5.9519e-41
208	0x00008fb2	5.1548e-41
209	0x00019026	1.43546e-40
210	0x8000aec5	-6.2695e-41
211	0x800094b9	-5.3352e-41
212	0x8000040e	-1.455e-42
213	0x80009269	-5.2522e-41
214	0x00009dc8	5.6601e-41
215	0x00008955	4.9265e-41
216	0x8000967c	-5.3984e-41
217	0x00009dc9	5.6603e-41
218	0x0000ac75	6.1866e-41
219	0x80008ddc	-5.089e-41
220	0x0000a33f	5.8562e-41
221	0x80009115	-5.2046e-41
222	0x80009ec9	-5.6961e-41
223	0x0000998a	5.508e-41
224	0x0000ad56	6.2181e-41
225	0x0001fed3	1.83249e-40
226	0x80009893	-5.4733e-41
227	0x8000ab6c	-6.1495e-41
228	0x00009d53	5.6437e-41
229	0x00008b36	4.994e-41
230	0x800129c1	-1.06814e-40
231	0x80009bf7	-5.595e-41
232	0x0001f7f5	1.80786e-40
233	0x0000ad7c	6.2234e-41
234	0x00009a9d	5.5465e-41
235	0x0000d99e	7.8066e-41
236	0x80009b70	-5.576e-41
237	0x8000a590	-5.9393e-41
238	0x00008d81	5.0762e-41
239	0x00009967	5.503e-41
240	0x00004152	2.3433e-41
241	0x00003703	1.9734e-41
242	0x800089ab	-4.9386e-41
243	0x0000984f	5.4638e-41
244	0x0000aa78	6.1153e-41
245	0x0000002d	6.3e-44
246	0x00009b7f	5.5781e-41
247	0x8000adcd	-6.2348e-41
248	0x0000a139	5.7836e-41
249	0x80008a56	-4.9626e-41
250	0x8000961b	-5.3848e-41
251	0x80008c50	-5.0335e-41
252	0x8000446c	-2.4545e-41
253	0x0000a1b0	5.8003e-41
254	0x8000e6a3	-8.2737e-41
255	0x8000890e	-4.9166e-41

sparse_weighted_adjacency_matrices.pair_attention.key.bias f4 [64]
0	0x00009f8c	5.7235e-41
1	0x8000a597	-5.9402e-41
2	0x000088f0	4.9124e-41
3	0x0000a2a4	5.8344e-41
4	0x0000a326	5.8527e-41
5	0x8000f3b7	-8.7428e-41
6	0x00008a8e	4.9704e-41
7	0x00009ab8	5.5503e-41
8	0x80001072	-5.9e-42
9	0x00027b4c	2.27902e-40
10	0x000248f1	2.09837e-40
11	0x0000a464	5.8972e-41
12	0x80008940	-4.9236e-41
13	0x8000969f	-5.4033e-41
14	0x00009998	5.5099e-41
15	0x0000a121	5.7802e-41
16	0x80000b63	-4.085e-42
17	0x000094e1	5.3408e-41
18	0x0000a071	5.7556e-41
19	0x80009fc4	-5.7313e-41
20	0x8001bd49	-1.59738e-40
21	0x00008ab9	4.9764e-41
22	0x00009fb9	5.7298e-41
23	0x8000a180	-5.7935e-41
24	0x000094a4	5.3322e-41
25	0x80009547	-5.355e-41
26	0x0000a7cb	6.0193e-41
27	0x0000a7d1	6.0201e-41
28	0x00008b13	4.989e-41
29	0x00009110	5.2039e-41
30	0x000073cd	4.1541e-41
31	0x8000a8a7	-6.0501e-41
32	0x00009572	5.3611e-41
33	0x0000a69e	5.9771e-41
34	0x00008bfb	5.0216e-41
35	0x8000a37b	-5.8646e-41
36	0x800059d5	-3.2226e-41
37	0x8000aa0a	-6.0999e-41
38	0x80008f3b	-5.1381e-41
39	0x80003851	-2.0203e-41
40	0x000088b9	4.9047e-41
41	0x800095dc	-5.376e-41
42	0x00008e7c	5.1114e-41
43	0x80009d77	-5.6488e-41
44	0x00008b4a	4.9968e-41
45	0x00004906	2.6196e-41
46	0x800093ca	-5.3017e-41
47	0x00008dcc	5.0867e-41
48	0x8000a5b2	-5.944e-41
49	0x0000988d	5.4725e-41
50	0x80009bad	-5.5846e-41
51	0x00008e23	5.0989e-41
52	0x0000a33f	5.8562e-41
53	0x00009275	5.2539e-41
54	0x00009d60	5.6456e-41
55	0x0000aa35	6.1059e-41
56	0x000092aa	5.2613e-41
57	0x0002257f	1.97122e-40
58	0x800095da	-5.3757e-41
59	0x80009bd6	-5.5903e-41
60	0x80009f0a	-5.7052e-41
61	0x000099e6	5.5208e-41
62	0x80008f0d	-5.1317e-41
63	0x0000ae30	6.2487e-41

sparse_weighted_adjacency_matrices.pair_attention.edge_query.weight f4 [16, 16]
0	0x3e28da0e	0.16489431
1	0x3e3f7bbe	0.18699548
2	0xbdfe4fb0	-0.12417543
3	0xbc94d780	-0.018169165
4	0xbe1c07c4	-0.15237337
5	0x3e59976e	0.21249172
6	0xbd925404	-0.07144931
7	0x3db13c28	0.08654052
8	0x3b100400	0.002197504
9	0xbdcd7ca0	-0.10033536
10	0x3e6d978e	0.23202345
11	0x3e0e594a	0.13901249
12	0x3bf85c40	0.0075793564
13	0x3dc9945c	0.098427504
14	0xbd2445c8	-0.04010561
15	0x3d36e228	0.044649273
16	0xbdfacf28	-0.12246543
17	0x3c661ca0	0.014044911
18	0x3e564c7a	0.20927611
19	0xbe54ade4	-0.20769459
20	0xbe0f49d6	-0.1399301
21	0x3dcd86e8	0.10035497
22	0x3e0056b4	0.12533075
23	0x3e64b35a	0.22334042
24	0x3e30ae80	0.17254066
25	0xbe567ea8	-0.20946753
26	0xbdee45a4	-0.11634377
27	0xbe5552a6	-0.20832309
28	0xbcbabec0	-0.022796035
29	0x3d9eadec	0.07748017
30	0xbe0e14b8	-0.13875091
31	0xbd560268	-0.05224839
32	0xbcab2640	-0.020892262
33	0x3e2e7c7e	0.17039678
34	0xbd1625a8	-0.036657006
35	0x3e6df79e	0.2323899
36	0x3d61da50	0.05513984
37	0x3e54865a	0.20754376
38	0xbe569bca	-0.20957866
39	0x3e6ec16c	0.23315972
40	0xbd5b4300	-0.053530693
41	0xbe51f696	-0.20504221
42	0xbe4c8e72	-0.19976214
43	0xbca54620	-0.02017504
44	0x3e6c3bc4	0.23069674
45	0xbe40fe2a	-0.18846956
46	0xbe007526	-0.12544689
47	0xbe24a594	-0.16078788
48	0xbe38daf8	-0.1805228
49	0xbe6e156e	-0.23250362
50	0xbd83b2ac	-0.06430563
51	0xbdbde778	-0.09272665
52	0xbd14f180	-0.036363125
53	0xbd69e8f8	-0.057106942
54	0xbda38bc8	-0.079856455
55	0xbe09d85c	-0.13461441
56	0xbe4dbc12	-0.20091274
57	0x3d6c33d8	0.05766663
58	0xbdd41440	-0.10355425
59	0x3e78b0e4	0.24286228
60	0x3e65ebda	0.22453251
61	0xbc008ec0	-0.007846534
62	0xbe2a0aa4	-0.16605622
63	0x3decf1dc	0.115695685
64	0xbd8e9c64	-0.06963423
65	0xbe2de7f4	-0.16983014
66	0xbdaa8ed0	-0.083280206
67	0x3d8f9f08	0.07012755
68	0xbe45c600	-0.19313812
69	0xbe296b68	-0.16544878
70	0x3ddd02dc	0.10791561
71	0x3d9ca000	0.07647705
72	0xbd5e1310	-0.0542174
73	0x3e1dfec2	0.15429214
74	0x3e73e124	0.23816353
75	0x3e3ff89e	0.18747184
76	0xbe409bea	-0.18809476
77	0xbe3eaeb0	-0.18621325
78	0x3db747e8	0.08949262
79	0x3e30e464	0.17274624
80	0x3bb9f000	0.005674362
81	0xbe01003a	-0.12597743
82	0xbdf02dd4	-0.11727491
83	0x3e53dc4c	0.20689505
84	0xbd00ffd8	-0.03149399
85	0x3d6c3d70	0.05767578
86	0x3daec3c0	0.0853343
87	0xbe58cbe6	-0.21171531
88	0xbc268e60	-0.010165781
89	0x3dc07bdc	0.09398624
90	0x3e0c9882	0.13730052
91	0xbe411c82	-0.18858531
92	0x3e5c3088	0.21502888
93	0x3dc32a4c	0.09529552
94	0x3e40e29e	0.18836448
95	0xbe6464e6	-0.22304115
96	0x3e3368c8	0.1752044
97	0xbc4a2300	-0.012337446
98	0x3e0e29a8	0.13883078
99	0xbe6f410c	-0.23364657
100	0x3e640b34	0.22269899
101	0x3e36c4de	0.17848536
102	0xbe32c9e6	-0.1745983
103	0x3e7bddb8	0.24596298
104	0xbd185a28	-0.037195355
105	0x3d88eb2c	0.066854805
106	0xbda380fc	-0.07983586
107	0x3e1985da	0.14992467
108	0xbe1aa8e2	-0.15103486
109	0xbe190e2c	-0.14946812
110	0x3e055ff6	0.13024887
111	0xbd879ac4	-0.06621316
112	0x3d26a200	0.04068184
113	0x3d3a8080	0.045532703
114	0xbe4daac0	-0.20084667
115	0x3d7b8fc8	0.061416417
116	0xbd83ec94	-0.06441608
117	0xbce7ffc0	-0.028320193
118	0xbd9bf99c	-0.076159686
119	0x3e09c45a	0.13453808
120	0x3b3a6800	0.0028443336
121	0xbdb01fbc	-0.08599803
122	0xbe789ff2	-0.24279764
123	0xbcdb8260	-0.026795566
124	0xbd9edf08	-0.077573836
125	0xbe54721c	-0.20746654
126	0xbe228e3c	-0.1587457
127	0xbdae16f0	-0.08500469
128	0xbdce376c	-0.10069165
129	0x3e488034	0.19580156
130	0x3e240f7a	0.16021529
131	0xbe03265a	-0.12807599
132	0x3e316296	0.17322764
133	0xbdabac08	-0.08382422
134	0xbe710acc	-0.23539275
135	0x3e112d46	0.14177427
136	0x3e1752b4	0.14777642
137	0xbe7eff78	-0.24902141
138	0x3e5c9456	0.2154096
139	0xbe193e1a	-0.14965096
140	0xbd368278	-0.04455802
141	0xbd90a4c8	-0.070626795
142	0x3df4e308	0.11957365
143	0xbd86abf4	-0.06575766
144	0xbe6c2bd6	-0.23063597
145	0xbde291d4	-0.11062971
146	0x3e10f4a4	0.14155823
147	0x3c9b8890	0.018986017
148	0x3e070960	0.1318717
149	0xbd889eb8	-0.06670898
150	0x3e4a90de	0.19781825
151	0x3dd4159c	0.10355684
152	0x3dca96a4	0.09892014
153	0x3e3c0696	0.18361887
154	0x3e5937da	0.21212712
155	0x3e387bdc	0.18015999
156	0x3e17ff22	0.14843419
157	0x3e0619b4	0.13095742
158	0xbd2f7240	-0.042833567
159	0x3e030f9c	0.12798923
160	0x3ddc8374	0.1076726
161	0x3b2c9b00	0.0026337504
162	0xbe7b32ca	-0.24531093
163	0x3c06e3a0	0.008232981
164	0xbe1ecc70	-0.15507674
165	0xbd449ee0	-0.048003078
166	0xbe293bda	-0.16526738
167	0xbc84cba0	-0.016210377
168	0x3e7797e4	0.24179035
169	0xbe2062f6	-0.1566275
170	0x3e772d24	0.24138314
171	0x3e65d1d8	0.2244333
172	0xbcf2ba10	-0.029629737
173	0x3e53f254	0.2069791
174	0xbcab1530	-0.020884126
175	0x3e6783f6	0.22608933
176	0xbe539e84	-0.20665938
177	0x3e7244be	0.23659036
178	0x3e770bcc	0.24125594
179	0xbdfbfaf8	-0.12303728
180	0xbccce010	-0.025009185
181	0x3d649c40	0.055813074
182	0x3bf3cb00	0.007439971
183	0x3e33c7ee	0.17556736
184	0x3e29fc9c	0.16600269
185	0x3e7ea8fc	0.2486915
186	0x3d705740	0.058676958
187	0x3e7bcff8	0.24591053
188	0x3e6d8f34	0.23199159
189	0xbcb3db40	-0.021955132
190	0x3e23825a	0.15967694
191	0xbe091e94	-0.13390571
192	0xbe3e7844	-0.18600565
193	0x3e6e1970	0.23251891
194	0xbe655e9c	-0.22399372
195	0x3e0c0652	0.13674286
196	0x3dc59cf8	0.0964908
197	0xbe0768de	-0.13223597
198	0xbce19940	-0.027538896
199	0x3e433352	0.19062546
200	0xbe2f2586	-0.17104158
201	0x3e4923a6	0.19642505
202	0xbc92c350	-0.017915398
203	0x3dc7fe64	0.09765318
204	0x3d6d7028	0.05796829
205	0xbde48108	-0.11157423
206	0x3d742028	0.05960098
207	0xbe3b39a2	-0.18283704
208	0xbe5db03e	-0.21649262
209	0xbe3d2c8a	-0.18474022
210	0xbe5260e2	-0.2054477
211	0xbe7cb2a4	-0.24677521
212	0xbd914f78	-0.070952356
213	0xbded3cc0	-0.11583853
214	0x3e16b588	0.14717686
215	0xbb9c8200	-0.0047762394
216	0x3cc431f0	0.023949593
217	0xbc513120	-0.01276806
218	0x3e300700	0.1719017
219	0xbe6d0d42	-0.23149589
220	0xbe6e4c94	-0.232714
221	0x3e41d148	0.1892749
222	0x3e6068a6	0.2191492
223	0x3e59d0b4	0.2127102
224	0x3e1c723a	0.15277949
225	0xbe79a8fc	-0.24380869
226	0xbe7f2a98	-0.24918592
227	0x3e6de15c	0.23230499
228	0x3e3e5e2a	0.18590608
229	0x3d1b9778	0.03798625
230	0x3dae5c18	0.08513659
231	0xbe2ca128	-0.16858351
232	0x3e2272b4	0.15864068
233	0x3dc48da4	0.09597328
234	0xbdb0866c	-0.08619389
235	0x3e791242	0.24323371
236	0x3e7f69a2	0.2494264
237	0xbe31c51a	-0.17360345
238	0x3e0fb5b4	0.14034158
239	0xbd41fde0	-0.047361255
240	0xbe19b5fc	-0.15010828
241	0x3d886590	0.066599965
242	0xbdfeeec0	-0.12447882
243	0xbe5a1284	-0.21296126
244	0x3e22d92e	0.1590316
245	0x3d9c0218	0.07617587
246	0x3e521df8	0.20519245
247	0x3e07f978	0.13278759
248	0x3ce40610	0.027834922
249	0x3e1d4ac8	0.15360558
250	0xbe435b48	-0.1907779
251	0x3db2e7fc	0.08735654
252	0xbdf72dbc	-0.1206927
253	0xbe307d06	-0.17235193
254	0x3d57ecc0	0.052716017
255	0x3e4b18f6	0.1983374

sparse_weighted_adjacency_matrices.pair_attention.edge_query.bias f4 [16]
0	0xbe667ba8	-0.22508109
1	0xbbb9c980	-0.0056697726
2	0x3e45ef9e	0.19329688
3	0x3d10d0c8	0.03535536
4	0xbe443476	-0.19160637
5	0x3cf84030	0.030304044
6	0x3e21d0fc	0.15802377
7	0x3d41dfb0	0.047332466
8	0x3e39f82a	0.18161073
9	0x3e0ca366	0.13734207
10	0x3de83534	0.11338273
11	0x3e782404	0.24232489
12	0x3e6c2f32	0.23064879
13	0xbd9e6398	-0.0773384
14	0x3de0c530	0.109751105
15	0xbdc9dac8	-0.09856182

sparse_weighted_adjacency_matrices.pair_attention.edge_key.weight f4 [16, 16]
0	0x3dd50d1c	0.10402891
1	0xbe75e65c	-0.24013656
2	0x3c434860	0.011919111
3	0x3e602176	0.21887764
4	0xbdcb0e50	-0.09914839
5	0xbdebcaa8	-0.11513263
6	0x3e5c2b84	0.21500975
7	0xbd39f210	-0.045396864
8	0xbe072552	-0.1319783
9	0xbdd07224	-0.101780206
10	0x3e3a822c	0.18213719
11	0x3cee9e40	0.029128194
12	0x3e686096	0.22693095
13	0x3e55dcce	0.20885012
14	0x3d530060	0.05151403
15	0xbe597d1a	-0.21239129
16	0x3e092488	0.13392842
17	0x3e4bd1d4	0.19904262
18	0xbd225a58	-0.03963694
19	0x3d232f10	0.039839804
20	0x3d140c98	0.036144823
21	0x3c90f870	0.01769659
22	0x3e1196d4	0.14217693
23	0xbd91e600	-0.07123947
24	0xbbe2b300	-0.006918311
25	0x3d918e18	0.0710718
26	0xbe72ced2	-0.23711708
27	0xbdf0d364	-0.117590696
28	0x3d4703c8	0.04858759
29	0x3dd30028	0.10302764
30	0xbe539088	-0.20660603
31	0xbcdde5a0	-0.027087033
32	0xbdd158a0	-0.10221982
33	0x3dbbe3f4	0.09174338
34	0xbccfc4f0	-0.025362462
35	0xbe4d292e	-0.2003524
36	0x3dc3c314	0.095586926
37	0xbe50c2ac	-0.20386761
38	0x3e7599b6	0.23984417
39	0x3e62a6cc	0.2213394
40	0xbe5a4c8e	-0.21318266
41	0xbd3c4088	-0.04595998
42	0xbd36a478	-0.044590443
43	0x3e69b946	0.22824582
44	0xbe58a066	-0.21154937
45	0xbe5b7638	-0.21431816
46	0xbcade100	-0.021225452
47	0xbdb68428	-0.089119256
48	0xbde4afc4	-0.11166337
49	0xbe0c644c	-0.13710135
50	0x3dd62db4	0.10457936
51	0xbe6224b2	-0.2208431
52	0x3e2193f4	0.15779096
53	0xbe2757dc	-0.1634211
54	0xbe55373e	-0.20821854
55	0xbddcf4b4	-0.10788861
56	0x3d9acdd0	0.07558787
57	0xbd1235b8	-0.03569576
58	0x3db40e48	0.087917864
59	0xbc922610	-0.017840415
60	0x3d2a1750	0.04152614
61	0xbe52de4a	-0.20592609
62	0xbe5a1488	-0.21296895
63	0x3d612c90	0.05497414
64	0x3c968d10	0.01837781
65	0xbe447962	-0.19186929
66	0xbcc59740	-0.024119973
67	0xbe679b94	-0.22617942
68	0x3c0212e0	0.00793907
69	0xbd105ab8	-0.035242766
70	0x3db2de24	0.08733776
71	0x3e4cf774	0.20016271
72	0xbd03acc8	-0.0321472
73	0xbe00cac4	-0.12577349
74	0x3e2dacc8	0.16960442
75	0xbda40af0	-0.08009899
76	0xbe7975b6	-0.2436131
77	0x3aa8cc00	0.001287818
78	0xbdd6cdbc	-0.104884595
79	0xbe202a1c	-0.15641063
80	0x3e369af8	0.17832553
81	0x3e632506	0.22182092
82	0xbd3a9918	-0.045556158
83	0x3e34d8a8	0.17660773
84	0xbe5ccca0	-0.21562433
85	0x3d81d248	0.06338936
86	0xbe349346	-0.17634305
87	0xbd3c3a58	-0.04595408
88	0x3e275ee4	0.16344792
89	0x3ce29c10	0.027662307
90	0xbdc5a0a8	-0.096497834
91	0x3d0d1a28	0.034448773
92	0x3d6760e8	0.0564889
93	0xbdae4560	-0.08509326
94	0xbe6f00a6	-0.23340091
95	0xbe129fe4	-0.14318806
96	0x3d988d80	0.07448864
97	0xbdb21834	-0.08696023
98	0x3e705608	0.23470318
99	0x3d68c578	0.056828946
100	0xbd7cb648	-0.061697274
101	0x3b28fc80	0.0025785267
102	0xbe682d08	-0.22673428
103	0x3dc1d954	0.0946528
104	0x3d497d08	0.049191505
105	0xbe775692	-0.24154118
106	0xbdfb000c	-0.12255868
107	0xbe10aaf8	-0.1412772
108	0x3cbc78b0	0.023006767
109	0xba46f600	-0.00075897574
110	0x3e77db38	0.24204719
111	0x3ddc85a8	0.107676804
112	0x3e147da8	0.14501059
113	0x3da452dc	0.08023617
114	0x3d6f73b0	0.058459938
115	0x3d2a7a68	0.041620642
116	0x3c91bc40	0.01778996
117	0x3db4588c	0.088059515
118	0xbe146bf6	-0.14494309
119	0x3b371a00	0.0027939081
120	0xbdf98608	-0.121837676
121	0xbe62b45e	-0.22139117
122	0x3d6f7ad8	0.058466762
123	0x3ddc8d48	0.10769135
124	0xbd1cf6e0	-0.038321376
125	0x3d1e8e78	0.038710088
126	0x3d891514	0.066934735
127	0xbce690b0	-0.028145164
128	0xbe252e1c	-0.1613087
129	0xbdab5468	-0.083657086
130	0x3e7cba0e	0.24680349
131	0x3d34ebd0	0.0441702
132	0x3e32fba4	0.17478806
133	0xbd806684	-0.06269553
134	0x3e13590e	0.1438944
135	0x3c637d60	0.013884872
136	0xbdecf2cc	-0.11569747
137	0x3d44bb00	0.0480299
138	0x3b436900	0.0029817224
139	0x3e005606	0.12532815
140	0x3e34a48e	0.17640898
141	0x3d99838c	0.07495794
142	0xbc99e7a0	-0.018787205
143	0xbdf265e4	-0.1183584
144	0xbe6af378	-0.22944438
145	0xbe0a365c	-0.13497299
146	0x3c962a60	0.018330753
147	0xbd862e3c	-0.06551787
148	0xbe131022	-0.14361623
149	0xbce3d650	-0.027812153
150	0xbe75119a	-0.23932496
151	0xbe2ab17e	-0.1666927
152	0xbd1b3118	-0.037888616
153	0xbd460920	-0.048348546
154	0xbca42340	-0.02003634
155	0x3e078dd2	0.13237694
156	0x3e401e28	0.18761504
157	0x3d538388	0.05163911
158	0x3e4d904e	0.20074579
159	0x3e67fb36	0.22654423
160	0x3e14fe24	0.14550072
161	0xbc084260	-0.008316606
162	0x3dc3a1cc	0.09552345
163	0x3e720474	0.23634511
164	0x3df18670	0.1179322
165	0x3a95be00	0.0011424422
166	0xbcc7c870	-0.024387568
167	0xbe11c7a8	-0.14236319
168	0xbd871dcc	-0.0659748
169	0xbe5a9f7e	-0.21349904
170	0xbe71aea0	-0.2360177
171	0xbe191f32	-0.14953306
172	0xbe13b93c	-0.1442613
173	0x3dc5a37c	0.09650323
174	0x3cddc160	0.027069747
175	0xbe392ba8	-0.1808306
176	0xbd9a641c	-0.075386256
177	0x3d8068b0	0.062699676
178	0x3e23825a	0.15967694
179	0xbd923840	-0.07139635
180	0xbdbf6ecc	-0.09347305
181	0x3dfedbfc	0.124443024
182	0x3d280f30	0.04103011
183	0xbe159058	-0.14605844
184	0x3e744e58	0.23858011
185	0xbdcf5fc0	-0.10125685
186	0x3e3bac6e	0.18327495
187	0x3c8b5140	0.017006516
188	0xbd45fa28	-0.04833427
189	0xbe3e6f2c	-0.18597096
190	0xbe4d33be	-0.2003927
191	0xbd9c853c	-0.076426
192	0x3bd661c0	0.0065424144
193	0xbe0ecf9a	-0.13946381
194	0xbe66bc3c	-0.22532743
195	0x3dc83b28	0.09776908
196	0xbc7ded60	-0.015498489
197	0x3e4a38b0	0.19748187
198	0xbe38769a	-0.18013993
199	0xbe15eee6	-0.14641914
200	0x3d0aa140	0.033845186
201	0x3d77c738	0.060492724
202	0x3e43a4a6	0.19105777
203	0x3e734db2	0.23760107
204	0x3e1eafec	0.15496796
205	0xbe72e8d2	-0.23721626
206	0xbe6ecdca	-0.2332069
207	0x3df132d0	0.1177727
208	0xbe42d9b8	-0.19028366
209	0x3d8f0718	0.06983775
210	0x3e2dd6ee	0.1697652
211	0x3e22eb56	0.15910086
212	0xbe6c4572	-0.23073366
213	0xbded5f38	-0.11590427
214	0xbd77f4b8	-0.060536116
215	0xbe67fe52	-0.22655609
216	0xbe747526	-0.23872814
217	0xbcb14b40	-0.021642327
218	0x3d85fc6c	0.06542286
219	0xbd42d068	-0.047562033
220	0x3c5d85e0	0.013520688
221	0x3e128bcc	0.14311141
222	0x3e4dd15a	0.20099393
223	0x3e5ba254	0.21448642
224	0x3e5cb8e6	0.21554908
225	0x3dfe0848	0.12403923
226	0xbe71f732	-0.23629454
227	0xbdeca808	-0.11555487
228	0x3c196140	0.009361565
229	0x3e2ea01c	0.17053264
230	0x3da1eb48	0.079062045
231	0xbe5f488c	-0.21805018
232	0xbdb7cc0c	-0.08974466
233	0xbe6fb6ec	-0.23409623
234	0x3e4ea610	0.20180535
235	0x3db16c68	0.08663255
236	0x3c797760	0.015226215
237	0x3dc0946c	0.09403309
238	0x3d9db868	0.07701188
239	0xbe2ef942	-0.17087272
240	0x3d6abca8	0.057308823
241	0x3bc9b4c0	0.0061555803
242	0x3e02c3f2	0.1277006
243	0xbe367a84	-0.17820174
244	0x3db3bf78	0.08776754
245	0x3e1930ce	0.14960024
246	0x3e4418aa	0.19150034
247	0xbdeb02d0	-0.11475146
248	0xbd904fa0	-0.07046437
249	0x3e5d3a54	0.21604282
250	0xbe6df212	-0.23236874
251	0xbe675358	-0.22590387
252	0x3cdcddb0	0.026961178
253	0x3aaca000	0.0013170242
254	0x3e73256c	0.23744744
255	0xbb1f9080	-0.0024347603

sparse_weighted_adjacency_matrices.pair_attention.edge_key.bias f4 [16]
0	0x3db52f2c	0.08846888
1	0xbe405526	-0.18782482
2	0xbdf5a11c	-0.1199362
3	0x3db76e64	0.08956602
4	0x3e638a02	0.22220615
5	0xbda599a8	-0.08085948
6	0xbe18e410	-0.14930749
7	0xbe1d5e94	-0.1536811
8	0x3e5346b2	0.20632437
9	0xbd14fdd0	-0.036374867
10	0xbd15de60	-0.036589026
11	0xbb07cc00	-0.0020720959
12	0xbe4f451c	-0.20241207
13	0x3e3e67d4	0.18594295
14	0x3e0dd1d2	0.13849571
15	0x3e540a48	0.20707047

sparse_weighted_adjacency_matrices.group_attention.embedding.weight f4 [64, 2]
0	0x80008b5a	-4.999e-41
1	0x00008c8f	5.0423e-41
2	0x800088cc	-4.9073e-41
3	0x00008e0e	5.096e-41
4	0x8000a695	-5.9758e-41
5	0x0000942f	5.3158e-41
6	0x00008ca1	5.0448e-41
7	0x80008b62	-5.0001e-41
8	0x80008d58	-5.0705e-41
9	0x80008a98	-4.9718e-41
10	0x000089ff	4.9504e-41
11	0x00008b01	4.9865e-41
12	0x00008ddb	5.0888e-41
13	0x00009029	5.1715e-41
14	0x80009386	-5.2921e-41
15	0x8000898e	-4.9345e-41
16	0x80008f7c	-5.1472e-41
17	0x0000a346	5.8571e-41
18	0x00014f67	1.2032e-40
19	0x00008a99	4.972e-41
20	0x80008ac6	-4.9783e-41
21	0x80008937	-4.9223e-41
22	0x80008a85	-4.9691e-41
23	0x00008b45	4.996e-41
24	0x00008b55	4.9983e-41
25	0x000088f9	4.9137e-41
26	0x000089af	4.9392e-41
27	0x00008cd2	5.0517e-41
28	0x8000ae75	-6.2583e-41
29	0x00008d57	5.0703e-41
30	0x00008d6a	5.073e-41
31	0x00008a71	4.9663e-41
32	0x800091bf	-5.2284e-41
33	0x800094d6	-5.3392e-41
34	0x80009e1e	-5.6722e-41
35	0x80008961	-4.9282e-41
36	0x8000897e	-4.9323e-41
37	0x80008980	-4.9326e-41
38	0x000092c6	5.2652e-41
39	0x00008b71	5.0022e-41
40	0x00009a65	5.5386e-41
41	0x80008a3e	-4.9592e-41
42	0x000089e1	4.9462e-41
43	0x80008bef	-5.0199e-41
44	0x80008a6a	-4.9654e-41
45	0x80008b62	-5.0001e-41
46	0x00009657	5.3932e-41
47	0x8000919e	-5.2238e-41
48	0x80008a7b	-4.9677e-41
49	0x00008a9f	4.9728e-41
50	0x80008cf2	-5.0562e-41
51	0x000089d0	4.9438e-41
52	0x00008952	4.9261e-41
53	0x00009168	5.2162e-41
54	0x000089bb	4.9408e-41
55	0x80008a92	-4.971e-41
56	0x00008e64	5.108e-41
57	0x8000895b	-4.9274e-41
58	0x80008a26	-4.9558e-41
59	0x80008d74	-5.0744e-41
60	0x000088e2	4.9104e-41
61	0x000093f4	5.3076e-41
62	0x00008926	4.92e-41
63	0x0000a84f	6.0378e-41
64	0x00008b14	4.9892e-41
65	0x00008e39	5.102e-41
66	0x80008a1a	-4.9542e-41
67	0x00008d06	5.059e-41
68	0x00008ecc	5.1226e-41
69	0x00006b93	3.859e-41
70	0x80008c28	-5.0279e-41
71	0x80008ce5	-5.0543e-41
72	0x8000582e	-3.1633e-41
73	0x00009b08	5.5615e-41
74	0x80008b0c	-4.988e-41
75	0x80009dc2	-5.6593e-41
76	0x00008ba5	5.0095e-41
77	0x00008900	4.9146e-41
78	0x800089db	-4.9453e-41
79	0x80008f55	-5.1418e-41
80	0x00008954	4.9264e-41
81	0x00008be2	5.018e-41
82	0x00008ccc	5.0508e-41
83	0x80009174	-5.2179e-41
84	0x80008b2d	-4.9927e-41
85	0x00019153	1.43968e-40
86	0x80008dff	-5.0939e-41
87	0x00008a68	4.9651e-41
88	0x00008e87	5.1129e-41
89	0x80008932	-4.9216e-41
90	0x00008cdb	5.053e-41
91	0x80008cf9	-5.0571e-41
92	0x000088cf	4.9078e-41
93	0x800089cd	-4.9434e-41
94	0x80008a24	-4.9556e-41
95	0x80008cf9	-5.0571e-41
96	0x800088ef	-4.9123e-41
97	0x00008b4a	4.9968e-41
98	0x80008954	-4.9264e-41
99	0x00008fc5	5.1575e-41
100	0x8000ae11	-6.2443e-41
101	0x80008a1a	-4.9542e-41
102	0x0000895e	4.9278e-41
103	0x00008b12	4.9889e-41
104	0x80008b37	-4.9941e-41
105	0x80008b3c	-4.9948e-41
106	0x80008aeb	-4.9834e-41
107	0x80008a1a	-4.9542e-41
108	0x00008b09	4.9876e-41
109	0x00008ca5	5.0454e-41
110	0x000097a5	5.44e-41
111	0x80008a2f	-4.9571e-41
112	0x00008a06	4.9513e-41
113	0x00009806	5.4536e-41
114	0x0000898d	4.9344e-41
115	0x80008b7b	-5.0036e-41
116	0x00008912	4.9172e-41
117	0x00008c21	5.0269e-41
118	0x00008acd	4.9792e-41
119	0x80009a64	-5.5385e-41
120	0x00008929	4.9204e-41
121	0x80008b9a	-5.008e-41
122	0x00008ec9	5.1222e-41
123	0x00008ec8	5.122e-41
124	0x0000894b	4.9251e-41
125	0x8000a91c	-6.0665e-41
126	0x00009174	5.2179e-41
127	0x0000a53a	5.9272e-41

sparse_weighted_adjacency_matrices.group_attention.embedding.bias f4 [64]
0	0x80008a3d	-4.959e-41
1	0x80008cc7	-5.0501e-41
2	0x00009f30	5.7106e-41
3	0x8000941f	-5.3136e-41
4	0x00008b57	4.9986e-41
5	0x00008b50	4.9976e-41
6	0x80008a6f	-4.966e-41
7	0x00008b02	4.9867e-41
8	0x0000892d	4.921e-41
9	0x0000ab6e	6.1497e-41
10	0x00009b9d	5.5824e-41
11	0x00008963	4.9285e-41
12	0x80008a7d	-4.968e-41
13	0x8000a0d5	-5.7696e-41
14	0x80009a83	-5.5428e-41
15	0x00008914	4.9174e-41
16	0x8000892b	-4.9207e-41
17	0x800089cb	-4.9431e-41
18	0x000093bc	5.2997e-41
19	0x0000916c	5.2168e-41
20	0x00008936	4.9222e-41
21	0x00008c13	5.0249e-41
22	0x00008e00	5.094e-41
23	0x00008af0	4.9841e-41
24	0x8000924e	-5.2484e-41
25	0x8000a54c	-5.9297e-41
26	0x00008a09	4.9518e-41
27	0x80009237	-5.2452e-41
28	0x80008d45	-5.0678e-41
29	0x80008ee1	-5.1255e-41
30	0x00008cc6	5.05e-41
31	0x00008afc	4.9858e-41
32	0x00008966	4.9289e-41
33	0x80008afe	-4.9861e-41
34	0x00008929	4.9204e-41
35	0x8000972a	-5.4227e-41
36	0x80008a48	-4.9606e-41
37	0x00008d5d	5.0712e-41
38	0x00008ade	4.9816e-41
39	0x00008afd	4.986e-41
40	0x800089e1	-4.9462e-41
41	0x80009986	-5.5074e-41
42	0x000152ef	1.21586e-40
43	0x00008f7d	5.1474e-41
44	0x80008cb1	-5.047e-41
45	0x00008a6b	4.9655e-41
46	0x000089c9	4.9428e-41
47	0x000089e2	4.9463e-41
48	0x00008b80	5.0043e-41
49	0x00007ee5	4.5521e-41
50	0x00008e0e	5.096e-41
51	0x800088be	-4.9054e-41
52	0x000088f3	4.9128e-41
53	0x80008ff1	-5.1636e-41
54	0x00008b55	4.9983e-41
55	0x00008a1e	4.9547e-41
56	0x8000898c	-4.9343e-41
57	0x00008ae9	4.9832e-41
58	0x000088dc	4.9096e-41
59	0x80008918	-4.918e-41
60	0x800089ae	-4.939e-41
61	0x800089a3	-4.9375e-41
62	0x80008b25	-4.9916e-41
63	0x00008970	4.9303e-41
