checkpoints/GHGNN/eth/train_best.pth (torch, 128930 bytes, 58 tensors)

sparse_weighted_adjacency_matrices.edge_inital.x_embedding.weight f4 [16, 2]
1.169849e-08 4.07578e-09 1.2519249e-09 1.0801263e-09 -1.4041643e-07 -3.471e-08 -5.4390443e-06 -2.7902804e-06
6.602638e-08 1.3898581e-08 -3.7351e-09 -9.198266e-10 1.3955555e-07 2.799793e-08 1.4759591e-07 7.525905e-08
2.2405241e-07 5.9257044e-08 2.5270938e-06 5.799858e-07 -6.383472e-07 -1.7436884e-07 4.7372568e-18 4.0776964e-18
1.1118402e-06 2.9386695e-07 4.061947e-09 6.390088e-10 1.1591954e-06 3.6619772e-07 -3.4329992e-22 -1.5042796e-22
00000000: 81fa 4832 f10a 8c31 3110 ac30 9173 9430
00000010: 60c5 16b4 0c14 15b3 0981 b6b6 a740 3bb6
00000020: 63ca 8d33 9bc6 6e32 4956 80b1 0bd7 7cb0
00000030: bdd8 1534 1980 f032 db7a 1e34 1a9e a133
00000040: 0f93 7034 cf81 7e33 2497 2936 52b0 1b35
00000050: e35a 2bb5 243a 3bb4 20c6 ae22 c170 9622
00000060: 8a3a 9535 c4c4 9d34 4391 8b31 3fa6 2f30
00000070: a795 9b35 d599 c434 1783 cf9b 33db 359b

sparse_weighted_adjacency_matrices.edge_inital.x_embedding.bias f4 [16]
8.576782e-05 -4.6550114e-05 0.00073687197 2.979575e-06 -4.1357858e-08 -1.0022677e-06 -1.34033e-07 -5.398593e-06
-1.6449577e-07 -1.3630355e-06 -3.8328963e-06 -1.1420294e-14 1.7289565e-05 -4.8556266e-09 9.020465e-07 7.95145e-19
00000000: 3fde b338 ce3e 43b8 a42a 413a b5f4 4736
00000010: 72a1 31b3 a885 86b5 b6ea 0fb4 9025 b5b6
00000020: 41a0 30b4 8bf1 b6b5 549c 80b6 cfba 4da8
00000030: 0f09 9137 8bd6 a6b1 2a24 7235 75af 6a21

sparse_weighted_adjacency_matrices.edge_inital.edge_embedding.weight f4 [16, 16]
7.6709553e-13 -4.2520314e-13 1.1223169e-09 -7.723836e-09 -8.297156e-12 -1.0379218e-14 1.7021347e-12 2.5020583e-13
-3.649431e-11 3.732547e-09 -3.9698723e-11 -8.8456715e-23 1.1114615e-10 1.1461172e-13 6.788179e-10 6.60107e-27
1.4794598e-11 -1.2320512e-11 9.569708e-09 5.2682117e-07 3.935442e-11 -1.914732e-13 1.7432146e-11 -1.5294137e-10
-2.1328432e-09 1.2414394e-07 1.3020715e-10 -2.182226e-21 2.3099884e-09 1.8247398e-11 2.8097098e-08 2.0498999e-25
-2.543415e-10 5.5008886e-10 -2.4555314e-07 -6.3709017e-06 -5.0062294e-08 1.5871762e-12 5.838659e-10 9.315056e-09
-6.218832e-08 3.6094305e-06 1.1229818e-07 -1.1377363e-23 -1.2759615e-08 -8.203538e-10 7.852312e-08 1.0073257e-27
-9.558653e-10 5.0538723e-10 -4.9105333e-09 -8.910561e-11 2.2173837e-13 1.4077068e-11 -8.6481836e-13 4.599075e-11
-1.3298816e-12 4.826369e-10 3.5784122e-11 2.3511565e-19 -1.3855589e-10 -1.0890898e-14 -6.041837e-12 -1.5690562e-23
4.5055453e-09 -2.3951219e-09 2.3053756e-08 -5.100335e-09 2.8374973e-11 -6.653066e-11 5.8451875e-11 -1.8864633e-10
9.9514015e-11 3.5242937e-09 -3.8771428e-10 6.101479e-20 1.1494627e-09 2.4956044e-12 1.0152036e-09 -9.388278e-24
-2.0270558e-11 1.0905165e-11 -9.971565e-11 1.9858351e-10 -2.006978e-13 2.7880188e-13 -2.7035798e-13 9.011981e-13
-8.2543765e-13 -7.8581655e-11 2.1415935e-12 -1.5615397e-22 -7.0366052e-12 -1.1845212e-14 -1.462596e-11 1.5552054e-25
-3.530595e-07 4.068009e-07 -2.751747e-05 -2.7685403e-05 -4.1957073e-06 4.4976742e-09 -1.7027236e-06 -1.5362498e-06
-5.4518096e-06 -0.000100990896 -6.7374312e-06 8.51451e-18 -2.4297777e-05 -4.3911103e-07 3.0387086e-05 -6.408545e-22
-5.617803e-09 -7.7329193e-10 4.967431e-08 1.09797e-05 -1.070506e-07 3.5880986e-11 3.2430833e-08 2.9097023e-07
-2.0949064e-06 2.2103219e-05 5.441435e-07 2.1575808e-20 -1.8434534e-07 -5.5320097e-08 -8.265463e-06 -1.7177322e-24
4.9558047e-08 -2.5789525e-08 2.4261175e-07 -1.5754075e-08 1.5973932e-10 -7.548815e-10 4.0504577e-10 -2.3628726e-09
6.239546e-10 8.350107e-09 -3.2726546e-09 -1.432249e-17 9.8319175e-09 1.3204478e-11 5.046367e-09 7.057346e-22
1.7108384e-07 -9.69164e-08 9.974571e-06 -5.756482e-06 1.017995e-07 -3.1644967e-09 1.7488684e-08 -6.792591e-08
1.5121424e-07 6.5417144e-06 -2.049852e-07 -1.6113218e-16 1.6155393e-06 7.285315e-09 1.4310347e-06 1.22541064e-20
-4.791397e-12 6.1282125e-12 -1.0169295e-08 9.565126e-08 5.044995e-11 1.880133e-14 1.9958235e-11 9.7374345e-11
2.5192795e-10 7.0327395e-08 7.249258e-10 6.29369e-23 -9.351117e-10 1.2938786e-12 6.3497585e-09 5.062333e-28
2.0029647e-06 -2.2953789e-07 1.1578814e-05 -0.00059359754 6.2130143e-06 -3.8924898e-07 1.3774409e-05 1.6038784e-05
3.1770687e-05 0.00025812205 -0.000105215455 2.3191437e-16 0.0001937557 -1.4068806e-06 0.0002574725 -1.7015176e-20
-5.105043e-06 4.1655762e-06 -0.00035382592 0.00037688954 1.5917953e-05 3.4809023e-07 2.5223251e-05 6.0391565e-05
-6.767635e-05 0.0010832043 0.00017785939 1.7173684e-17 7.4505726e-05 2.7972412e-05 0.00020873893 -1.2385514e-21
-4.8099827e-07 9.2542876e-07 1.826704e-05 -0.00018472453 -2.2749613e-05 -2.438024e-08 4.118336e-06 5.6559484e-06
-8.659478e-06 1.99125e-05 -2.1138874e-05 -2.0410134e-19 -5.494435e-06 -1.0197884e-06 5.9499038e-05 1.5401597e-23
-6.851616e-09 3.3976846e-08 -4.251031e-06 -0.00013688706 3.1228344e-06 4.335263e-10 5.068349e-07 6.642051e-07
-3.0043066e-06 1.937667e-05 6.1352756e-07 -1.0803908e-18 -1.7568763e-06 2.7208782e-07 1.829105e-05 8.219682e-23
-2.7738376e-11 1.4431119e-11 -1.4463726e-10 3.9003845e-11 -1.4131338e-13 4.0139837e-13 -3.0426846e-13 1.2813664e-12
-5.539936e-13 -2.8342563e-11 2.5414872e-12 5.058089e-21 -1.0803886e-11 -1.1191841e-14 -2.5086098e-11 -3.0720909e-25
00000000: 0feb 572b 3b5e efaa 0440 9a30 cab1 04b2
00000010: 12f7 11ad b2f9 3aa8 de8d ef2b 76da 8c2a
00000020: f180 20ae d53f 8031 ca98 2eae 0ee0 d59a
00000030: b869 f42e 940a 012a 9097 3a30 67bf 0214
00000040: 7922 822d a7be 58ad 0568 2432 e06a 0d35
00000050: 2315 2d2e 6494 57aa b455 992d 2b29 28af
00000060: 6091 12b1 6d4c 0534 0e2a 0f2f 64e2 249d
00000070: bfbd 1e31 7d81 a02d 2c5a f132 ecc3 7d16
00000080: 62d3 8baf 1035 1730 91d4 83b4 a1c5 d5b6
00000090: 1304 57b3 0d60 df2b e97d 2030 0d08 2032
000000a0: 648c 85b3 8b39 7236 9428 f133 f911 5c99
000000b0: 6135 5bb2 447f 61b0 8ba0 a833 fc9d 9f12
000000c0: 855f 83b0 77eb 0a30 82b9 a8b1 00f2 c3ae
000000d0: bca7 792a 7aa5 772d bb6c 73ab fb44 4a2e
000000e0: 092a bbab 8daa 0430 5761 1d2e acc9 8a20
000000f0: 0458 18af 6731 44a8 0894 d4ac f3bf 9799
00000100: 32cf 9a31 6e97 24b1 bf07 c632 053f afb1
00000110: c296 f92d 6f4d 92ae 7b89 802e 396b 4faf
00000120: 69d5 da2e 0830 7231 ef25 d5af 2d11 901f
00000130: 20fb 9d30 d09c 2f2c 4d87 8b30 8098 3599
00000140: 3d4d b2ad 7fd8 3f2d ec46 dbae 4a58 5a2f
00000150: 34f7 61aa 96f3 9c2a b132 98aa 2baa 7d2b
00000160: 0d57 68ab 8acd acae 85b3 162c 50c7 3c9b
00000170: 1b94 f7ac 6662 55a8 bca6 80ad 6d86 4016
00000180: 218c bdb4 4a66 da34 51d5 e6b7 f33d e8b7
00000190: dac8 8cb6 f689 9a31 2389 e4b5 2431 ceb5
000001a0: b0ee b6b6 13cb d3b8 1812 e2b6 a310 1d23
000001b0: 14d3 cbb7 f6be ebb4 c5e7 fe37 b7af 419c
000001c0: b806 c1b1 958f 54b0 7b59 5533 7435 3837
000001d0: b1e3 e5b3 66ce 1d2e 144a 0b33 a536 9c34
000001e0: 3896 0cb6 4d6a b937 4211 1235 1ac7 cb1e
000001f0: 76f0 45b4 1799 6db3 e5ab 0ab7 31e7 0498
00000200: a6d9 5433 c487 ddb2 4e40 8234 9453 87b2
00000210: 9fa2 2f2f 1080 4fb0 20ad de2f 1860 22b1
00000220: e782 2b30 2974 0f32 26e5 60b1 061a 84a3
00000230: 3be9 2832 af4b 682d 5064 ad31 924b 551c
00000240: 2bb3 3734 5b20 d0b3 7558 2737 ce27 c1b6
00000250: de9c da33 6a76 59b1 063a 9632 aade 91b3
00000260: 745d 2234 e680 db36 e719 5cb4 d3c5 39a5
00000270: 82d5 d835 4f52 fa31 fa11 c035 3979 671e
00000280: 1195 a8ac 089e d72c 08b5 2eb2 d668 cd33
00000290: 98e1 5d2e ea58 a928 f38d af2d e220 d62e
000002a0: b57f 8a2f e506 9733 1e44 4730 0e2c 981a
000002b0: 5185 80b0 e418 b62b 112d da31 866e 2012
000002c0: ac6a 0636 e576 76b4 a142 4237 a89b 1bba
000002d0: 6379 d036 f9f9 d0b4 a318 6737 078b 8637
000002e0: 8441 0538 8e54 8739 1ea7 dcb8 85b0 8525
000002f0: e62a 4b39 0dd4 bcb5 60fd 8639 2cb4 a09e
00000300: fc4b abb6 07c6 8b36 b681 b9b9 4299 c539
00000310: 8b87 8537 28e1 ba34 8596 d337 f34c 7d38
00000320: 77ed 8db8 4efa 8d3a c47f 3a39 3766 9e23
00000330: f53f 9c38 4ca6 ea37 eee0 5a39 232a bb9c
00000340: f31d 01b5 fb6a 7835 2b3c 9937 9db2 41b9
00000350: 6cd6 beb7 b76c d1b2 3d30 8a36 3ac8 bd36
00000360: 2d48 11b7 c509 a737 6353 b1b7 d8f5 70a0
00000370: d65c b8b6 aadf 88b5 9b8e 7938 82f4 9419
00000380: 746b ebb1 f0ed 1133 14a4 8eb6 5789 0fb9
00000390: e391 5136 6755 ee2f 6e0d 0835 d44b 3235
000003a0: 989d 49b6 158b a237 4bb1 2435 0370 9fa1
000003b0: cfcd ebb5 7713 9234 bb6f 9937 5ebd c61a
000003c0: 45fd f3ad fbdf 7d2d c507 1faf 6d8a 2b2e
000003d0: cf1a 1faa 9af7 e12a b549 abaa 1756 b42b
000003e0: 72ef 1bab c74d f9ad 5dd7 322c d616 bf1d
000003f0: 6110 3ead 429d 49a8 dfa8 dcad 3927 be96

sparse_weighted_adjacency_matrices.edge_inital.edge_embedding.bias f4 [16]
6.3652117e-10 2.489705e-08 3.03642e-10 -2.4116955e-06 9.733144e-06 -2.5621272e-08 8.8185504e-07 -7.579922e-08
7.648557e-05 0.00015346501 -1.7839552e-09 -0.0003601249 -2.4551313e-05 5.162299e-07 2.8543675e-06 -5.8425012e-08
00000000: 32f7 2e30 31dd d532 d0ed a62f 9dd8 21b6
00000010: 894b 2337 c615 dcb2 9eb8 6c35 10c7 a2b3
00000020: e166 a038 73eb 2039 582f f5b0 25cf bcb9
00000030: 8bf3 cdb7 0c93 0a35 a98d 3f36 fbee 7ab3

sparse_weighted_adjacency_matrices.pair_attention.embedding.weight f4 [64, 2]
6.2359e-41 -4.9735e-41 -6.0878e-41 6.0794e-41 4.9235e-41 5.4083e-41 -5.0012e-41 5.0962e-41
5.1582e-41 -6.095e-41 5.7864e-41 -4.9431e-41 4.9302e-41 5.4711e-41 -5.7593e-41 -5.767e-41
4.9677e-41 5.4606e-41 -5.0238e-41 -5.0252e-41 -5.0656e-41 5.0777e-41 -4.9733e-41 5.5016e-41
5.234e-41 5.0026e-41 5.4841e-41 -4.9861e-41 5.0668e-41 -4.9592e-41 -6.3035e-41 -4.9146e-41
-6.0559e-41 -4.9165e-41 5.2804e-41 -5.101e-41 -5.1949e-41 4.9896e-41 4.94e-41 -5.857e-41
5.0413e-41 5.0151e-41 -5.4142e-41 -5.0511e-41 -5.0333e-41 -5.239e-41 -5.8808e-41 -4.945e-41
4.9094e-41 4.9932e-41 -5.0026e-41 4.9202e-41 5.0427e-41 -1.41862e-40 5.1758e-41 -6.0333e-41
5.3796e-41 -4.9201e-41 -4.978e-41 5.0427e-41 -5.6031e-41 4.9052e-41 6.247e-41 5.271e-41
-5.0175e-41 4.9101e-41 -4.9285e-41 1.31282e-40 -5.1082e-41 4.917e-41 -5.7043e-41 4.986e-41
-4.9697e-41 5.6625e-41 -5.8508e-41 -5.3185e-41 5.1297e-41 5.6456e-41 -5.3984e-41 -6.0875e-41
-5.1666e-41 6.1478e-41 -5.2208e-41 5.3858e-41 -5.1809e-41 -4.9806e-41 5.5106e-41 5.4132e-41
-5.2037e-41 4.9177e-41 5.0032e-41 -4.9928e-41 5.0431e-41 -5.2502e-41 5.12e-41 5.0386e-41
-4.9647e-41 5.5399e-41 -5.0112e-41 4.9242e-41 -4.9125e-41 -4.9065e-41 5.2071e-41 -4.9767e-41
5.9468e-41 4.9826e-41 5.1408e-41 4.9932e-41 -5.069e-41 -5.5161e-41 -4.9186e-41 4.9565e-41
-5.2076e-41 -5.1323e-41 -4.9113e-41 5.1652e-41 5.0244e-41 -5.228e-41 -5.1091e-41 5.3189e-41
-5.0427e-41 4.9638e-41 -5.0473e-41 5.0922e-41 5.1597e-41 4.9651e-41 5.0625e-41 -5.2588e-41
00000000: d5ad 0000 a48a 0080 b4a9 0080 78a9 0000
00000010: 3f89 0000 c396 0000 6a8b 0080 108e 0000
00000020: ca8f 0000 e7a9 0080 4da1 0000 cb89 0080
00000030: 6f89 0000 8398 0000 8ca0 0080 c3a0 0080
00000040: 7b8a 0000 3898 0000 0b8c 0080 158c 0080
00000050: 358d 0080 8c8d 0000 a38a 0080 5d99 0000
00000060: e791 0000 748b 0000 e098 0000 fe8a 0080
00000070: 3e8d 0000 3e8a 0080 b7af 0080 0089 0080
00000080: d0a8 0080 0d89 0080 3293 0000 328e 0080
00000090: d090 0080 178b 0000 b589 0000 45a3 0080
000000a0: 888c 0000 cd8b 0000 ed96 0080 ce8c 0080
000000b0: 4f8c 0080 0b92 0080 efa3 0080 d989 0080
000000c0: db88 0000 318b 0000 748b 0080 2889 0000
000000d0: 928c 0000 748b 0180 4890 0000 2fa8 0080
000000e0: f695 0000 2789 0080 c48a 0080 928c 0000
000000f0: 319c 0080 bd88 0000 24ae 0000 ef92 0000
00000100: de8b 0080 e088 0000 6389 0080 f66d 0100
00000110: 658e 0080 1189 0000 039f 0080 fd8a 0000
00000120: 898a 0080 d99d 0000 19a3 0080 4294 0080
00000130: ff8e 0000 609d 0000 7c96 0080 b2a9 0080
00000140: 0690 0080 60ab 0000 8991 0080 2296 0000
00000150: 6c90 0080 d78a 0080 9d99 0000 e696 0000
00000160: 0f91 0080 1689 0000 788b 0000 2e8b 0080
00000170: 958c 0000 5b92 0080 ba8e 0000 758c 0000
00000180: 658a 0080 6e9a 0000 b18b 0080 4489 0000
00000190: f188 0080 c688 0080 2791 0000 bb8a 0080
000001a0: c6a5 0000 e58a 0000 4e8f 0000 318b 0000
000001b0: 4e8d 0080 c499 0080 1c89 0080 2b8a 0000
000001c0: 2b91 0080 118f 0080 e888 0080 fc8f 0000
000001d0: 0f8c 0000 bc91 0080 6c8e 0080 4594 0000
000001e0: 928c 0080 5f8a 0000 b38c 0080 f38d 0000
000001f0: d58f 0000 688a 0000 1f8d 0000 9892 0080

sparse_weighted_adjacency_matrices.pair_attention.embedding.bias f4 [64]
-4.9574e-41 5.5047e-41 -4.9732e-41 4.9113e-41 4.9174e-41 -5.1631e-41 -4.926e-41 -5.1736e-41
5.5049e-41 5.2456e-41 4.9532e-41 5.4624e-41 5.9777e-41 -5.6904e-41 -5.0224e-41 5.2116e-41
-5.7362e-41 5.2502e-41 -4.9607e-41 -5.0312e-41 -5.392e-41 -5.1959e-41 4.9285e-41 -4.9246e-41
-4.9645e-41 -5.2647e-41 5.1136e-41 -5.0343e-41 4.9825e-41 5.8105e-41 5.0979e-41 5.0906e-41
6.1893e-41 5.339e-41 -5.2477e-41 -5.1302e-41 4.9322e-41 -5.5793e-41 5.7382e-41 5.0354e-41
-5.128e-41 -5.0374e-41 -5.0123e-41 5.1079e-41 5.0138e-41 -1.2967e-40 5.8734e-41 5.1784e-41
5.1215e-41 4.9592e-41 5.5892e-41 -5.0214e-41 -5.1478e-41 4.9394e-41 -4.9431e-41 -5.9877e-41
5.0322e-41 -4.9097e-41 -5.0937e-41 4.9361e-41 4.9101e-41 -5.3262e-41 5.7885e-41 -5.0642e-41
00000000: 318a 0080 7399 0000 a28a 0080 e888 0000
00000010: 1489 0000 ed8f 0080 5189 0080 3890 0080
00000020: 7499 0000 3a92 0000 138a 0000 4598 0000
00000030: a2a6 0000 a09e 0080 018c 0080 4791 0000
00000040: e79f 0080 5b92 0000 498a 0080 408c 0080
00000050: 4f96 0080 d790 0080 6389 0000 4789 0080
00000060: 648a 0080 c292 0080 8c8e 0000 568c 0080
00000070: e48a 0000 f9a1 0000 1c8e 0000 e88d 0000
00000080: 88ac 0000 d494 0000 4992 0080 028f 0080
00000090: 7d89 0000 879b 0080 f59f 0000 5e8c 0000
000000a0: f38e 0080 6c8c 0080 b98b 0080 638e 0000
000000b0: c48b 0000 7869 0180 baa3 0000 5a90 0000
000000c0: c48e 0000 3e8a 0000 ce9b 0000 fa8b 0080
000000d0: 808f 0080 b189 0000 cb89 0080 eaa6 0080
000000e0: 478c 0000 dd88 0080 fe8d 0080 9989 0000
000000f0: e088 0000 7994 0080 5ca1 0000 2b8d 0080

sparse_weighted_adjacency_matrices.pair_attention.query.weight f4 [64, 64]
-5.078e-41 5.3563e-41 -5.334e-41 5.0507e-41 -1.4426e-41 4.9274e-41 -4.9125e-41 6.2372e-41
-5.6608e-41 -4.9106e-41 5.8717e-41 5.4028e-41 1.12848e-40 -6.1841e-41 6.1028e-41 -5.8279e-41
-5.8564e-41 -5.6612e-41 5.595e-41 5.7048e-41 -5.0835e-41 -4.9219e-41 5.5456e-41 4.9406e-41
5.3148e-41 4.9208e-41 -2.67082e-40 -5.7191e-41 6.2844e-41 -4.945e-41 -4.9057e-41 -5.3601e-41
5.1749e-41 -6.1162e-41 5.4278e-41 4.5929e-41 6.1139e-41 6.1097e-41 5.011e-41 -4.876e-41
5.1355e-41 -5.4498e-41 5.0777e-41 -1.85072e-40 4.931e-41 -5.5742e-41 5.6912e-41 -5.0029e-41
-6.0617e-41 4.9073e-41 4.8492e-41 -5.126e-41 -6.286e-41 -9.8716e-41 5.3186e-41 -4.9225e-41
-4.909e-41 -4.9085e-41 4.9069e-41 -8.824e-42 -5.5433e-41 6.175e-41 5.1018e-41 5.5805e-41
-5.561e-41 -5.2542e-41 5.5887e-41 6.0294e-41 -6.057e-41 2.4184e-41 6.3032e-41 -4.9052e-41
-5.3965e-41 -5.6301e-41 -3.11404e-40 -6.2721e-41 -4.9225e-41 5.4984e-41 5.9188e-41 -4.9214e-41
5.5913e-41 5.2477e-41 6.1752e-41 5.9522e-41 -6.009e-41 6.1139e-41 -6.1374e-41 -6.2579e-41
-6.1808e-41 6.1154e-41 6.0211e-41 5.6303e-41 5.6544e-41 6.1751e-41 -6.1531e-41 5.2097e-41
-6.031e-41 5.4131e-41 5.1603e-41 -6.1416e-41 4.9362e-41 6.2512e-41 5.9524e-41 5.5277e-41
-8.4692e-41 -4.9086e-41 9.9e-43 5.069e-41 5.381e-41 -5.5035e-41 5.5575e-41 5.4142e-41
7.9563e-41 1.04712e-40 -6.0505e-41 -2.4835e-41 1.84774e-40 5.8545e-41 -5.6824e-41 5.349e-41
5.3127e-41 4.9117e-41 6.1479e-41 -4.919e-41 5.2047e-41 5.0444e-41 5.3677e-41 -5.7911e-41
-6.0807e-41 4.1642e-41 -5.1279e-41 -5.9536e-41 -5.0605e-41 6.2513e-41 4.9113e-41 -6.194e-41
5.2917e-41 -5.7289e-41 -5.1854e-41 -5.754e-41 6.001e-41 -5.2124e-41 -5.7865e-41 -1.28594e-40
2.71579e-40 -6.2649e-41 5.7631e-41 -6.2747e-41 -5.8248e-41 -5.4697e-41 -4.9113e-41 3.116e-42
-5.7434e-41 -5.5477e-41 5.7462e-41 5.7336e-41 4.9745e-41 5.2774e-41 -1.19567e-40 5.5728e-41
1.50864e-40 -4.9197e-41 5.8534e-41 -4.9116e-41 5.1105e-41 6.1982e-41 -5.6775e-41 5.4725e-41
4.9113e-41 -5.573e-41 -5.1215e-41 5.7893e-41 6.2767e-41 -5.3207e-41 4.9634e-41 1.07973e-40
-5.3574e-41 -4.9079e-41 5.933e-41 5.4239e-41 -1.6933e-40 5.7673e-41 5.6255e-41 5.3474e-41
-4.9225e-41 -5.5302e-41 -5.341e-41 -6.0623e-41 -6.092e-41 -5.4766e-41 4.9131e-41 5.8029e-41
6.1556e-41 -5.4815e-41 4.9264e-41 6.1165e-41 5.3741e-41 -5.5755e-41 5.1143e-41 -5.4372e-41
-5.5259e-41 6.1416e-41 5.2979e-41 5.793e-41 1.41318e-40 -4.9064e-41 6.2767e-41 -5.5298e-41
4.9329e-41 5.0457e-41 -5.7889e-41 3.0415e-41 -4.9399e-41 5.0974e-41 -4.9319e-41 5.433e-41
-5.4827e-41 5.9107e-41 -4.9313e-41 5.2603e-41 5.8536e-41 -2.86829e-40 1.24123e-40 2.471e-41
-4.9176e-41 5.7756e-41 4.913e-41 4.9078e-41 -5.6227e-41 4.907e-41 -5.7006e-41 -5.2502e-41
-6.2662e-41 -5.4352e-41 -6.0944e-41 5.528e-41 -4.9242e-41 4.9836e-41 5.8164e-41 -1.43902e-40
-4.9162e-41 5.755e-41 -5.3517e-41 4.9942e-41 -1.66466e-40 -5.1471e-41 5.7634e-41 5.2882e-41
-5.7232e-41 -2.7514e-41 -5.9529e-41 -4.9116e-41 5.8588e-41 6.2904e-41 6.2589e-41 5.8513e-41
00000000: 8e8d 0080 5095 0000 b194 0080 cb8c 0000
00000010: 3728 0080 5b89 0000 f188 0080 dead 0000
00000020: cd9d 0080 e388 0080 aea3 0000 9c96 0000
00000030: 933a 0100 63ac 0080 1faa 0000 75a2 0080
00000040: 41a3 0080 d09d 0080 f79b 0000 079f 0000
00000050: b58d 0080 3489 0080 979a 0000 b989 0000
00000060: 2894 0000 2c89 0000 84e8 0280 6d9f 0080
00000070: 2faf 0000 d989 0080 c088 0080 6b95 0080
00000080: 4190 0000 7faa 0080 4e97 0000 0880 0000
00000090: 6eaa 0000 50aa 0000 b08b 0000 ec87 0080
000000a0: 288f 0000 eb97 0080 8c8d 0000 e803 0280
000000b0: 7589 0000 639b 0080 a69e 0000 768b 0080
000000c0: faa8 0080 cc88 0000 2d87 0000 e48e 0080
000000d0: 3aaf 0080 2e13 0180 4394 0000 3889 0080
000000e0: d888 0080 d488 0080 c988 0000 9918 0080
000000f0: 869a 0080 22ac 0000 388e 0000 909b 0000
00000100: 059b 0080 7792 0080 ca9b 0000 13a8 0000
00000110: d8a8 0080 6a43 0000 b5af 0000 bd88 0080
00000120: 6f96 0080 f29c 0080 1164 0380 d7ae 0080
00000130: 3889 0080 4699 0000 fea4 0000 3089 0080
00000140: dd9b 0000 4992 0000 24ac 0000 eca5 0000
00000150: 82a7 0080 6eaa 0000 16ab 0080 72ae 0080
00000160: 4cac 0080 79aa 0000 d8a7 0000 f39c 0000
00000170: 9f9d 0000 23ac 0000 86ab 0080 3a91 0000
00000180: 1fa8 0080 e596 0000 d98f 0000 34ab 0080
00000190: 9a89 0000 42ae 0000 eea5 0000 179a 0000
000001a0: 16ec 0080 d588 0080 c202 0000 4e8d 0000
000001b0: 0096 0000 6a99 0080 ec9a 0000 ed96 0000
000001c0: cadd 0000 e523 0100 aaa8 0080 3b45 0080
000001d0: 1303 0200 33a3 0000 679e 0080 1c95 0000
000001e0: 1994 0000 eb88 0000 61ab 0000 1f89 0080
000001f0: 1691 0000 9e8c 0000 a195 0000 6fa1 0080
00000200: 81a9 0080 1574 0000 f28e 0080 f6a5 0080
00000210: 118d 0080 43ae 0000 e888 0000 aaac 0080
00000220: 8393 0000 b39f 0080 8c90 0080 66a0 0080
00000230: 49a7 0000 4d91 0080 4ea1 0080 7866 0180
00000240: 0df5 0200 a4ae 0080 a7a0 0000 eaae 0080
00000250: 5fa2 0080 7998 0080 e888 0080 b008 0000
00000260: 1aa0 0080 a69a 0080 2ea0 0000 d49f 0000
00000270: ab8a 0000 1d93 0000 4e4d 0180 599b 0000
00000280: 8ca4 0100 2489 0080 2ba3 0000 ea88 0080
00000290: 768e 0000 c8ac 0000 449e 0080 8d98 0000
000002a0: e888 0000 5a9b 0080 c48e 0080 62a1 0000
000002b0: f8ae 0000 5294 0080 5c8a 0000 fc2c 0100
000002c0: 5895 0080 d088 0080 63a5 0000 3297 0000
000002d0: 06d8 0180 c5a0 0000 d19c 0000 1095 0000
000002e0: 3889 0080 299a 0080 e394 0080 fea8 0080
000002f0: d2a9 0080 aa98 0080 f588 0000 c3a1 0000
00000300: 98ab 0000 cd98 0080 5489 0000 81aa 0000
00000310: cf95 0000 6c9b 0080 918e 0000 9197 0080
00000320: 0a9a 0080 34ab 0000 af93 0000 7ca1 0000
00000330: f089 0100 c588 0080 f8ae 0000 269a 0080
00000340: 8289 0000 a78c 0000 5fa1 0080 c954 0000
00000350: b489 0080 188e 0000 7b89 0080 7397 0000
00000360: d698 0080 c4a4 0000 7789 0080 a392 0000
00000370: 2da3 0000 901f 0380 015a 0100 e244 0000
00000380: 1589 0080 00a1 0000 f488 0000 cf88 0000
00000390: bd9c 0080 ca88 0000 e99e 0080 5b92 0080
000003a0: adae 0080 8397 0080 e3a9 0080 199a 0000
000003b0: 4489 0080 ec8a 0000 23a2 0000 2491 0180
000003c0: 0b89 0080 6da0 0000 2f95 0080 388b 0000
000003d0: 0ad0 0180 7b8f 0080 a9a0 0000 6a93 0000
000003e0: 8a9f 0080 b34c 0080 f1a5 0080 ea88 0080
000003f0: 52a3 0000 5aaf 0000 79ae 0000 1ca3 0000

sparse_weighted_adjacency_matrices.pair_attention.query.bias f4 [64]
-4.7532e-41 -6.1552e-41 -4.9267e-41 5.4546e-41 4.9272e-41 5.5377e-41 -5.8664e-41 -4.9177e-41
-4.9309e-41 -5.4086e-41 5.996e-41 -6.2983e-41 1.4026e-40 5.6137e-41 -4.9193e-41 6.2642e-41
-4.9083e-41 5.2338e-41 -6.1265e-41 -4.9135e-41 5.9973e-41 4.9222e-41 -1.2124e-41 -5.538e-41
5.2608e-41 6.2782e-41 5.2854e-41 -4.9103e-41 -5.176e-41 -5.0333e-41 -5.076e-41 -5.2141e-41
-5.5183e-41 5.8607e-41 5.9166e-41 -6.2467e-41 6.2312e-41 5.2407e-41 4.9078e-41 4.9598e-41
-1.74707e-40 5.4073e-41 5.0838e-41 -5.3087e-41 5.9707e-41 -4.912e-41 -5.1868e-41 5.896e-41
5.1293e-41 -6.3035e-41 -5.152e-41 -6.1844e-41 -5.8029e-41 -5.7267e-41 -5.1708e-41 -6.0557e-41
-5.0136e-41 4.9121e-41 6.1035e-41 -5.4649e-41 -5.6734e-41 5.8633e-41 -5.3387e-41 5.0857e-41
00000000: 8084 0080 95ab 0080 5689 0080 0d98 0000
00000010: 5a89 0000 5e9a 0000 88a3 0080 1689 0080
00000020: 7489 0080 c596 0080 25a7 0000 92af 0080
00000030: fd86 0100 7d9c 0000 2189 0080 9fae 0000
00000040: d388 0080 e691 0000 c8aa 0080 f888 0080
00000050: 2ea7 0000 3689 0000 cc21 0080 609a 0080
00000060: a692 0000 03af 0000 5693 0000 e188 0080
00000070: 4990 0080 4f8c 0080 808d 0080 5991 0080
00000080: d499 0080 5fa3 0000 eea4 0000 22ae 0080
00000090: b3ad 0000 1792 0000 cf88 0000 428a 0000
000000a0: 03e7 0180 bc96 0000 b78d 0000 fc93 0080
000000b0: 70a6 0000 ed88 0080 9690 0080 5ba4 0000
000000c0: fc8e 0000 b7af 0080 9e8f 0080 65ac 0080
000000d0: c3a1 0080 a39f 0080 2490 0080 cfa8 0080
000000e0: c28b 0080 ee88 0000 24aa 0000 5798 0080
000000f0: 279e 0080 72a3 0000 d294 0080 c58d 0000

sparse_weighted_adjacency_matrices.pair_attention.key.weight f4 [64, 64]
4.913e-41 -5.4774e-41 -5.6024e-41 6.1926e-41 -5.1035e-41 -4.9204e-41 -4.922e-41 6.1122e-41
-5.0546e-41 5.2884e-41 1.29138e-40 -4.9109e-41 -4.9094e-41 -1.57548e-40 5.9688e-41 5.2921e-41
-5.0625e-41 1.30688e-40 -5.9187e-41 -6.2277e-41 -6.112e-41 6.1251e-41 5.5187e-41 -4.9128e-41
-5.2926e-41 -6.091e-41 -4.4637e-41 -1.67632e-40 -4.9202e-41 6.1446e-41 5.3437e-41 -5.1792e-41
4.9047e-41 -6.0701e-41 -6.2816e-41 -4.9085e-41 -4.9931e-41 5.5151e-41 -5.4854e-41 -1.86324e-40
-4.9336e-41 4.9268e-41 -4.9194e-41 4.9253e-41 -5.827e-41 -6.1437e-41 -4.9756e-41 -5.1858e-41
-4.9121e-41 5.5292e-41 4.9268e-41 -4.9191e-41 -6.0584e-41 -4.9097e-41 4.924e-41 -5.6111e-41
-6.2555e-41 -5.102e-41 5.3011e-41 4.8088e-41 -5.013e-41 5.7633e-41 -9.9878e-41 -4.9099e-41
-4.473e-42 -4.919e-41 4.9556e-41 5.1701e-41 -5.2082e-41 -4.9166e-41 -4.9324e-41 -4.9123e-41
-4.909e-41 5.4913e-41 -5.5852e-41 5.2323e-41 -5.6908e-41 6.253e-41 -4.9186e-41 -1.23325e-40
-5.413e-41 6.1043e-41 -6.169e-42 -4.9159e-41 6.0083e-41 5.0113e-41 6.2044e-41 -5.9503e-41
-5.8304e-41 -6.2836e-41 -5.7683e-41 4.9131e-41 2.8298e-41 5.3729e-41 1.57098e-40 1.23125e-40
-1.70021e-40 -4.9285e-41 -6.0563e-41 6.1186e-41 -5.9437e-41 -4.9225e-41 -2.10762e-40 5.4644e-41
5.7322e-41 4.966e-41 -6.0626e-41 4.9107e-41 5.9023e-41 -4.9251e-41 -1.38874e-40 -5.235e-41
-4.9309e-41 4.906e-41 5.1561e-41 5.3736e-41 4.9324e-41 4.9087e-41 -5.7848e-41 6.1242e-41
5.198e-41 5.0098e-41 6.0507e-41 5.725e-41 5.6813e-41 3.1325e-41 -4.9142e-41 6.1373e-41
-5.8859e-41 5.1852e-41 4.9172e-41 -2.03156e-40 6.136e-41 -4.9455e-41 5.4255e-41 -4.9052e-41
5.1027e-41 -6.2024e-41 -6.2979e-41 6.1006e-41 -5.7478e-41 -5.1607e-41 5.7572e-41 -5.2633e-41
-4.918e-41 4.9309e-41 6.0334e-41 4.9128e-41 -4.9116e-41 5.2547e-41 -4.9239e-41 -5.6324e-41
6.2495e-41 4.9218e-41 4.9264e-41 5.1352e-41 5.3743e-41 5.0365e-41 -5.1265e-41 -4.9058e-41
5.5067e-41 4.9261e-41 9.7379e-41 -5.5882e-41 6.1087e-41 5.2787e-41 -5.1662e-41 4.9148e-41
5.1358e-41 -6.1932e-41 -5.5454e-41 5.4728e-41 -5.6227e-41 4.9282e-41 -6.0364e-41 -5.6513e-41
-4.9193e-41 -6.116e-41 -6.0058e-41 5.4366e-41 5.405e-41 5.9613e-41 -5.5975e-41 -6.1175e-41
-6.1234e-41 5.9684e-41 -6.1325e-41 -1.2394e-40 6.0281e-41 5.9328e-41 5.9017e-41 5.698e-41
-4.9561e-41 4.9093e-41 5.8877e-41 4.9058e-41 6.0885e-41 3.31589e-40 4.9194e-41 4.9062e-41
4.9069e-41 -5.91e-41 -6.2143e-41 4.9205e-41 -5.4026e-41 -5.6498e-41 -5.8022e-41 5.9436e-41
-1.56116e-40 -4.9169e-41 -5.138e-41 5.2217e-41 -5.266e-41 -4.9306e-41 -1.2624e-41 -5.409e-41
5.291e-41 5.573e-41 6.2323e-41 -2.60608e-40 -5.3213e-41 5.8381e-41 -5.6725e-41 -6.1888e-41
-6.1946e-41 -4.9065e-41 4.9079e-41 6.0666e-41 -5.5815e-41 -1.5097e-40 -5.227e-41 4.914e-41
-4.9355e-41 5.1146e-41 5.6233e-41 4.9197e-41 -2.9723e-41 4.9187e-41 5.5238e-41 5.5525e-41
-5.7586e-41 -5.2217e-41 5.0326e-41 -6.2282e-41 2.76482e-40 4.9352e-41 -5.1509e-41 6.2623e-41
-1.91241e-40 5.3143e-41 -5.8108e-41 -5.852e-41 5.314e-41 -5.7117e-41 -5.8962e-41 6.2899e-41
00000000: f488 0000 b098 0080 2c9c 0080 a0ac 0000
00000010: 448e 0080 2989 0080 3589 0080 62aa 0000
00000020: e78c 0080 6b93 0000 fc67 0100 e588 0080
00000030: db88 0080 2eb7 0180 63a6 0000 8693 0000
00000040: 1f8d 0080 4e6c 0100 fda4 0080 9aad 0080
00000050: 61aa 0080 beaa 0000 d799 0000 f388 0080
00000060: 8993 0080 cba9 0080 6e7c 0080 4ad3 0180
00000070: 2889 0080 49ab 0000 f694 0000 6090 0080
00000080: b988 0000 36a9 0080 1baf 0080 d488 0080
00000090: 308b 0080 bd99 0000 e998 0080 6507 0280
000000a0: 8789 0080 5789 0000 2289 0080 4c89 0000
000000b0: 6fa2 0080 43ab 0080 b38a 0080 8f90 0080
000000c0: ee88 0080 229a 0000 5789 0000 2089 0080
000000d0: e2a8 0080 dd88 0080 4389 0000 6a9c 0080
000000e0: 61ae 0080 398e 0080 c693 0000 0d86 0000
000000f0: be8b 0080 a8a0 0000 6b16 0180 de88 0080
00000100: 780c 0080 1f89 0080 248a 0000 1f90 0000
00000110: 2f91 0080 0e89 0080 7f89 0080 ef88 0080
00000120: d888 0080 1399 0000 b19b 0080 db91 0000
00000130: a39e 0080 4fae 0000 1c89 0080 c857 0180
00000140: e496 0080 2aaa 0000 3211 0080 0989 0080
00000150: 7da7 0000 b28b 0000 f4ac 0000 dfa5 0080
00000160: 87a2 0080 29af 0080 cca0 0080 f588 0000
00000170: e24e 0000 c695 0000 edb5 0100 3957 0100
00000180: f3d9 0180 6389 0080 d3a8 0080 90aa 0000
00000190: b0a5 0080 3889 0080 854b 0280 5398 0000
000001a0: ca9f 0000 6f8a 0000 00a9 0080 e488 0000
000001b0: 88a4 0000 4b89 0080 2083 0180 ee91 0080
000001c0: 7489 0080 c288 0000 bb8f 0000 cb95 0000
000001d0: 7f89 0000 d688 0000 42a1 0080 b8aa 0000
000001e0: e690 0000 a78b 0000 aba8 0000 979f 0000
000001f0: 5f9e 0000 5257 0000 fd88 0080 15ab 0000
00000200: 13a4 0080 8b90 0000 1289 0000 5136 0280
00000210: 0cab 0000 dc89 0080 3e97 0000 bd88 0080
00000220: 3e8e 0000 e6ac 0080 8faf 0080 0faa 0000
00000230: 3aa0 0080 dc8f 0080 7da0 0000 b892 0080
00000240: 1889 0080 7489 0000 30a8 0000 f388 0000
00000250: ea88 0080 7b92 0000 4289 0080 029d 0080
00000260: 36ae 0000 3389 0000 5489 0000 268f 0000
00000270: d095 0000 668c 0000 e88e 0080 c188 0080
00000280: 8199 0000 5289 0000 740f 0100 c79b 0080
00000290: 49aa 0000 2693 0000 0390 0080 0189 0000
000002a0: 2a8f 0000 a4ac 0080 959a 0080 8f98 0000
000002b0: bd9c 0080 6189 0000 45a8 0080 899d 0080
000002c0: 2189 0080 7daa 0080 6ba7 0080 8d97 0000
000002d0: ab96 0000 2da6 0000 099c 0080 88aa 0080
000002e0: b2aa 0080 60a6 0000 f3aa 0080 7f59 0180
000002f0: 0aa8 0000 62a5 0000 84a4 0000 d69e 0000
00000300: 288a 0080 da88 0000 20a4 0000 c188 0000
00000310: b9a9 0000 569c 0300 2289 0000 c488 0000
00000320: c988 0000 bfa4 0080 3bad 0080 2a89 0000
00000330: 9a96 0080 7e9d 0080 bea1 0080 afa5 0000
00000340: 30b3 0180 1089 0080 3a8f 0080 8f91 0000
00000350: cb92 0080 7289 0080 3123 0080 c896 0080
00000360: 7e93 0000 5a9b 0000 bbad 0000 78d6 0280
00000370: 5694 0080 bea2 0000 209e 0080 85ac 0080
00000380: aeac 0080 c688 0080 d088 0000 1da9 0000
00000390: 979b 0080 d8a4 0180 b591 0080 fb88 0000
000003a0: 9589 0080 938e 0000 c19c 0000 2489 0000
000003b0: db52 0080 1d89 0000 fb99 0000 c89a 0000
000003c0: 87a0 0080 8f91 0080 4a8c 0000 9ead 0080
000003d0: b802 0300 9389 0000 968f 0080 91ae 0000
000003e0: 1a15 0280 2494 0000 fba1 0080 21a3 0080
000003f0: 2294 0000 389f 0080 5da4 0080 56af 0000

sparse_weighted_adjacency_matrices.pair_attention.key.bias f4 [64]
-1.04136e-40 -4.9302e-41 6.0299e-41 5.5655e-41 -5.81e-41 5.8545e-41 6.1891e-41 -1.05326e-40
-5.7871e-41 -4.9267e-41 -5.2104e-41 4.907e-41 1.7841e-40 -5.1543e-41 4.949e-41 -4.9836e-41
4.9357e-41 -5.4021e-41 4.9079e-41 -5.054e-41 -6.0444e-41 4.9232e-41 -5.1527e-41 -6.0979e-41
-6.1995e-41 5.0246e-41 6.2412e-41 4.9239e-41 6.2171e-41 1.41093e-40 1.85807e-40 5.1529e-41
-5.7808e-41 2.09196e-40 -5.4447e-41 1.23829e-40 4.9195e-41 -4.9645e-41 4.9128e-41 5.8133e-41
5.2287e-41 -5.1233e-41 -5.2479e-41 -5.5322e-41 -5.2769e-41 -5.6245e-41 5.6475e-41 5.1181e-41
-4.9047e-41 -5.068e-41 5.5095e-41 4.9237e-41 6.0515e-41 -5.3716e-41 3.6296e-41 -4.9072e-41
-6.0638e-41 5.0515e-41 4.9282e-41 -5.3722e-41 4.9117e-41 5.1826e-41 5.799e-41 -5.3426e-41
00000000: 4a22 0180 6f89 0080 17a8 0000 259b 0000
00000010: f6a1 0080 33a3 0000 87ac 0000 9b25 0180
00000020: 52a1 0080 5689 0080 3f91 0080 ca88 0000
00000030: 56f1 0100 ae8f 0080 f589 0000 ec8a 0080
00000040: 9689 0000 9796 0080 d088 0000 e38c 0080
00000050: 7ea8 0080 3d89 0000 a38f 0080 fca9 0080
00000060: d1ac 0080 118c 0000 fbad 0000 4289 0000
00000070: 4fad 0000 4f89 0100 f405 0200 a48f 0000
00000080: 25a1 0080 2747 0200 c797 0080 2f59 0100
00000090: 2389 0000 648a 0080 f388 0000 0da2 0000
000000a0: c191 0000 d18e 0080 4a92 0080 379a 0080
000000b0: 1993 0080 ca9c 0080 6e9d 0000 ac8e 0000
000000c0: b988 0080 468d 0080 9599 0000 4189 0000
000000d0: b1a8 0000 bd95 0080 2e65 0000 cb88 0080
000000e0: 09a9 0080 d18c 0000 6189 0000 c195 0080
000000f0: eb88 0000 7890 0000 a7a1 0000 ee94 0080

sparse_weighted_adjacency_matrices.pair_attention.edge_query.weight f4 [16, 16]
-0.21684736 -0.22389597 0.0654034 0.226289 -0.19569752 -0.22216296 0.094985306 0.071234584
0.17623079 0.023060292 0.23164648 0.095246255 -0.1016469 0.03365606 0.16643322 0.2459304
-0.045535445 -0.022009462 0.022386938 -0.22553825 -0.0599761 0.043501377 -0.1902175 -0.029842973
-0.042373836 0.062490642 0.23424861 0.1875121 0.029070377 0.14168707 -0.18340051 -0.06523329
-0.00489375 0.035811633 0.105412066 0.21786705 0.2360475 -0.030501574 -0.12621474 0.051116675
-0.020920455 0.14032835 0.19613263 0.050310105 0.20925954 0.21511438 0.03507048 0.23169011
0.1774396 0.113181084 -0.0031841993 0.15573892 -0.017708331 -0.24886566 -0.058225602 -0.21423057
0.18536586 0.077293724 0.04765269 0.08461794 -0.03868392 -0.15291032 -0.088603646 0.111272216
0.025013745 -0.18991947 -0.14544436 -0.041074872 -0.17688027 -0.11306146 -0.01310721 -0.14122951
0.16158417 0.052400082 -0.14082634 0.06697631 0.11167422 -0.14002544 0.020340472 0.08744192
-0.18362972 0.14389303 0.124174714 0.17312446 -0.16765466 0.0077976882 0.1696581 0.010426164
0.1943419 0.23595762 -0.03436926 -0.046719253 -0.21336046 -0.043941885 -0.17695755 -0.2011939
0.119846076 0.1521109 0.13857836 0.10452321 0.010326743 -0.13324648 -0.08217639 0.18871126
-0.112661034 0.07606256 0.094007105 0.19180238 0.07277393 -0.02607289 0.14205033 0.14434433
-0.20762512 -0.19000667 -0.19995317 -0.14373496 -0.042892724 -0.05419019 -0.1546818 -0.01628083
-0.16068643 0.20984986 0.11627784 0.15117759 0.09955111 0.12459758 0.0123102665 -0.22117075
-0.15688291 -0.042738974 0.1658526 0.1364353 -0.20693207 -0.1473341 0.18310258 0.026253998
-0.05520746 -0.23842716 0.20583886 -0.18878388 -0.19398311 -0.20244688 -0.17360827 0.19287235
0.044578493 0.17800817 -0.124212265 0.1371176 -0.23321396 0.2366412 0.21225911 0.1443469
-0.122041285 0.010485679 -0.14307588 -0.23414513 -0.16990569 -0.22837332 -0.1837163 -0.21214145
-0.12044555 -0.016331732 0.24463952 -0.24927133 -0.06894696 -0.0480254 0.18901065 0.095572084
0.044762462 -0.23915944 -0.20745906 -0.055251688 -0.15364659 0.15083596 -0.020562112 0.072098374
0.13755488 -0.24235952 0.048632383 0.11024529 -0.08159357 0.16305798 -0.16493362 0.23978388
0.051573515 -0.11034781 -0.0421108 -0.18009496 -0.17067239 -0.007858187 -0.15029368 0.061023086
0.13658327 -0.23409933 0.13937736 -0.11687201 -0.0036658645 0.14268497 0.019658267 0.14997938
-0.052841067 -0.033538193 -0.20778409 0.22135586 0.16736388 -0.22113097 -0.16164577 -0.2257202
-0.2257531 -0.054234266 -0.089521736 -0.19247836 0.19560742 0.18883425 0.1399669 0.1167894
0.10225755 0.12553838 -0.12926131 -0.22933954 -0.19227487 -0.24404365 -0.10130042 -0.06201285
0.06353429 0.23363706 0.14842632 -0.060543925 -0.17928988 0.0771893 -0.01604107 -0.014970303
0.061704665 0.016207129 0.16870809 -0.060789824 0.20971486 0.14962724 0.24794409 0.03915307
-0.055886745 0.015453041 0.22316876 0.23257345 -0.027860463 0.067861825 -0.22511816 0.13401824
0.1639221 0.2220316 0.02667752 -0.058098167 -0.14757386 0.15121078 -0.021252722 0.11250341
00000000: 3c0d 5ebe fc44 65be 38f2 853d 4eb8 673e
00000010: ee64 48be b07e 63be a887 c23d 70e3 913d
00000020: d875 343e f0e8 bc3c bc34 6d3e 7810 c33d
00000030: 402c d0bd f0da 093d 786d 2a3e 2ed5 7b3e
00000040: 6083 3abd 304d b4bc d064 b73c 80f3 66be
00000050: 80a9 75bd 802e 323d 60c8 42be 4079 f4bc
00000060: 3090 2dbd 30f6 7f3d dede 6f3e 2c03 403e
00000070: 0025 ee3c 6a16 113e 58cd 3bbe 0899 85bd
00000080: c05b a0bb 38af 123d 48e2 d73d 8a18 5f3e
00000090: 70b6 713e 70de f9bc 703e 01be b85f 513d
000000a0: 6061 abbc 3cb2 0f3e fed6 483e f811 4e3d
000000b0: 2248 563e f246 5c3e 10a6 0f3d 2c40 6d3e
000000c0: bab2 353e 7ccb e73d 00ae 50bb 067a 1f3e
000000d0: 1011 91bc a4d6 7ebe f87d 6ebd 425f 5bbe
000000e0: 8cd0 3d3e 2c4c 9e3d 782f 433d 2c4c ad3d
000000f0: 0873 1ebd 8694 1cbe d475 b5bd b0e2 e33d
00000100: a0e9 cc3c 407a 42be 5eef 14be 203e 28bd
00000110: 1a20 35be c48c e7bd a0bf 56bc 789e 10be
00000120: 5276 253e 78a1 563d c834 10be e02a 893d
00000130: 74b5 e43d d462 0fbe 10a1 a63c c014 b33d
00000140: 6e09 3cbe b258 133e 504f fe3d 8a47 313e
00000150: aaad 2bbe c083 ff3b daba 2d3e 80d2 2a3c
00000160: 9001 473e e09e 713e c8c6 0cbd b05c 3fbd
00000170: 2a7b 5abe 68fc 33bd 5c34 35be c605 4ebe
00000180: dc71 f53d f6c2 1b3e 7ce7 0d3e 4410 d63d
00000190: 8031 293c c471 08be 184c a8bd 863d 413e
000001a0: d4ba e6bd b0c6 9b3d cc86 c03d d867 443e
000001b0: 800a 953d d096 d5bc a475 113e 00cf 133e
000001c0: ae9b 54be 1c91 42be 86c0 4cbe 422f 13be
000001d0: 48b0 2fbd 88f6 5dbd e864 1ebe 605f 85bc
000001e0: fc8a 24be e2e2 563e 1423 ee3d 4cce 1a3e
000001f0: 74e1 cb3d 042d ff3d 00b1 493c 967a 62be
00000200: eaa5 20be 100f 2fbd 44d5 293e b2b5 0b3e
00000210: 00e6 53be c0de 16be 3e7f 3b3e a012 d73c
00000220: 3821 62bd 4026 74be 6cc7 523e 9050 41be
00000230: 82a3 46be 3c4e 4fbe 5ec6 31be 5480 453e
00000240: f097 363d c647 363e 0063 febd 8e68 0c3e
00000250: a4cf 6ebe 1252 723e 745a 593e accf 133e
00000260: c8f0 f9bd 20cc 2b3c 7c82 12be bec3 6fbe
00000270: c2fb 2dbe b2da 69be 2020 3cbe 9c3b 59be
00000280: 28ac f6bd 20ca 85bc c882 7a3e fc40 7fbe
00000290: 1034 8dbd 48b6 44bd 028c 413e 4cbb c33d
000002a0: d858 373d 36e6 74be 2670 54be 984f 62bd
000002b0: 8855 1dbe be74 1a3e e071 a8bc 50a8 933d
000002c0: 30db 0c3e 182d 78be c032 473d 48c8 e13d
000002d0: 881a a7bd acf8 263e 5ce4 28be e889 753e
000002e0: c03e 533d 08fe e1bd 607c 2cbd d06a 38be
000002f0: bec4 2ebe a0bf 00bc 96e6 19be 58f3 793d
00000300: 7cdc 0b3e bcb7 6fbe f0b8 0e3e 985a efbd
00000310: 003f 70bb 021c 123e 600a a13c 3294 193e
00000320: e06f 58bd 585f 09bd 5ac5 54be 1cab 623e
00000330: 7061 2b3e 2870 62be 7886 25be 3223 67be
00000340: d22b 67be c024 5ebd 2c57 b7bd 0c19 45be
00000350: 504d 483e c45d 413e 7c53 0f3e 482f ef3d
00000360: 686c d13d 228d 003e 145d 04be fcd7 6abe
00000370: b4e3 44be 94e6 79be 9876 cfbd 3001 7ebd
00000380: 441e 823d 8e3e 6f3e 12fd 173e e8fc 77bd
00000390: c497 37be 6c15 9e3d 9068 83bc 0046 75bc
000003a0: 08be 7c3d d0c4 843c d0c1 2c3e c0fe 78bd
000003b0: 7ebf 563e e237 193e 0ee5 7d3e f85e 203d
000003c0: 80e9 64bd c02e 7d3c 5a86 643e bc27 6e3e
000003d0: a03b e4bc 24fb 8a3d 6085 66be 143c 093e
000003e0: 32db 273e 405c 633e d08a da3c 58f8 6dbd
000003f0: 9a1d 17be 00d7 1a3e 301a aebc 3068 e63d

sparse_weighted_adjacency_matrices.pair_attention.edge_query.bias f4 [16]
-0.06057042 0.24831814 0.11583087 -0.13993183 -0.10567415 0.22431627 0.20138681 -0.1914027
-0.09936932 -0.14911506 0.18279123 0.1433472 -0.056004643 -0.0019657612 0.14874649 -0.15938282
00000000: b018 78bd 1c47 7e3e bc38 ed3d 4a4a 0fbe
00000010: b06b d8bd 2ab3 653e 5838 4e3e 12ff 43be
00000020: 2482 cbbd 9eb1 18be a02d 3b3e 9cc9 123e
00000030: 2065 65bd 00d4 00bb 0051 183e 4035 23be

sparse_weighted_adjacency_matrices.pair_attention.edge_key.weight f4 [16, 16]
-0.09110281 -0.09398419 0.17102337 0.19992238 -0.20888463 0.111117005 0.14174992 0.1120736
-0.21356782 -0.017663032 0.24523556 -0.05663708 0.14244789 0.106678426 -0.1322881 -0.05769977
0.061029106 -0.116043955 0.18015155 -0.066875756 0.2211251 -0.119609445 0.23728153 0.116858184
0.06871271 0.24028626 -0.13671142 -0.05567184 -6.195903e-05 0.06744248 -0.03109163 -0.24413335
0.07301587 0.1608465 0.1658329 0.04538378 0.08636895 -0.14889032 -0.11382115 0.14571944
0.016324133 -0.08052316 0.023988068 -0.16290146 -0.035797656 -0.029604733 -0.062077135 0.07830891
-0.24709061 -0.16339946 0.22057521 0.122327805 -0.22618714 0.059252053 -0.1028471 -0.07651228
0.046994954 0.029961377 -0.007245332 0.16113168 -0.22669801 -0.026944906 0.15412101 0.19330078
-0.028914928 0.10249734 0.17406255 0.1847015 0.00059992075 0.17125654 -0.24736324 -0.050451726
0.06843245 -0.040047497 0.093529284 -0.23502901 -0.14736652 0.028861731 0.15619081 0.21165991
0.22943094 0.2267004 -0.14497414 -0.15183273 0.109918505 -0.20318484 -0.0055499673 -0.23115358
-0.20698115 -0.16839042 -0.23259518 0.07535407 0.050343603 -0.16380286 0.1827656 0.10611561
-0.026670516 -0.15105364 0.11624321 0.22034949 -0.21637517 0.21741441 -0.09061384 -0.13842511
0.016226709 -0.04265666 0.06914982 -0.049555987 -0.1603578 -0.22590226 -0.21352345 -0.11686605
0.15990946 0.11267996 0.065481246 -0.15640226 -0.05570045 -0.09815365 -0.19777498 -0.11476779
0.12715888 -0.22416297 -0.16185847 -0.16485998 -0.23031211 0.1450215 -0.03368327 0.037147045
0.17912105 0.047697186 0.14385808 0.118223906 -0.16030064 0.17710939 -0.046613038 -0.24123636
-0.11319879 -0.21320018 0.17885455 -0.08676982 0.1493859 0.17333752 0.051916778 0.06463018
0.22585434 -0.07372582 0.19145882 0.029168338 0.24351782 0.012905449 -0.08816856 0.21135789
0.0054631233 -0.20958507 0.08374295 0.12475005 0.22717509 -0.14796546 -0.21715471 0.10060868
-0.044544697 -0.19793466 0.24399918 0.11244151 -0.05913508 -0.043926656 -0.15796569 -0.035125583
-0.24083436 -0.07956573 -0.17979267 0.2233375 -0.24921387 -0.2064808 0.21794665 -0.01965198
0.1327453 0.049052864 0.047401696 0.013931096 0.052563637 -0.06644064 0.11101359 -0.11348462
0.14372021 0.085678756 -0.21308544 -0.07004219 -0.22063309 0.17267406 0.016034037 0.13825518
0.033886194 0.09980044 -0.21314201 0.068567395 0.008258849 0.11240208 -0.06513944 0.020246416
-0.17368767 -0.16876325 0.052823186 -0.2428945 -0.13959438 0.11742923 0.24468371 0.05532211
0.002013266 -0.24606794 -0.110206425 0.06304759 -0.06179464 -0.188404 0.09657371 0.16979471
-0.2349003 -0.17509803 0.24118513 0.08342141 0.07734978 0.032670557 -0.2196646 0.1094853
-0.021774054 -0.113117725 0.08071026 0.19566622 0.13519701 -0.14681193 -0.037951887 0.11543968
-0.23537138 -0.04057607 -0.14078617 0.17897344 0.23339391 -0.20777419 -0.07885653 0.11479783
-0.008966297 -0.14247409 -0.1604335 0.20977166 0.015347928 -0.13988218 -0.06778565 -0.1949842
-0.05011207 0.16263664 -0.054718703 -0.220866 -0.18452996 0.08983296 0.013391972 0.21726865
00000000: 1c94 babd c87a c0bd c020 2f3e 74b8 4c3e
00000010: dae5 55be 5091 e33d e426 113e d886 e53d
00000020: 86b1 5abe 10b2 90bc 081f 7b3e 48fc 67bd
00000030: dcdd 113e 387a da3d 8876 07be 9856 6cbd
00000040: a8f9 793d 74a8 edbd a679 383e 28f6 88bd
00000050: 9e6e 623e ccf5 f4bd eef9 723e 5853 ef3d
00000060: 40b9 8c3d 9a0d 763e 14fe 0bbe 2808 64bd
00000070: 00f0 81b8 481f 8a3d e0b3 febc 18fe 79be
00000080: 5889 953d f2b4 243e 1ad0 293e 58e4 393d
00000090: 34e2 b03d b476 18be 101b e9bd 7a37 153e
000000a0: 30ba 853c 54e9 a4bd a082 c43c a4cf 26be
000000b0: 90a0 12bd a085 f2bc 9844 7ebd 6c60 a03d
000000c0: 5205 7dbe 3052 27be 78de 613e 0087 fa3d
000000d0: 9a9d 67be 48b2 723d 80a1 d2bd 78b2 9cbd
000000e0: c87d 403d 9071 f53c 406a edbb b4ff 243e
000000f0: 8623 68be 90bb dcbc e6d1 1d3e a4f0 453e
00000100: 00df ecbc 20ea d13d 743d 323e 6422 3d3e
00000110: 0044 1d3a e05d 2f3e ca4c 7dbe 78a6 4ebd
00000120: 5026 8c3d d808 24bd 488c bf3d 72ab 70be
00000130: 40e7 16be 706f ec3c 7cf0 1f3e 60bd 583e
00000140: f2ef 6a3e 2624 683e 1a74 14be 0a7a 1bbe
00000150: f41c e13d b00f 50be 80dc b5bb 86b3 6cbe
00000160: def2 53be 8a6e 2cbe 6e2d 6ebe 3c53 9a3d
00000170: 1835 4e3d f0bb 27be e826 3b3e 2453 d93d
00000180: 207c dabc cead 1abe ec10 ee3d 4ca3 613e
00000190: 7491 5dbe e2a1 5e3e c093 b9bd 50bf 0dbe
000001a0: e0ed 843c c0b8 2ebd 6c9e 8d3d 38fb 4abd
000001b0: d634 24be ec52 67be e4a5 5abe 7857 efbd
000001c0: 4ebf 233e c0c4 e63d 081b 863d ea27 20be
000001d0: 2826 64bd c804 c9bd 8685 4abe 600b ebbd
000001e0: f035 023e fa8a 65be 3abe 25be 0ed1 28be
000001f0: f0d6 6bbe 8480 143e 78f7 09bd 8027 183d
00000200: 826b 373e 205e 433d 884f 133e 601f f23d
00000210: da25 24be 2a5c 353e 50ed 3ebd aa06 77be
00000220: c4d4 e7bd 2651 5abe a625 373e 60b4 b1bd
00000230: 9ef8 183e 647f 313e b0a6 543d d45c 843d
00000240: 5c46 673e 90fd 96bd c80d 443e 70f2 ee3c
00000250: bc5c 793e 6071 533c b891 b4bd 346e 583e
00000260: 0004 b33b 789d 56be 6c81 ab3d f47c ff3d
00000270: 96a0 683e 4284 17be ce5d 5ebe ec0b ce3d
00000280: 8074 36bd 62af 4abe ecda 793e bc47 e63d
00000290: a037 72bd 70ec 33bd c2c1 21be d8df 0fbd
000002a0: 489d 76be 5cf3 a2bd 921b 38be 96b2 643e
000002b0: ec31 7fbe b46f 53be 682d 5f3e 30fd a0bc
000002c0: 62ee 073e a8eb 483d 4828 423d 403f 643c
000002d0: f84c 573d 0812 88bd 185b e33d a06a e8bd
000002e0: 642b 133e 5878 af3d 1233 5abe 4872 8fbd
000002f0: a4ed 61be 78d1 303e d059 833c c492 0d3e
00000300: 40cc 0a3d 2c64 cc3d e641 5abe 106d 8c3d
00000310: 2050 073c 1033 e63d d467 85bd d0db a53c
00000320: 2edb 31be 46d0 2cbe 205d 583d 56b9 78be
00000330: d4f1 0ebe bc7e f03d 5e8e 7a3e 7099 623d
00000340: 00f1 033b 3cf9 7bbe e8b3 e1bd 181f 813d
00000350: 601c 7dbd faec 40be 70c8 c53d aade 2d3e
00000360: b489 70be e64c 33be 3cf9 763e d8d8 aa3d
00000370: 9069 9e3d 90d1 053d c2ef 60be d439 e03d
00000380: 805f b2bc 44aa e7bd 6c4b a53d ba5c 483e
00000390: 1671 0a3e de55 16be 7073 1bbd a46b ec3d
000003a0: 3205 71be 1833 26bd 402a 10be d044 373e
000003b0: d0fe 6e3e c2c2 54be 887f a1bd 201b eb3d
000003c0: 60e7 12bc bae4 11be ae48 24be 62ce 563e
000003d0: e075 7b3c 463d 0fbe 34d3 8abd f0a9 47be
000003e0: 5042 4dbd 388a 263e b820 60bd b22a 62be
000003f0: 6cf5 3cbe 58fa b73d 006a 5b3c ac7b 5e3e

sparse_weighted_adjacency_matrices.pair_attention.edge_key.bias f4 [16]
-0.00070539117 0.17786005 0.21934506 -0.13404 0.17540476 0.14712319 0.097147584 0.04158649
0.011809945 0.22733474 0.2222293 0.107598364 -0.15917283 -0.0918923 -0.19322836 0.121675014
00000000: 00ea 38ba f220 363e fe9b 603e c841 09be
00000010: 4e9d 333e 76a7 163e 50f5 c63d 9856 2a3d
00000020: 807e 413c 70ca 683e 1490 633e 885c dc3d
00000030: 34fe 22be 0832 bcbd a8dd 45be c030 f93d

sparse_weighted_adjacency_matrices.group_attention.embedding.weight f4 [64, 2]
-4.9127e-41 4.9697e-41 4.9586e-41 -5.3317e-41 4.9396e-41 5.0782e-41 -5.3944e-41 5.0852e-41
-5.3336e-41 5.5529e-41 5.2346e-41 -5.0342e-41 -5.3439e-41 -5.4389e-41 5.0417e-41 4.9928e-41
5.1384e-41 4.9477e-41 5.7833e-41 5.6956e-41 5.9583e-41 -5.1465e-41 5.1327e-41 5.0689e-41
-5.1241e-41 5.3254e-41 -5.0849e-41 4.9364e-41 -4.9107e-41 -5.9388e-41 -5.0263e-41 -5.0253e-41
6.1657e-41 -4.9228e-41 -6.2041e-41 4.9536e-41 -5.0951e-41 5.6779e-41 4.9169e-41 5.1886e-41
5.029e-41 -4.9065e-41 -5.2673e-41 -5.7249e-41 5.2812e-41 -4.9529e-41 5.0192e-41 -4.9794e-41
5.4537e-41 -5.0671e-41 -4.9644e-41 5.8685e-41 -4.9096e-41 -5.7672e-41 -4.9106e-41 4.9949e-41
4.9874e-41 4.9193e-41 -5.4836e-41 4.9647e-41 6.003e-41 5.856e-41 5.0109e-41 6.104e-41
4.9708e-41 4.9375e-41 5.2441e-41 5.1325e-41 5.0664e-41 -4.948e-41 -5.1666e-41 4.9303e-41
5.055e-41 5.0829e-41 -6.0446e-41 -5.7357e-41 -5.2062e-41 5.001e-41 -5.4264e-41 4.9313e-41
-5.5147e-41 5.5248e-41 -4.9997e-41 -5.2243e-41 4.9347e-41 -4.9965e-41 5.29e-41 -4.9529e-41
-5.0433e-41 5.9286e-41 4.9948e-41 -5.1265e-41 -4.9626e-41 4.9938e-41 -4.9097e-41 6.1301e-41
-4.9792e-41 -5.0663e-41 4.9243e-41 6.167e-41 -4.9313e-41 5.1437e-41 5.0863e-41 -5.0305e-41
-5.9657e-41 4.906e-41 -4.9184e-41 5.0045e-41 5.0129e-41 5.0466e-41 -5.523e-41 -4.9427e-41
5.1711e-41 -4.965e-41 -5.0217e-41 -4.9302e-41 -5.0745e-41 5.688e-41 9.9104e-41 -5.0148e-41
5.6213e-41 5.2423e-41 5.2682e-41 -4.9239e-41 -5.3182e-41 4.9892e-41 -5.4697e-41 5.067e-41
00000000: f288 0080 898a 0000 3a8a 0000 a094 0080
00000010: b289 0000 8f8d 0000 6096 0080 c18d 0000
00000020: ae94 0080 cb9a 0000 eb91 0000 558c 0080
00000030: f794 0080 9d97 0080 8b8c 0000 2e8b 0000
00000040: 3d8f 0000 ec89 0000 37a1 0000 c59e 0000
00000050: 18a6 0000 778f 0080 148f 0000 4d8d 0000
00000060: d78e 0080 7394 0000 bf8d 0080 9b89 0000
00000070: e488 0080 8da5 0080 1d8c 0080 168c 0080
00000080: e0ab 0000 3a89 0080 f2ac 0080 168a 0000
00000090: 088e 0080 479e 0000 1089 0000 a390 0000
000000a0: 308c 0000 c688 0080 d592 0080 969f 0080
000000b0: 3893 0000 118a 0080 ea8b 0000 ce8a 0080
000000c0: 0798 0000 408d 0080 638a 0080 97a3 0000
000000d0: dc88 0080 c4a0 0080 e388 0080 3d8b 0000
000000e0: 078b 0000 2189 0000 dc98 0080 658a 0000
000000f0: 57a7 0000 3ea3 0000 af8b 0000 28aa 0000
00000100: 918a 0000 a389 0000 2f92 0000 138f 0000
00000110: 3b8d 0000 ee89 0080 0690 0080 7089 0000
00000120: ea8c 0000 b18d 0000 80a8 0080 e39f 0080
00000130: 2191 0080 688b 0000 4497 0080 7789 0000
00000140: ba99 0080 029a 0000 5f8b 0080 a291 0080
00000150: 8f89 0000 488b 0080 7793 0000 118a 0080
00000160: 968c 0080 44a5 0000 3c8b 0000 e88e 0080
00000170: 568a 0080 358b 0000 dd88 0080 e2aa 0000
00000180: cd8a 0080 3a8d 0080 4589 0000 e9ab 0000
00000190: 7789 0080 638f 0000 c98d 0000 3b8c 0080
000001a0: 4da6 0080 c288 0000 1b89 0080 818b 0000
000001b0: bd8b 0000 ae8c 0000 f599 0080 c889 0080
000001c0: 2690 0000 678a 0080 fc8b 0080 6f89 0080
000001d0: 758d 0080 8f9e 0000 4314 0100 cb8b 0080
000001e0: b39c 0000 2292 0000 db92 0000 4289 0080
000001f0: 4094 0080 148b 0000 7998 0080 3f8d 0000

sparse_weighted_adjacency_matrices.group_attention.embedding.bias f4 [64]
5.0747e-41 5.032e-41 -6.0233e-41 4.9106e-41 -4.9801e-41 5.5899e-41 6.1581e-41 -4.9073e-41
4.9711e-41 -4.9732e-41 5.2804e-41 5.1429e-41 -5.3992e-41 5.8777e-41 -4.9581e-41 5.0769e-41
4.9352e-41 5.5552e-41 4.9874e-41 -5.9104e-41 -5.4274e-41 5.9723e-41 4.9897e-41 -4.9436e-41
5.105e-41 4.9265e-41 -4.9173e-41 -4.9464e-41 4.9229e-41 5.1188e-41 -5.3581e-41 -4.9617e-41
-5.4342e-41 4.9918e-41 5.1828e-41 -6.2246e-41 -5.12e-41 5.1502e-41 -5.43e-41 -4.9073e-41
5.7844e-41 5.4885e-41 5.0494e-41 5.0846e-41 5.3395e-41 -5.7762e-41 5.0714e-41 -5.4575e-41
-6.1324e-41 4.9874e-41 -4.9184e-41 -4.9103e-41 -5.0249e-41 5.8106e-41 4.9382e-41 6.1333e-41
-4.9159e-41 -5.0748e-41 5.8698e-41 -5.2696e-41 5.906e-41 4.9783e-41 -5.0011e-41 5.7477e-41
00000000: 768d 0000 468c 0000 e8a7 0080 e388 0000
00000010: d38a 0080 d39b 0000 aaab 0000 cc88 0080
00000020: 938a 0000 a28a 0080 3293 0000 5d8f 0000
00000030: 8296 0080 d9a3 0000 368a 0080 868d 0000
00000040: 9389 0000 db9a 0000 078b 0000 c2a4 0080
00000050: 4b97 0080 7ca6 0000 188b 0000 cf89 0080
00000060: 4e8e 0000 5589 0000 1389 0080 e389 0080
00000070: 3b89 0000 b18e 0000 5d95 0080 508a 0080
00000080: 7c97 0080 278b 0000 7a90 0000 84ad 0080
00000090: ba8e 0080 918f 0000 5e97 0080 cc88 0080
000000a0: 3fa1 0000 ff98 0000 c28c 0000 bd8d 0000
000000b0: d894 0000 04a1 0080 5f8d 0000 2298 0080
000000c0: f2aa 0080 078b 0000 1b89 0080 e188 0080
000000d0: 138c 0080 faa1 0000 a889 0000 f9aa 0000
000000e0: 0989 0080 778d 0080 a0a3 0000 e592 0080
000000f0: a3a4 0000 c68a 0000 698b 0080 39a0 0000
