checkpoints/GHGNN/hotel/val_best.pth (torch, 128786 bytes, 58 tensors)

sparse_weighted_adjacency_matrices.edge_inital.x_embedding.weight f4 [16, 2]
000000 c9 ea a6 30 af 63 fd af 55 60 82 ad e4 32 89 ac
       1.214482e-09 -4.609126e-10 -1.4822069e-11 -3.899424e-12
000010 4a 0c 19 33 c8 87 d6 2f a8 36 5b b5 f8 a2 af b0
       3.5634265e-08 3.9022852e-10 -8.1663393e-07 -1.2779244e-09
000020 e0 fb 7d 28 91 bd c2 a7 dd 02 00 b6 8c 57 23 31
       1.4098938e-14 -5.4051345e-15 -1.9075153e-06 2.3769386e-09
000030 63 d3 0d ad 63 1e b5 2a f0 ea 27 a6 e1 55 0c 23
       -8.061859e-12 3.2173144e-13 -5.8258164e-16 7.607601e-18
000040 fa f7 fd b7 a8 11 af b2 1d 0b b4 b1 04 00 e3 32
       -3.0275423e-05 -2.038071e-08 -5.239953e-09 2.6426285e-08
000050 c1 ce a1 b6 d9 cf 61 b1 ca b9 ea 2f 44 72 ba af
       -4.822243e-06 -3.2859957e-09 4.2696363e-10 -3.3914394e-10
000060 22 ba 66 2a e3 f2 d3 aa d1 81 df af e6 39 9b 30
       2.0492681e-13 -3.7649666e-13 -4.0655704e-10 1.129419e-09
000070 18 6f b2 a8 4b b6 3e 24 58 06 ac 31 a9 ad 97 b2
       -1.9810149e-14 4.135409e-17 5.00658e-09 -1.7657685e-08

sparse_weighted_adjacency_matrices.edge_inital.x_embedding.bias f4 [16]
000000 16 78 be b7 95 87 29 33 e7 0d 62 b9 4a 95 05 3a
       -2.2705684e-05 3.947169e-08 -0.00021558219 0.0005095793
000010 15 5d 36 af 23 0c 93 3a 8c 64 c3 33 12 86 7e 29
       -1.6585873e-10 0.0011218827 9.0986845e-08 5.6515617e-14
000020 5a d4 6c 3c a1 9f 66 b5 e6 e9 c5 3a f6 e2 8d 30
       0.014454925 -8.591397e-07 0.0015099614 1.0323606e-09
000030 f8 1e d3 ae 48 16 d3 33 08 5d 70 2f e4 9f b8 37
       -9.60067e-11 9.829506e-08 2.1860924e-10 2.2008964e-05

sparse_weighted_adjacency_matrices.edge_inital.edge_embedding.weight f4 [16, 16]
000000 ec ac a2 2e 9a b8 95 2c ec 1b f7 ad 62 1b 06 2d
       7.397624e-11 4.2553296e-12 -2.8093049e-11 7.623098e-12
000010 55 0a 8c a0 1c 29 ed 33 36 94 67 24 85 13 50 19
       -2.372376e-19 1.104365e-07 5.021568e-17 1.075729e-23
000020 2d 3b 4d 31 ac a4 a7 b3 d2 be 98 2f 30 a7 8c 2f
       2.9865064e-09 -7.806497e-08 2.7784225e-10 2.5584646e-10
000030 e6 f9 e0 a6 1e ac ce b3 b9 20 5a 20 b0 0f 81 35
       -1.5610857e-15 -9.6239305e-08 1.8476145e-19 9.615815e-07
000040 0f 8e d6 34 93 f8 a7 af 95 25 86 33 dc cf 51 b1
       3.9963967e-07 -3.0553746e-10 6.2466974e-08 -3.0531657e-09
000050 45 89 c1 a8 8a 48 f5 37 bd d0 39 ad 3f a7 cc 24
       -2.1486836e-14 2.9240055e-05 -1.0562382e-11 8.875422e-17
000060 8c 9e 41 b6 cb c3 c8 b6 e9 a2 02 b4 7b 90 0c 32
       -2.8851528e-06 -5.983258e-06 -1.216646e-07 8.181924e-09
000070 e9 94 af 2b 74 06 1b 35 85 42 03 a9 7b bd b4 37
       1.2475829e-12 5.775139e-07 -2.914554e-14 2.1545906e-05
000080 34 c0 c3 32 87 b0 99 af 65 6b 29 b3 9c 97 de b1
       2.2788392e-08 -2.7955968e-10 -3.9446054e-08 -6.4782864e-09
000090 51 5d 1a 28 fb b5 49 b6 8c 93 e2 ac 28 e8 44 24
       8.568952e-15 -3.005726e-06 -6.4396873e-12 4.269737e-17
0000a0 31 4c 0f 35 58 3a d4 b5 d4 a6 7e 33 65 27 74 30
       5.3382524e-07 -1.5812211e-06 5.9290713e-08 8.8822666e-10
0000b0 bc 84 65 2a 4e 2e 9d 35 d2 46 95 a8 d9 2b 57 b6
       2.0385337e-13 1.1710888e-06 -1.6573036e-14 -3.206302e-06
0000c0 88 45 02 b2 d8 a9 15 2e e7 79 46 b3 79 c1 1d 2e
       -7.5828055e-09 3.402953e-11 -4.6211337e-08 3.5869505e-11
0000d0 cc 68 90 a2 be bf 60 35 8e 87 c2 26 b5 32 7f 9c
       -3.9142236e-18 8.3725524e-07 1.3498196e-15 -8.443796e-22
0000e0 0f 64 b6 33 ee 75 8d b2 c1 c9 07 31 74 26 12 ae
       8.493236e-08 -1.6468189e-08 1.975977e-09 -3.323071e-11
0000f0 13 63 98 a8 49 01 00 32 c8 e0 80 22 e6 c3 25 34
       -1.6918357e-14 7.450873e-09 3.4932466e-18 1.543809e-07
000100 9e f4 e8 af c9 0d 0d 2b f9 ab 8d b1 a3 d7 14 32
       -4.2374365e-10 5.0112394e-13 -4.123191e-09 8.663764e-09
000110 2a 7d b1 a7 02 c3 54 b2 e8 f7 60 2c 1f 7f 8a 23
       -4.926307e-15 -1.2384364e-08 3.196993e-12 1.5015828e-17
000120 a4 16 4e 34 0d fb 97 33 d4 fa b7 32 af 83 34 2b
       1.9193482e-07 7.077151e-08 2.1418067e-08 6.4131594e-13
000130 d0 0b 36 a7 88 2e 93 32 ce f4 f6 27 ab e3 b7 33
       -2.5263977e-15 1.7134212e-08 6.8544134e-15 8.563014e-08
000140 ad 98 fc 35 30 ca 5f 33 46 a3 79 34 73 85 02 b5
       1.8819898e-06 5.2105122e-08 2.324933e-07 -4.862297e-07
000150 7b 3c 6a 2d 76 84 28 b9 c7 5e 14 2b 35 57 38 a5
       1.3314789e-11 -0.00016071074 5.271169e-13 -1.5989003e-16
000160 ca 6d 37 b8 7e 7a 63 b8 af b9 15 b6 88 cb 5c 35
       -4.373285e-05 -5.4235097e-05 -2.2310812e-06 8.2252564e-07
000170 22 54 29 b1 86 41 e9 b5 64 57 25 2c c9 48 b8 38
       -2.464056e-09 -1.7378923e-06 2.3496422e-12 8.787361e-05
000180 80 d3 b5 37 84 f4 5a 37 b4 cd 9c 37 c3 b5 07 37
       2.1675369e-05 1.3050743e-05 1.8692437e-05 8.088947e-06
000190 c9 ab ab 2f f1 60 43 3a 05 8c 40 2e 8d ec 14 21
       3.122678e-10 0.0007453105 4.3780108e-11 5.0457423e-19
0001a0 94 7b 2c 39 d4 db 17 b9 d7 88 8a b8 7b 22 97 37
       0.00016449235 -0.00014482375 -6.605841e-05 1.8016659e-05
0001b0 35 b6 ef b4 bd 3a 97 b9 fb da bc 2e 73 2a 18 ba
       -4.4649792e-07 -0.00028844728 8.588149e-11 -0.0005804665
0001c0 e4 a2 30 35 24 63 ce b0 ca d9 81 36 17 67 02 b7
       6.5802146e-07 -1.501665e-09 3.8698536e-06 -7.772606e-06
0001d0 bf 3f ef 2b 63 83 e1 b7 c0 2d c2 af df ee f2 25
       1.6999664e-12 -2.6883272e-05 -3.5320902e-10 4.2142173e-16
0001e0 6c 04 75 b9 f8 ce 50 33 af 61 ef b7 79 01 e8 2f
       -0.00023366668 4.861701e-08 -2.8536508e-05 4.22016e-10
0001f0 32 20 b8 2c 71 f9 6e 31 aa 9d 39 ac 5b 77 8f b5
       5.233169e-12 3.477535e-09 -2.6377602e-12 -1.0689067e-06
000200 e9 f4 9d b2 da 21 eb af 50 7f db 2d 3e 94 90 af
       -1.8388578e-08 -4.2770304e-10 2.4953956e-11 -2.629878e-10
000210 ec 92 8a 24 bd 00 f8 b5 ba 9c 76 a6 14 df 0a 9b
       6.0096855e-17 -1.8477655e-06 -8.55608e-16 -1.1487173e-22
000220 f0 44 a1 32 1c 8e 83 b6 c7 e4 05 b2 91 eb 2e 31
       1.8774216e-08 -3.920648e-06 -7.793637e-09 2.5454236e-09
000230 76 09 36 aa c0 87 8f 34 9e 6e 0d 22 d7 38 b1 35
       -1.616813e-13 2.6734597e-07 1.9167624e-18 1.320407e-06
000240 24 ef 89 b6 d1 b0 b9 34 93 39 be b4 43 cf fa 33
       -4.110758e-06 3.4587586e-07 -3.543215e-07 1.1679233e-07
000250 c0 e7 2e 28 39 7b 82 b7 76 60 c1 2a 5a 3d a3 a2
       9.709193e-15 -1.5554588e-05 3.435062e-13 -4.4246197e-18
000260 01 43 52 36 ea d1 23 b8 48 60 75 35 4f 06 aa b4
       3.133144e-06 -3.9057726e-05 9.140972e-07 -3.1669558e-07
000270 fd 38 0a af a2 0c 7a b7 b5 09 f5 28 73 c8 02 b6
       -1.2571273e-10 -1.49041025e-05 2.7204674e-14 -1.9488186e-06
000280 04 49 70 35 66 11 11 32 28 6b ac 32 83 57 af b2
       8.951322e-07 8.444067e-09 2.0072164e-08 -2.0412477e-08
000290 50 08 af 2a ae 32 01 b8 cf b7 e3 a9 54 af 0c 9d
       3.1092013e-13 -3.0803196e-05 -1.0112711e-13 -1.8619488e-21
0002a0 82 94 d1 b5 25 72 8a 38 2b f2 6e b5 d2 c0 2d b3
       -1.5614935e-06 6.601614e-05 -8.901431e-07 -4.045507e-08
0002b0 e6 6f f8 2f 54 a2 0f 36 6c 3b 86 a5 32 39 b9 b7
       4.5190446e-10 2.1403148e-06 -2.328556e-16 -2.2080352e-05
0002c0 3d 5d 4e 33 fe 23 da ae db b6 d9 34 ad 0b af b5
       4.8047912e-08 -9.919886e-11 4.0552445e-07 -1.3041914e-06
0002d0 ec fc 78 2b 03 7f 59 b6 5a 58 d3 af cd ad 43 27
       8.84583e-13 -3.240945e-06 -3.8443454e-10 2.7155904e-15
0002e0 7d d9 c6 b7 57 0e 63 b0 36 09 49 b6 79 7d f1 2e
       -2.3704715e-05 -8.2602497e-10 -2.9956695e-06 1.09816996e-10
0002f0 bb e9 f6 2a 95 71 6b b0 15 12 ae ab c2 70 27 b4
       4.386056e-13 -8.565391e-10 -1.2368462e-12 -1.5594108e-07
000300 0d 0a bc 34 5e 6b 43 b2 8d 53 82 32 9d a4 3b b3
       3.5025042e-07 -1.1374906e-08 1.5171986e-08 -4.3689045e-08
000310 d1 b8 99 2a 6d 44 cd b7 ae dd fb a9 62 dd bc 9c
       2.7306502e-13 -2.4469768e-05 -1.11850945e-13 -1.2498023e-21
000320 97 e0 1f b6 2f e7 38 b6 6b b3 bb b5 ba d5 7b 33
       -2.3823575e-06 -2.7552703e-06 -1.3984803e-06 5.8634875e-08
000330 14 f4 66 af 7b d2 8d b7 45 a6 5e 29 66 86 06 b8
       -2.1005092e-10 -1.6906522e-05 4.9438118e-14 -3.2073258e-05
000340 11 6a be 37 89 ac 68 36 68 c3 4c 37 fa bb 82 b7
       2.2699156e-05 3.4671123e-06 1.2204844e-05 -1.5584741e-05
000350 30 1e 54 30 f5 2b 42 ba 52 b6 56 af 7e 28 e3 9f
       7.716805e-10 -0.0007407063 -1.952796e-10 -9.620523e-20
000360 9d c2 80 b9 d2 fe 94 3a 99 05 6d b7 2b 19 f6 b6
       -0.0002455906 0.0011367446 -1.4127604e-05 -7.3343012e-06
000370 05 0e 6b 34 12 7b 4a b9 ae 70 b1 2f e9 42 e3 39
       2.1891181e-07 -0.00019310068 3.2276176e-10 0.00043346666
000380 db 55 5a 30 07 f4 22 ab 2e 41 6e 30 54 c9 b1 aa
       7.9429946e-10 -5.789262e-13 8.667652e-10 -3.1581216e-13
000390 56 06 0b 1f 22 7f 0c b3 61 0c 59 a3 be 52 14 9b
       2.9439636e-20 -3.2711917e-08 -1.1766215e-17 -1.2269009e-22
0003a0 8a e8 94 af 71 c9 85 32 e9 7a 21 ae ca 47 e1 ae
       -2.7086272e-10 1.5574843e-08 -3.6716328e-11 -1.0244568e-10
0003b0 c8 aa 93 23 d9 43 ff 2f 82 a8 0c 9f 94 64 0b b5
       1.60101e-17 4.6432438e-10 -2.978554e-20 -5.1927896e-07
0003c0 09 91 36 b7 dc 5d 23 b6 18 10 57 34 62 cb cf b4
       -1.0881814e-05 -2.4343526e-06 2.002929e-07 -3.8704735e-07
0003d0 f5 e6 af ae 7a 41 79 38 09 59 12 2c 14 a0 37 a2
       -7.999105e-11 5.9427206e-05 2.0797272e-12 -2.488587e-18
0003e0 a1 9f dc b6 c7 48 65 39 fe 88 91 37 16 43 39 b5
       -6.575094e-06 0.00021866254 1.7349139e-05 -6.9015493e-07
0003f0 f0 31 6b b4 83 48 4c 39 c4 c9 3f 2c 91 7d 13 3a
       -2.1904248e-07 0.00019481969 2.7254735e-12 0.0005626316

sparse_weighted_adjacency_matrices.edge_inital.edge_embedding.bias f4 [16]
000000 2d 80 61 af 99 2e 1d b7 4c d1 9d b6 67 10 31 b1
       -2.0509168e-10 -9.368779e-06 -4.70333e-06 -2.5766214e-09
000010 13 11 b0 36 22 7f 17 38 28 9d 76 b6 a8 0f e7 b7
       5.2471964e-06 3.6119607e-05 -3.6748334e-06 -2.7544636e-05
000020 3a 72 fd 30 e5 95 a5 35 3f 70 88 33 38 1d 0a b9
       1.8440638e-09 1.2337083e-06 6.353411e-08 -0.0001317159
000030 04 ae 96 33 1b 36 9e 36 13 5d 77 2e 11 f8 47 b5
       7.0165726e-08 4.7150656e-06 5.6243964e-11 -7.449426e-07

sparse_weighted_adjacency_matrices.pair_attention.embedding.weight f4 [64, 2]
000000 d7 88 00 80 3a 8d 00 80 fa 88 00 80 af af 00 00
       -4.9089e-41 -5.0663e-41 -4.9138e-41 6.3023e-41
000010 ea 8b 00 00 67 89 00 80 b9 96 00 00 46 9e 00 80
       5.0192e-41 -4.929e-41 5.4069e-41 -5.6778e-41
000020 2c ad 00 80 db 8b 00 80 de 88 00 00 df 89 00 80
       -6.2122e-41 -5.017e-41 4.9099e-41 -4.9459e-41
000030 35 89 00 00 c3 91 00 00 39 9f 00 00 cb 8a 00 00
       4.922e-41 5.229e-41 5.7118e-41 4.979e-41
000040 ce a0 00 00 13 97 00 80 76 99 00 80 3c 8a 00 80
       5.7686e-41 -5.4195e-41 -5.5051e-41 -4.9589e-41
000050 16 a2 00 80 fa 8a 00 80 da 9a 00 00 93 8a 00 00
       -5.8145e-41 -4.9855e-41 5.555e-41 4.9711e-41
000060 2f 89 00 80 f4 8d 00 00 9d 94 00 80 6c ad 00 00
       -4.9212e-41 5.0923e-41 -5.3312e-41 6.2212e-41
000070 0a 8f 00 80 44 92 00 00 d1 94 00 80 53 91 00 00
       -5.1313e-41 5.247e-41 -5.3385e-41 5.2133e-41
000080 ae 89 00 00 77 8c 00 80 7c 8a 00 00 b9 89 00 00
       4.939e-41 -5.0389e-41 4.9679e-41 4.9406e-41
000090 62 91 00 00 0d 8f 00 00 cc 8d 00 00 e2 88 00 80
       5.2154e-41 5.1317e-41 5.0867e-41 -4.9104e-41
0000a0 04 8a 00 00 31 8b 00 80 82 8a 00 00 3f 90 00 00
       4.951e-41 -4.9932e-41 4.9687e-41 5.1746e-41
0000b0 9d 9d 00 80 e3 98 00 00 a6 a1 00 80 91 90 00 80
       -5.6541e-41 5.4845e-41 -5.7989e-41 -5.186e-41
0000c0 8e 99 00 00 a1 8e 00 00 e2 8b 00 00 02 8f 00 80
       5.5085e-41 5.1166e-41 5.018e-41 -5.1302e-41
0000d0 f9 8b 00 00 75 a0 00 00 26 94 00 00 77 94 00 00
       5.0213e-41 5.7561e-41 5.3146e-41 5.3259e-41
0000e0 f8 8c 00 80 8f 9c 00 80 12 8c 00 80 e2 90 00 80
       -5.057e-41 -5.6163e-41 -5.0248e-41 -5.1974e-41
0000f0 e5 a9 00 00 42 89 00 80 78 90 00 00 23 8c 00 00
       6.0947e-41 -4.9239e-41 5.1826e-41 5.0272e-41
000100 46 1a 00 00 ef 8b 00 80 91 8a 00 00 c1 a3 00 00
       9.425e-42 -5.0199e-41 4.9708e-41 5.8744e-41
000110 b3 99 00 80 e3 9d 00 00 bc 89 00 00 a4 8d 00 80
       -5.5137e-41 5.6639e-41 4.941e-41 -5.0811e-41
000120 88 8a 00 80 b5 aa 00 80 85 8c 00 00 60 9f 00 80
       -4.9696e-41 -6.1238e-41 5.0409e-41 -5.7173e-41
000130 7d 8c 00 00 d3 9d 00 00 1b 99 00 00 eb 8d 00 80
       5.0398e-41 5.6617e-41 5.4924e-41 -5.091e-41
000140 e0 ac 00 80 ea 99 00 00 b0 8e 00 00 c3 a0 00 80
       -6.2016e-41 5.5214e-41 5.1187e-41 -5.767e-41
000150 f6 89 00 80 6c 8d 00 00 2d 8b 00 80 8f 98 00 00
       -4.9491e-41 5.0733e-41 -4.9927e-41 5.4728e-41
000160 97 8d 00 80 76 8e 00 80 2a 8d 00 80 83 8c 00 00
       -5.0793e-41 -5.1105e-41 -5.064e-41 5.0406e-41
000170 2d 8c 00 80 4b 89 00 80 d9 88 00 00 5d 97 00 00
       -5.0286e-41 -4.9251e-41 4.9092e-41 5.4299e-41
000180 f4 a8 00 80 0b 94 00 80 e4 8a 00 80 2e 93 00 80
       -6.0609e-41 -5.3108e-41 -4.9825e-41 -5.2798e-41
000190 0f 8f 00 80 39 8c 00 80 c1 89 00 00 68 8e 00 00
       -5.132e-41 -5.0302e-41 4.9417e-41 5.1086e-41
0001a0 4f 8a 00 00 74 89 00 80 bd 9d 00 00 f0 8a 00 00
       4.9616e-41 -4.9309e-41 5.6586e-41 4.9841e-41
0001b0 ca 9e 00 00 4e 8d 00 80 6c 8b 00 00 a5 8d 00 00
       5.6963e-41 -5.069e-41 5.0015e-41 5.0812e-41
0001c0 62 8a 00 00 d6 8a 00 00 ba 92 00 00 52 8d 00 80
       4.9642e-41 4.9805e-41 5.2636e-41 -5.0696e-41
0001d0 8a 9a 00 80 83 8a 00 80 5a 91 00 80 51 8d 00 80
       -5.5438e-41 -4.9689e-41 -5.2142e-41 -5.0695e-41
0001e0 5d 8c 00 00 96 8a 00 00 bb 9f 00 00 ad 8a 00 80
       5.0353e-41 4.9715e-41 5.73e-41 -4.9747e-41
0001f0 f5 90 00 00 8c 92 00 80 e7 89 00 00 c2 96 00 00
       5.2001e-41 -5.2571e-41 4.947e-41 5.4082e-41

sparse_weighted_adjacency_matrices.pair_attention.embedding.bias f4 [64]
000000 b3 a2 00 00 78 af 00 80 23 a3 00 00 35 89 00 80
       5.8365e-41 -6.2946e-41 5.8522e-41 -4.922e-41
000010 c3 a7 00 80 cd 8b 00 80 43 8e 00 80 16 89 00 80
       -6.0182e-41 -5.0151e-41 -5.1034e-41 -4.9177e-41
000020 c5 88 00 80 2a 89 00 00 0a 93 00 80 be 88 00 80
       -4.9064e-41 4.9205e-41 -5.2748e-41 -4.9054e-41
000030 b1 8a 00 80 77 89 00 00 77 a2 00 80 0c 94 00 80
       -4.9753e-41 4.9313e-41 -5.8281e-41 -5.3109e-41
000040 a3 8d 00 80 0e 8a 00 80 1e 8a 00 00 26 8d 00 80
       -5.081e-41 -4.9525e-41 4.9547e-41 -5.0635e-41
000050 05 8b 00 80 a9 8d 00 80 c5 ae 00 80 19 8c 00 00
       -4.9871e-41 -5.0818e-41 -6.2695e-41 5.0258e-41
000060 ac a5 00 80 d4 8c 00 80 46 8c 00 00 d0 a7 00 80
       -5.9432e-41 -5.052e-41 5.032e-41 -6.02e-41
000070 4c 8d 00 80 b5 8d 00 00 bd 9c 00 80 e0 8b 00 00
       -5.0688e-41 5.0835e-41 -5.6227e-41 5.0178e-41
000080 1b 8d 00 00 22 8f 00 80 b5 8d 00 80 cc 91 00 80
       5.0619e-41 -5.1346e-41 -5.0835e-41 -5.2302e-41
000090 ea a6 00 00 8f 8c 00 00 55 ad 00 80 e3 88 00 80
       5.9877e-41 5.0423e-41 -6.218e-41 -4.9106e-41
0000a0 7f 8b 00 00 70 89 00 80 bf 8a 00 00 ad 8b 00 00
       5.0042e-41 -4.9303e-41 4.9773e-41 5.0106e-41
0000b0 6d 93 00 80 e4 8b 00 80 73 9e 00 00 6e a3 00 80
       -5.2886e-41 -5.0183e-41 5.6841e-41 -5.8628e-41
0000c0 0c 9f 00 80 2a 89 00 00 de 8d 00 00 86 ad 00 00
       -5.7055e-41 4.9205e-41 5.0892e-41 6.2248e-41
0000d0 15 8b 00 80 6e 8d 00 80 1c 0e 02 80 93 8d 00 80
       -4.9893e-41 -5.0735e-41 -1.88732e-40 -5.0787e-41
0000e0 d7 8e 00 80 e4 95 00 00 97 8c 00 00 b2 89 00 00
       -5.1241e-41 5.377e-41 5.0434e-41 4.9396e-41
0000f0 65 98 00 80 ed 8a 00 80 fc 8a 00 80 35 8d 00 80
       -5.4669e-41 -4.9837e-41 -4.9858e-41 -5.0656e-41

sparse_weighted_adjacency_matrices.pair_attention.query.weight f4 [64, 64]
000000 e5 a5 00 00 4f 8d 00 00 95 18 00 80 d9 92 00 80
       5.9512e-41 5.0692e-41 -8.818e-42 -5.2679e-41
000010 c1 a6 00 80 88 8d 00 80 65 89 00 00 7f a8 00 00
       -5.982e-41 -5.0772e-41 4.9288e-41 6.0445e-41
000020 ac 9a 00 80 e6 88 00 80 ad 8b 00 00 d4 88 00 00
       -5.5486e-41 -4.911e-41 5.0106e-41 4.9085e-41
000030 3d ac 00 80 8d a8 00 80 48 25 00 00 b2 93 00 00
       -6.1787e-41 -6.0465e-41 1.3374e-41 5.2983e-41
000040 1d 95 00 80 d3 8c 00 80 a8 9e 00 00 4f ff 00 80
       -5.3492e-41 -5.0518e-41 5.6915e-41 -9.1587e-41
000050 6b 97 00 80 4d 89 00 00 9d aa 00 00 d7 88 00 00
       -5.4319e-41 4.9254e-41 6.1205e-41 4.9089e-41
000060 3f 94 00 00 7d c5 01 80 df aa 00 00 a2 a9 00 80
       5.318e-41 -1.62681e-40 6.1297e-41 -6.0853e-41
000070 be 88 00 80 ff a9 00 80 cc ab 00 00 67 ab 00 80
       -4.9054e-41 -6.0983e-41 6.1629e-41 -6.1488e-41
000080 ab a8 00 80 3f 8f 00 80 f0 a2 00 80 38 8e 00 00
       -6.0507e-41 -5.1387e-41 -5.8451e-41 5.1018e-41
000090 be 88 00 80 f3 94 00 80 bc fa 01 80 ee 0e 02 00
       -4.9054e-41 -5.3433e-41 -1.81782e-40 1.89027e-40
0000a0 30 9b 00 80 1b 9e 00 00 e9 a4 00 00 3c 8f 00 00
       -5.5671e-41 5.6718e-41 5.9159e-41 5.1383e-41
0000b0 78 a4 00 00 fb a5 00 80 f7 90 00 80 91 97 00 80
       5.9e-41 -5.9543e-41 -5.2004e-41 -5.4372e-41
0000c0 63 8c 00 80 87 c6 01 00 e3 98 00 00 36 89 00 80
       -5.0361e-41 1.63054e-40 5.4845e-41 -4.9222e-41
0000d0 2b 8e 03 80 31 9d 00 80 55 92 00 00 7a 98 00 80
       -3.26507e-40 -5.639e-41 5.2494e-41 -5.4698e-41
0000e0 79 82 01 80 60 7b 01 00 09 9b 00 00 34 9b 00 00
       -1.3864e-40 1.36094e-40 5.5616e-41 5.5676e-41
0000f0 38 a6 00 00 91 9e 00 00 51 a6 00 80 d5 88 00 80
       5.9628e-41 5.6883e-41 -5.9663e-41 -4.9086e-41
000100 ce 88 00 80 68 a6 00 00 d7 9c 00 00 d0 99 00 00
       -4.9076e-41 5.9695e-41 5.6264e-41 5.5178e-41
000110 56 89 00 80 09 9e 00 80 ef b6 01 00 a0 8b 00 00
       -4.9267e-41 -5.6692e-41 1.5746e-40 5.0088e-41
000120 e4 9a 00 00 e5 97 00 80 aa 91 00 00 05 91 01 00
       5.5564e-41 -5.449e-41 5.2254e-41 1.43859e-40
000130 65 8b 00 00 ec ae 00 80 db 82 03 80 ca a8 00 80
       5.0005e-41 -6.275e-41 -3.22449e-40 -6.055e-41
000140 e8 88 00 00 63 94 00 00 7d 9b 00 80 5f 89 00 00
       4.9113e-41 5.3231e-41 -5.5779e-41 4.928e-41
000150 de 8f 00 80 26 a2 00 80 2d ad 00 00 71 9c 00 00
       -5.161e-41 -5.8168e-41 6.2124e-41 5.612e-41
000160 15 89 00 00 8c 94 00 80 bd 88 00 80 46 a2 00 80
       4.9176e-41 -5.3289e-41 -4.9052e-41 -5.8213e-41
000170 fe 6b 01 00 28 46 00 00 b0 aa 00 00 55 8f 00 00
       1.30576e-40 2.5167e-41 6.1231e-41 5.1418e-41
000180 b8 8e 00 80 33 9a 00 00 dd ab 00 00 04 ac 00 80
       -5.1198e-41 5.5316e-41 6.1653e-41 -6.1708e-41
000190 cc 9d 00 00 a9 ad 00 00 ce 92 00 80 a1 94 00 80
       5.6607e-41 6.2298e-41 -5.2664e-41 -5.3318e-41
0001a0 d2 8e 00 00 7e a4 00 00 97 9f 00 80 55 8a 00 00
       5.1234e-41 5.9009e-41 -5.725e-41 4.9624e-41
0001b0 26 a4 00 00 28 89 00 80 4a 91 00 00 d2 88 00 00
       5.8885e-41 -4.9202e-41 5.212e-41 4.9082e-41
0001c0 a8 89 00 00 8c a3 00 80 d6 95 00 80 c8 88 00 00
       4.9382e-41 -5.867e-41 -5.3751e-41 4.9068e-41
0001d0 08 34 02 00 eb ab 00 80 73 9e 00 80 f8 9a 00 00
       2.02336e-40 -6.1673e-41 -5.6841e-41 5.5592e-41
0001e0 c6 a2 00 00 5a a3 00 80 68 a7 00 00 8b a7 00 00
       5.8392e-41 -5.86e-41 6.0054e-41 6.0103e-41
0001f0 c0 88 00 80 8b 90 00 80 43 ab 00 00 89 8f 00 80
       -4.9057e-41 -5.1852e-41 6.1437e-41 -5.1491e-41
000200 f3 a7 00 00 91 89 00 80 25 a7 00 80 0b 8b 00 00
       6.0249e-41 -4.935e-41 -5.996e-41 4.9879e-41
000210 1c a2 00 00 37 8b 00 80 9b a6 00 00 ec 88 00 00
       5.8154e-41 -4.9941e-41 5.9767e-41 4.9118e-41
000220 e3 8d 00 80 dc a7 00 80 c4 a6 00 00 24 48 00 80
       -5.09e-41 -6.0217e-41 5.9824e-41 -2.5879e-41
000230 e3 8c 00 00 b1 19 02 80 07 8c 00 80 47 89 00 80
       5.054e-41 -1.92887e-40 -5.0232e-41 -4.9246e-41
000240 3f 91 00 80 c4 8e 00 80 e2 88 00 00 4d aa 00 80
       -5.2104e-41 -5.1215e-41 4.9104e-41 -6.1092e-41
000250 09 9c 00 00 3d a6 00 00 26 91 00 80 a3 94 00 00
       5.5975e-41 5.9635e-41 -5.207e-41 5.3321e-41
000260 9c 92 00 00 ef 89 00 00 f1 a1 00 00 e3 8d 00 80
       5.2594e-41 4.9481e-41 5.8094e-41 -5.09e-41
000270 d5 a5 00 80 09 89 00 80 2a 92 00 80 c8 88 00 80
       -5.949e-41 -4.9159e-41 -5.2434e-41 -4.9068e-41
000280 d5 88 00 80 6f 9e 00 00 a9 a1 00 00 77 9e 00 80
       -4.9086e-41 5.6835e-41 5.7993e-41 -5.6846e-41
000290 35 89 00 80 84 7f 00 00 b5 93 00 80 07 8b 00 80
       -4.922e-41 4.5744e-41 -5.2987e-41 -4.9874e-41
0002a0 98 af 00 80 05 95 00 00 2b 71 03 00 f5 88 00 80
       -6.2991e-41 5.3458e-41 3.16104e-40 -4.9131e-41
0002b0 d5 79 00 00 ee 98 00 00 d5 88 00 80 77 a0 00 80
       4.3705e-41 5.4861e-41 -4.9086e-41 -5.7564e-41
0002c0 6e 34 00 00 d6 99 00 80 c4 89 00 80 31 89 00 80
       1.8808e-41 -5.5186e-41 -4.9421e-41 -4.9215e-41
0002d0 7a 95 00 80 17 a3 00 80 10 a4 00 00 0b 91 00 00
       -5.3622e-41 -5.8506e-41 5.8855e-41 5.2032e-41
0002e0 c8 88 00 80 f2 88 00 80 21 9a 00 80 c1 51 00 00
       -4.9068e-41 -4.9127e-41 -5.5291e-41 2.9328e-41
0002f0 54 93 00 00 90 97 00 00 63 a6 00 00 62 89 00 80
       5.2851e-41 5.437e-41 5.9688e-41 -4.9284e-41
000300 5c a5 00 00 bd 9d 00 00 19 89 00 00 11 92 00 00
       5.932e-41 5.6586e-41 4.9181e-41 5.2399e-41
000310 b9 a4 00 80 d4 8f 00 80 8c a7 00 00 a3 1b 01 80
       -5.9091e-41 -5.1596e-41 6.0104e-41 -1.0175e-40
000320 1b 90 00 80 57 8e 00 80 c0 88 00 80 f8 96 00 80
       -5.1695e-41 -5.1062e-41 -4.9057e-41 -5.4157e-41
000330 38 8e 00 80 97 af 00 00 24 aa 00 80 5a 93 00 00
       -5.1018e-41 6.299e-41 -6.1035e-41 5.286e-41
000340 66 a9 00 80 41 a7 00 80 4e 8c 00 00 ef ab 00 00
       -6.0769e-41 -6e-41 5.0332e-41 6.1678e-41
000350 f1 ae 00 80 0e a8 00 80 3f ab 00 00 50 94 00 80
       -6.2757e-41 -6.0287e-41 6.1432e-41 -5.3205e-41
000360 bb 88 00 80 48 89 00 80 9b 8c 00 80 95 a9 00 00
       -4.905e-41 -4.9247e-41 -5.044e-41 6.0835e-41
000370 56 8f 00 80 09 9b 00 80 d8 01 00 00 d9 a3 00 00
       -5.1419e-41 -5.5616e-41 6.61e-43 5.8777e-41
000380 8c 99 00 80 e4 8b 00 00 23 92 00 80 0b 89 00 00
       -5.5082e-41 5.0183e-41 -5.2424e-41 4.9162e-41
000390 ff 94 00 80 91 a4 00 80 fd 88 00 80 87 92 00 80
       -5.345e-41 -5.9035e-41 -4.9142e-41 -5.2564e-41
0003a0 f9 88 00 80 3e 8e 00 00 c6 88 00 80 ed a4 00 80
       -4.9137e-41 5.1027e-41 -4.9065e-41 -5.9164e-41
0003b0 80 89 00 80 84 a9 00 00 d3 88 00 00 93 90 00 00
       -4.9326e-41 6.0811e-41 4.9083e-41 5.1863e-41
0003c0 e0 96 00 80 f8 9f 00 80 97 ab 00 80 31 a4 00 00
       -5.4124e-41 -5.7386e-41 -6.1555e-41 5.8901e-41
0003d0 d4 a1 00 80 13 94 00 80 b1 8c 00 00 51 9a 00 00
       -5.8053e-41 -5.3119e-41 5.047e-41 5.5358e-41
0003e0 f1 8a 00 00 0e 8d 00 80 b9 a3 00 80 e1 88 00 00
       4.9843e-41 -5.0601e-41 -5.8733e-41 4.9103e-41
0003f0 f2 ac 00 80 fb 9a 00 80 f4 88 00 80 2a 9f 00 80
       -6.2041e-41 -5.5597e-41 -4.913e-41 -5.7097e-41

sparse_weighted_adjacency_matrices.pair_attention.query.bias f4 [64]
000000 05 a9 00 00 ff 9e 00 80 f6 9c 00 80 d8 74 01 80
       6.0633e-41 -5.7037e-41 -5.6307e-41 -1.33751e-40
000010 25 a8 00 80 63 af 00 80 a6 9a 00 00 94 89 00 80
       -6.0319e-41 -6.2917e-41 5.5477e-41 -4.9354e-41
000020 68 8e 00 00 d7 93 00 80 db 88 00 00 57 98 00 00
       5.1086e-41 -5.3035e-41 4.9094e-41 5.4649e-41
000030 46 89 00 00 0f 8f 00 80 c8 96 00 80 27 9a 00 00
       4.9244e-41 -5.132e-41 -5.409e-41 5.53e-41
000040 12 a3 00 80 ed ae 00 80 cf ac 00 00 b6 a2 00 00
       -5.8499e-41 -6.2752e-41 6.1992e-41 5.837e-41
000050 e8 8e 01 00 eb 88 00 80 e2 a0 00 80 0b a0 00 00
       1.431e-40 -4.9117e-41 -5.7714e-41 5.7413e-41
000060 de ae 00 00 54 8e 00 80 ee 20 00 00 1c ad 00 00
       6.273e-41 -5.1058e-41 1.1813e-41 6.21e-41
000070 77 92 00 00 2d 9b 00 80 e2 ab 00 80 ba 84 00 80
       5.2542e-41 -5.5667e-41 -6.166e-41 -4.7613e-41
000080 02 89 00 80 e0 88 00 00 25 89 00 80 f4 94 00 00
       -4.9149e-41 4.9101e-41 -4.9198e-41 5.3434e-41
000090 bb 88 00 00 49 9b 00 00 aa 9f 00 80 de 93 00 80
       4.905e-41 5.5706e-41 -5.7277e-41 -5.3045e-41
0000a0 d4 8c 00 80 de 98 00 80 1d 60 01 80 63 aa 00 80
       -5.052e-41 -5.4838e-41 -1.26314e-40 -6.1123e-41
0000b0 d0 9d 00 80 d7 89 00 80 a7 a6 00 80 dd a4 00 80
       -5.6612e-41 -4.9448e-41 -5.9784e-41 -5.9142e-41
0000c0 28 93 00 80 cc 9d 00 80 e8 aa 00 80 a1 9e 00 00
       -5.279e-41 -5.6607e-41 -6.131e-41 5.6905e-41
0000d0 45 a8 00 00 20 89 00 80 d4 88 00 80 44 8b 00 80
       6.0364e-41 -4.9191e-41 -4.9085e-41 -4.9959e-41
0000e0 c4 88 00 80 6e 8a 00 80 c8 13 02 00 3e ae 00 80
       -4.9062e-41 -4.9659e-41 1.90767e-40 -6.2506e-41
0000f0 e1 99 00 00 a0 9a 00 00 a3 89 00 00 63 8b 00 00
       5.5201e-41 5.5469e-41 4.9375e-41 5.0003e-41

sparse_weighted_adjacency_matrices.pair_attention.key.weight f4 [64, 64]
000000 13 9f 00 00 15 a8 00 00 fe ad 00 80 a3 94 00 00
       5.7065e-41 6.0296e-41 -6.2417e-41 5.3321e-41
000010 12 a5 00 80 68 a6 00 80 5b 90 00 00 a1 8a 00 80
       -5.9216e-41 -5.9695e-41 5.1785e-41 -4.973e-41
000020 d4 88 00 80 2a 8e 00 00 d7 88 00 80 71 96 00 00
       -4.9085e-41 5.0999e-41 -4.9089e-41 5.3968e-41
000030 7a 8b 00 00 f5 a7 00 80 d3 95 00 80 f9 88 00 80
       5.0035e-41 -6.0252e-41 -5.3747e-41 -4.9137e-41
000040 b6 ac 00 00 f4 ac 00 80 a1 7b 00 80 ad 89 00 80
       6.1957e-41 -6.2044e-41 -4.435e-41 -4.9389e-41
000050 b7 a6 00 80 52 8e 00 80 29 ac 00 00 13 a9 00 80
       -5.9806e-41 -5.1055e-41 6.176e-41 -6.0652e-41
000060 44 0d 00 00 c0 39 00 00 19 92 00 80 2b a8 00 00
       4.759e-42 2.0717e-41 -5.241e-41 6.0327e-41
000070 35 a9 00 80 cd a6 00 00 32 a6 00 00 5c 9f 00 00
       -6.07e-41 5.9837e-41 5.962e-41 5.7167e-41
000080 31 60 02 80 d6 3f 01 00 36 89 00 00 92 8f 00 80
       -2.18178e-40 1.14736e-40 4.9222e-41 -5.1503e-41
000090 2a 89 00 00 db a1 00 00 5b a2 00 00 33 a9 00 80
       4.9205e-41 5.8063e-41 5.8242e-41 -6.0697e-41
0000a0 17 91 00 00 c0 92 00 00 25 a6 00 80 51 9f 00 00
       5.2048e-41 5.2644e-41 -5.9601e-41 5.7152e-41
0000b0 04 89 00 00 ad 98 00 80 d3 99 00 00 65 95 00 00
       4.9152e-41 -5.477e-41 5.5182e-41 5.3593e-41
0000c0 6f 8d 00 80 be 88 00 00 b7 42 01 80 75 89 00 00
       -5.0737e-41 4.9054e-41 -1.15768e-40 4.931e-41
0000d0 96 a8 00 80 01 89 00 00 f9 96 00 00 97 a4 00 80
       -6.0477e-41 4.9148e-41 5.4159e-41 -5.9044e-41
0000e0 b8 98 00 00 d2 ac 00 00 21 9a 00 00 5a a0 00 00
       5.4785e-41 6.1996e-41 5.5291e-41 5.7523e-41
0000f0 42 8a 00 00 29 a2 00 80 f6 88 00 00 f0 88 00 80
       4.9598e-41 -5.8172e-41 4.9132e-41 -4.9124e-41
000100 5e ac 00 80 c0 88 00 80 93 53 01 00 67 96 00 80
       -6.1834e-41 -4.9057e-41 1.21816e-40 -5.3954e-41
000110 d4 a5 00 80 86 6d 01 00 4d 98 00 80 bd 95 00 80
       -5.9488e-41 1.31125e-40 -5.4635e-41 -5.3716e-41
000120 36 98 00 80 a3 8f 00 80 0a a3 00 80 17 96 00 80
       -5.4603e-41 -5.1527e-41 -5.8487e-41 -5.3842e-41
000130 56 97 00 00 6d 9c 00 00 56 a0 00 00 aa a3 00 80
       5.4289e-41 5.6115e-41 5.7518e-41 -5.8712e-41
000140 35 a4 00 00 3a 9a 00 80 26 89 00 80 5c 89 00 00
       5.8906e-41 -5.5326e-41 -4.92e-41 4.9275e-41
000150 e3 92 00 00 ce 89 00 80 d8 88 00 80 70 ad 00 00
       5.2693e-41 -4.9435e-41 -4.909e-41 6.2218e-41
000160 ec 88 00 00 f2 33 00 00 80 94 00 80 e9 88 00 00
       4.9118e-41 1.8634e-41 -5.3272e-41 4.9114e-41
000170 d4 ac 00 00 12 a3 00 00 1e 89 00 00 a4 ad 00 00
       6.1999e-41 5.8499e-41 4.9188e-41 6.229e-41
000180 ee ac 00 80 fb 88 00 80 83 a5 00 80 ea a5 00 00
       -6.2035e-41 -4.914e-41 -5.9374e-41 5.9519e-41
000190 11 57 01 80 f1 9e 00 80 9e 8b 00 00 8e 8f 00 00
       -1.23069e-40 -5.7017e-41 5.0085e-41 5.1498e-41
0001a0 b9 88 00 00 1c 89 00 80 81 8f 00 80 ad aa 00 80
       4.9047e-41 -4.9186e-41 -5.148e-41 -6.1227e-41
0001b0 50 a5 00 00 d9 db 03 80 8d aa 00 00 dd ae 00 80
       5.9303e-41 -3.54373e-40 6.1182e-41 -6.2729e-41
0001c0 6e aa 00 00 c1 a6 00 00 be 88 00 00 65 89 00 00
       6.1139e-41 5.982e-41 4.9054e-41 4.9288e-41
0001d0 45 94 00 80 6f 89 00 80 bf ac 00 80 04 ac 00 00
       -5.3189e-41 -4.9302e-41 -6.197e-41 6.1708e-41
0001e0 e1 a2 00 80 7c aa 00 00 c0 f6 01 80 dc ad 00 80
       -5.843e-41 6.1158e-41 -1.80353e-40 -6.2369e-41
0001f0 65 ae 00 00 95 0d 02 80 e9 88 00 00 8f ae 00 80
       6.2561e-41 -1.88543e-40 4.9114e-41 -6.262e-41
000200 05 8f 00 80 95 93 00 00 dc a7 00 00 64 ad 00 00
       -5.1306e-41 5.2942e-41 6.0217e-41 6.2201e-41
000210 df 88 00 80 ec ec 00 00 d0 88 00 80 49 9d 00 80
       -4.91e-41 8.4992e-41 -4.9079e-41 -5.6423e-41
000220 94 aa 00 00 c1 97 00 80 b2 89 00 00 71 a6 00 80
       6.1192e-41 -5.4439e-41 4.9396e-41 -5.9708e-41
000230 41 9c 00 80 15 9d 00 80 d1 88 00 80 91 ad 00 00
       -5.6053e-41 -5.635e-41 -4.908e-41 6.2264e-41
000240 f4 a3 00 00 a2 32 00 80 5c a9 00 80 db 88 00 80
       5.8815e-41 -1.8164e-41 -6.0755e-41 -4.9094e-41
000250 d9 88 00 80 40 03 01 80 bb 8f 00 80 1a 95 00 80
       -4.9092e-41 -9.3001e-41 -5.1561e-41 -5.3488e-41
000260 ad 9c 00 00 f4 90 00 80 16 ac 00 80 ab a1 00 00
       5.6205e-41 -5.2e-41 -6.1733e-41 5.7996e-41
000270 ff 88 00 00 12 89 00 80 7d 9f 00 80 3e 89 00 00
       4.9145e-41 -4.9172e-41 -5.7214e-41 4.9233e-41
000280 a6 90 00 80 33 ad 00 00 ba 9d 00 80 e8 91 00 00
       -5.189e-41 6.2132e-41 -5.6582e-41 5.2341e-41
000290 4f 8d 00 80 c5 88 00 00 94 aa 00 00 d5 8e 00 80
       -5.0692e-41 4.9064e-41 6.1192e-41 -5.1238e-41
0002a0 8f 54 01 00 0f 91 00 00 d1 98 00 80 76 8b 00 00
       1.2217e-40 5.2037e-41 -5.482e-41 5.0029e-41
0002b0 b2 dc 01 00 47 95 00 00 89 ad 00 00 a6 e6 01 80
       1.71006e-40 5.355e-41 6.2253e-41 -1.74577e-40
0002c0 da fa 01 00 47 96 00 00 bc a8 00 80 e3 88 00 00
       1.81824e-40 5.391e-41 -6.053e-41 4.9106e-41
0002d0 f6 88 00 80 77 92 00 00 6d 89 00 80 1c 9f 00 80
       -4.9132e-41 5.2542e-41 -4.9299e-41 -5.7078e-41
0002e0 60 8b 00 80 ff 96 00 00 c4 ab 00 80 b9 8a 00 80
       -4.9998e-41 5.4167e-41 -6.1618e-41 -4.9764e-41
0002f0 e4 88 00 00 41 8f 00 00 3a 8d 00 00 a5 9b 00 80
       4.9107e-41 5.139e-41 5.0663e-41 -5.5835e-41
000300 fb 88 00 00 99 9b 00 80 29 8e 00 80 89 89 00 00
       4.914e-41 -5.5818e-41 -5.0997e-41 4.9338e-41
000310 ec 88 00 00 6d 89 00 80 c5 88 00 80 39 aa 00 00
       4.9118e-41 -4.9299e-41 -4.9064e-41 6.1064e-41
000320 16 89 00 00 cc 95 00 00 b9 88 00 00 da ae 00 80
       4.9177e-41 5.3737e-41 4.9047e-41 -6.2725e-41
000330 97 8d 00 80 0b 89 00 00 bc 9c 00 00 b1 99 00 00
       -5.0793e-41 4.9162e-41 5.6226e-41 5.5134e-41
000340 f9 8d 00 80 51 97 00 00 ea 8d 00 00 5a a2 00 80
       -5.093e-41 5.4282e-41 5.0909e-41 -5.8241e-41
000350 0e 94 00 00 d6 97 00 80 51 34 03 80 ba a3 00 00
       5.3112e-41 -5.4468e-41 -2.94274e-40 5.8734e-41
000360 2f 89 00 00 53 8f 00 80 19 89 00 00 e4 8e 00 80
       4.9212e-41 -5.1415e-41 4.9181e-41 -5.126e-41
000370 10 9b 00 80 de 99 00 80 3b 07 01 00 e6 88 00 80
       -5.5626e-41 -5.5197e-41 9.443e-41 -4.911e-41
000380 0e 31 00 00 a3 9d 00 00 42 99 00 80 a6 aa 00 00
       1.7598e-41 5.655e-41 -5.4979e-41 6.1217e-41
000390 cd 88 00 80 0d 99 00 00 9b 91 00 00 ba a4 00 00
       -4.9075e-41 5.4904e-41 5.2233e-41 5.9093e-41
0003a0 1d a0 00 80 d4 9a 00 00 ef aa 00 00 a3 a2 00 80
       -5.7438e-41 5.5542e-41 6.132e-41 -5.8343e-41
0003b0 49 9a 00 80 f9 ff 01 80 f1 88 00 00 c7 88 00 00
       -5.5347e-41 -1.83661e-40 4.9125e-41 4.9066e-41
0003c0 54 68 00 80 c2 af 00 80 01 71 01 00 3d 89 00 80
       -3.7426e-41 -6.305e-41 1.32374e-40 -4.9232e-41
0003d0 d8 92 00 80 07 93 00 80 7d a9 00 00 c0 8f 00 80
       -5.2678e-41 -5.2743e-41 6.0801e-41 -5.1568e-41
0003e0 5b a3 00 80 02 a3 00 00 8d 93 00 00 4a 90 00 00
       -5.8601e-41 5.8476e-41 5.2931e-41 5.1761e-41
0003f0 54 89 00 00 0b 8a 01 00 47 8c 00 80 07 89 00 80
       4.9264e-41 1.41356e-40 -5.0322e-41 -4.9156e-41

sparse_weighted_adjacency_matrices.pair_attention.key.bias f4 [64]
000000 28 a6 00 80 1d 9e 00 00 b6 8d 00 80 11 cb 01 80
       -5.9606e-41 5.672e-41 -5.0836e-41 -1.64682e-40
000010 b7 89 00 80 9e ad 00 80 41 8a 00 80 e9 8f 00 80
       -4.9403e-41 -6.2282e-41 -4.9596e-41 -5.1625e-41
000020 98 64 01 80 18 9e 00 00 89 92 00 80 89 89 00 80
       -1.27922e-40 5.6713e-41 -5.2567e-41 -4.9338e-41
000030 56 9b 00 80 04 ab 00 80 1c 89 00 00 0e 89 00 80
       -5.5724e-41 -6.1349e-41 4.9186e-41 -4.9166e-41
000040 2d 95 00 80 89 99 00 00 16 89 00 00 f5 88 00 00
       -5.3514e-41 5.5078e-41 4.9177e-41 4.9131e-41
000050 a9 9b 00 00 d7 88 00 00 c5 88 00 80 fd 88 00 80
       5.584e-41 4.9089e-41 -4.9064e-41 -4.9142e-41
000060 76 89 00 80 44 98 00 80 c9 ae 00 80 37 89 00 80
       -4.9312e-41 -5.4623e-41 -6.2701e-41 -4.9223e-41
000070 13 9f 00 80 a2 89 00 80 38 97 00 00 d2 88 00 80
       -5.7065e-41 -4.9373e-41 5.4247e-41 -4.9082e-41
000080 c5 88 00 80 ba 99 00 80 d9 9f 00 00 e6 a9 00 80
       -4.9064e-41 -5.5147e-41 5.7343e-41 -6.0948e-41
000090 72 9d 00 00 48 98 00 80 c8 88 00 00 e3 88 00 80
       5.6481e-41 -5.4628e-41 4.9068e-41 -4.9106e-41
0000a0 40 1c 03 00 5e 89 00 80 df a7 00 00 bd aa 00 80
       2.8564e-40 -4.9278e-41 6.0221e-41 -6.125e-41
0000b0 1d 92 00 80 3a 8e 00 00 69 a2 00 00 14 94 00 80
       -5.2416e-41 5.1021e-41 5.8262e-41 -5.312e-41
0000c0 7b 8d 00 00 5a a2 00 80 dc 88 00 80 dd 1f 02 00
       5.0754e-41 -5.8241e-41 -4.9096e-41 1.95101e-40
0000d0 df a0 00 00 43 8c 00 00 8f 96 00 80 54 90 00 00
       5.771e-41 5.0316e-41 -5.401e-41 5.1775e-41
0000e0 e4 88 00 80 ac 9d 00 00 32 89 00 80 4d 97 00 80
       -4.9107e-41 5.6562e-41 -4.9216e-41 -5.4276e-41
0000f0 39 9c 00 80 f8 89 00 80 72 9e 00 00 06 82 00 00
       -5.6042e-41 -4.9494e-41 5.684e-41 4.6644e-41

sparse_weighted_adjacency_matrices.pair_attention.edge_query.weight f4 [16, 16]
000000 7a 15 62 3e 44 6b 02 3e e4 5a 87 3d a4 31 bc bd
       0.22078505 0.12736231 0.06609133 -0.09189156
000010 a0 89 39 3c 84 af 77 be aa af 30 3e 6a c2 68 3e
       0.011324316 -0.24188048 0.1725451 0.22730413
000020 f8 5d 0b 3d fa a5 0f 3e 30 aa 45 be 58 9c 3e be
       0.034025162 0.14028159 -0.19303203 -0.18614328
000030 12 4d 7d 3e b0 b2 e3 3c da c1 52 be f0 9f ec bc
       0.24736431 0.027795166 -0.20581761 -0.028884858
000040 58 48 4b 3d fe 56 4f be cc 54 60 be c8 49 48 bd
       0.04962954 -0.20248029 -0.21907347 -0.04889849
000050 08 85 37 3d e0 14 6c be 10 0e 8b bd a4 70 5a 3e
       0.044804603 -0.23054838 -0.067897916 0.21332031
000060 ac 4d 3f 3e a0 ed b5 bd 34 a4 64 be 30 c5 94 bd
       0.18681973 -0.08883214 -0.22328264 -0.07264173
000070 c8 1b 06 bd 64 11 2a 3e 8c bd 6e 3e 1e 5f 79 3e
       -0.032741338 0.16608196 0.23314494 0.2435269
000080 98 7f 18 be 12 63 1b 3e 34 1b 8e 3d bc ae 8c 3d
       -0.14892423 0.15174511 0.06938782 0.068692654
000090 8c 05 3a 3e 8c 3a ee bd a4 96 b6 bd e0 52 21 3c
       0.18166178 -0.11632261 -0.08915451 0.009846419
0000a0 e0 f3 bb bc 20 77 02 be 00 a2 38 3c ca b0 47 3e
       -0.022943437 -0.12740755 0.011269093 0.19501033
0000b0 58 bb b3 3d 00 5b 67 3c 3c 0a e2 bd 88 eb 84 bd
       0.08775967 0.014120817 -0.11037108 -0.064902365
0000c0 20 30 c5 bc 80 39 c0 3d 60 11 0a be a8 d8 1b be
       -0.0240708 0.09385967 -0.1348319 -0.15219367
0000d0 58 a2 30 3d e8 76 12 3e 8e 0d 40 3e 46 f6 14 3e
       0.043123573 0.14303172 0.1875517 0.14547071
0000e0 a4 1d 86 bd 5a f1 59 be 9c 21 59 3e 50 62 e8 bd
       -0.06548622 -0.21283475 0.21204227 -0.113468766
0000f0 7c 15 ed 3d 80 66 1d 3e 82 6e 65 3e a0 0b d2 bd
       0.115763634 0.15371132 0.22405437 -0.102561235
000100 66 56 03 3e f2 c0 02 be 6a 1f 02 be c4 04 55 be
       0.12825927 -0.12768915 -0.12707296 -0.20802599
000110 7c 72 7b 3e 70 a7 f6 bc 60 b7 0e bd 00 d5 6c 3e
       0.24555391 -0.030109137 -0.03484285 0.23128128
000120 68 2a 07 3d 40 4a 73 be f8 00 95 bd 5a c0 4a 3e
       0.032999426 -0.23758793 -0.072755754 0.19799939
000130 b2 9f 50 3e 40 f5 48 be 08 a0 e5 3d 84 78 bd 3d
       0.20373419 -0.19624805 0.11212164 0.09251502
000140 74 ce 26 be 88 e0 6f 3d 88 d7 fa bd e4 d9 d1 3d
       -0.16289693 0.05856374 -0.122481406 0.102466375
000150 7e 0f 7c be 20 f7 c9 bc 7c 16 21 3e 10 9a ca bd
       -0.24615285 -0.024653971 0.15731233 -0.09892666
000160 00 0c a8 39 38 69 63 bd 8c 83 5b 3e 6e 9d 42 3e
       0.00032052398 -0.055520266 0.214369 0.19005367
000170 16 3b 28 3e f0 54 3d be 7e 08 14 3e 40 c4 ab 3d
       0.1642879 -0.18489432 0.14456365 0.08387041
000180 c0 eb 45 3d c8 d4 76 3d 4c e9 e0 3d 50 ba 8b 3d
       0.04832053 0.060261518 0.10981998 0.06822646
000190 80 f1 c0 bc c8 a6 58 be a8 50 51 be 58 44 ee bd
       -0.023552656 -0.21157372 -0.20440924 -0.11634129
0001a0 a0 9d d7 bd 68 36 4d 3e 1c 07 15 be c0 c0 8a bd
       -0.105281115 0.20040286 -0.14553493 -0.067750454
0001b0 c0 06 d1 bc 80 bc 3f 3b 40 41 d1 3d 54 0c 51 be
       -0.025515914 0.0029256642 0.102175236 -0.20414859
0001c0 00 7a a7 ba 24 27 69 be 26 4a 5c be 90 e9 f5 3d
       -0.0012777448 -0.22768837 -0.2151266 0.12007439
0001d0 ba 46 5f 3e 38 67 ab bd 70 29 c9 3c bc c9 77 be
       0.21804324 -0.08369297 0.024555892 -0.2419805
0001e0 d6 df 4f 3e f0 77 e1 bd e4 44 ba 3d cc b0 90 bd
       0.2030023 -0.110092044 0.09095171 -0.07064971
0001f0 80 6e 17 be a8 d7 e9 bd 68 a9 68 be d6 c6 60 3e
       -0.14788246 -0.11418086 -0.22720873 0.2195085
000200 08 f9 3f 3d f8 0d 2e 3d 70 e9 52 bd f0 b1 20 3e
       0.046868354 0.04249379 -0.051492155 0.15692878
000210 80 7e 25 3e 62 e6 71 be e0 51 67 be 00 50 83 bd
       0.16161537 -0.2362304 -0.22589827 -0.06411743
000220 a6 3f 2a 3e 30 56 74 be ba bc 43 3e a4 36 be 3d
       0.16625842 -0.23861003 0.19114962 0.092877656
000230 c0 4d 52 bc ac a4 2e 3e aa c9 42 be d8 54 73 3d
       -0.01283592 0.17055005 -0.19022241 0.059407085
000240 40 5c f8 3d d0 e9 c8 3d f4 21 c6 3d 44 bc 03 be
       0.1212697 0.09810221 0.09674445 -0.12864786
000250 d8 e7 36 be 00 35 8d 3d d8 64 fc bd 3a 8a 27 3e
       -0.17861879 0.068948746 -0.12323922 0.16361323
000260 f8 d6 7f bd e4 fc bf 3d 40 83 c0 bc 4e ef 2e 3e
       -0.06246087 0.09374407 -0.023500085 0.17083475
000270 d2 9a 46 3e 9e c7 25 3e 56 eb 0c be 00 d1 a3 3b
       0.19394997 0.16189429 -0.13761649 0.00499928
000280 54 fc 6d be 20 7e 29 3e c8 f0 71 be 30 20 6b be
       -0.23240787 0.16552019 -0.23627007 -0.22961497
000290 2c fb 46 3e 44 d7 5e 3e 08 9e 1d 3d cc 74 51 be
       0.19431752 0.21761805 0.03848079 -0.2045471
0002a0 4c 57 2a 3e ce 57 36 3e e2 7c 78 be 08 2c b2 bd
       0.16634864 0.17806932 -0.24266389 -0.086998045
0002b0 90 9d 0c 3e 82 64 58 be 40 8c 59 3c b0 81 d1 bd
       0.1373198 -0.2113209 0.013278067 -0.10229814
0002c0 94 f4 b7 3d 4e 7a 0d be 90 a2 1c 3d 7a fe 0e 3e
       0.089821965 -0.13816187 0.03824097 0.13964263
0002d0 10 c0 65 bd f2 b1 28 3e 90 b4 37 bd 64 ae 90 bd
       -0.05609137 0.16474131 -0.044849932 -0.07064512
0002e0 ee d1 34 be 4a 88 49 3e 26 d3 5a be f8 31 34 bd
       -0.17658207 0.19680896 -0.21369609 -0.043992966
0002f0 cc 45 8d 3d 34 13 d7 bd 88 ec 22 be 52 b8 1f be
       0.06898078 -0.105017096 -0.15910542 -0.15597656
000300 c0 35 95 bb a2 47 36 3e 1e c6 45 3e 0e dc 1b be
       -0.0045535266 0.17800763 0.19313857 -0.15220663
000310 74 3f 01 3e 20 25 10 3c 3e c8 25 3e 98 bd 55 bd
       0.12621862 0.008797914 0.16189668 -0.052182764
000320 a0 a5 2f be 32 57 45 be 80 dc aa bd dc b5 e4 3d
       -0.17153025 -0.19271544 -0.08342838 0.111674994
000330 d0 92 25 be 10 2f cc 3d ee 72 2a be c0 01 9c bd
       -0.16169286 0.09969914 -0.16645405 -0.07617521
000340 e4 c0 6f 3e 9e c5 76 3e c8 e8 75 bd 3a 09 73 3e
       0.23413426 0.24098822 -0.06003645 0.23733988
000350 9c 37 ca 3d 80 c8 00 bc 30 c0 bf bc 0a 56 31 be
       0.09873888 -0.007860303 -0.023407072 -0.17317978
000360 a8 5c 31 3d 68 e2 b6 bd 48 17 24 bd 48 72 44 be
       0.043301255 -0.08929902 -0.040061265 -0.1918422
000370 ae 44 5b 3e 38 cb 3a bd 10 34 bd bc b0 5c 31 be
       0.21412918 -0.04560396 -0.023096114 -0.17320514
000380 28 c6 12 bd 70 a6 9a 3d ec 45 0d be 50 c8 44 3e
       -0.035833508 0.07551277 -0.13796204 0.19217038
000390 2c 70 4f be b2 7d 13 be e4 df 15 3e 54 55 8f 3d
       -0.20257634 -0.14403418 0.14636189 0.06998697
0003a0 a8 1d 3b 3e c8 dc 89 bd 90 ef 4f bd 10 8e 72 bd
       0.18273032 -0.06731564 -0.050765574 -0.059217513
0003b0 0c 97 47 3e 00 cd 90 3a c0 1a 4a bd 44 f3 ce 3d
       0.19491214 0.0011047423 -0.049341917 0.10104993
0003c0 98 b4 19 3e 30 3e 88 3d 9c ce 9c 3d 40 5c 61 3d
       0.15010297 0.06652486 0.07656595 0.055019617
0003d0 e4 75 83 bd 78 6b 0f 3e f0 04 94 bc ea 53 37 3e
       -0.0641897 0.1400584 -0.01806876 0.17903104
0003e0 7a f7 31 3e 94 d8 0c 3e c0 aa 65 3c f0 c3 6b 3d
       0.17379561 0.13754493 0.014017761 0.057559907
0003f0 24 e1 d8 3d 90 48 a6 bd 20 03 81 3d 9c 0a 4c 3e
       0.10589817 -0.08119309 0.06299424 0.19925922

sparse_weighted_adjacency_matrices.pair_attention.edge_query.bias f4 [16]
000000 a6 2e 26 be 70 e0 fa 3c a0 2c e7 3d b8 d0 7f 3d
       -0.16228732 0.030624598 0.112878084 0.06245491
000010 b4 2e 06 be 58 0d ba bd c0 7a b2 bd 50 47 19 bd
       -0.13103753 -0.09084576 -0.08714819 -0.037421525
000020 90 24 84 3d 44 cb 83 3d 58 36 d5 bd 06 dc 7c be
       0.06452286 0.06435254 -0.10410756 -0.24693307
000030 80 d0 de bc 12 61 1f be 30 1d 9f 3d 78 1a 0a 3d
       -0.02719903 -0.15564373 0.07769239 0.03371665

sparse_weighted_adjacency_matrices.pair_attention.edge_key.weight f4 [16, 16]
000000 0c 88 f8 3d a0 e0 32 be 24 9a 2e be f8 80 70 bd
       0.12135324 -0.174685 -0.17050987 -0.058716744
000010 00 ac ff 3c aa 78 14 be 12 b2 33 be 42 90 24 be
       0.031209946 -0.14499155 -0.17548397 -0.16070655
000020 00 33 3c bd 5c cf 8b bd ca 62 29 3e 04 47 4e 3e
       -0.045947075 -0.0682666 0.16541591 0.20144278
000030 80 23 02 3e d0 0c 49 3d 40 eb bb bb 62 37 23 3e
       0.12708855 0.049084485 -0.005734831 0.15939096
000040 98 3a 33 bd 4a dc 43 3e d2 27 24 3e a0 72 32 be
       -0.04375705 0.19127002 0.16030815 -0.17426538
000050 10 f5 11 3d 10 50 97 3d a8 09 31 bd 38 19 62 be
       0.0356341 0.073883176 -0.0432221 -0.22079933
000060 d8 e5 9a 3d 90 71 a2 bc f0 f2 5b be 94 95 13 3e
       0.075633705 -0.019829541 -0.21479392 0.14412528
000070 a8 ed 21 bd f4 ae ef 3d fa 9b 30 be fc 15 8e 3d
       -0.039533287 0.117032915 -0.17247 0.06937787
000080 90 58 e5 bd 04 82 78 3e 3a e9 75 3e ae 60 2b be
       -0.111985326 0.24268347 0.2401475 -0.16736099
000090 e8 f4 9c bd 82 0f 0f 3e 24 92 0e 3e 80 a8 82 bd
       -0.076639 0.1397076 0.13922936 -0.06379795
0000a0 9c 59 9a bd 58 fa a3 3d 00 a9 c6 3a 00 e2 bc bc
       -0.07536623 0.08006734 0.0015156567 -0.023056984
0000b0 c2 fe 1d be a2 ec 61 3e 10 cd c0 3c 28 fe 25 3d
       -0.15429214 0.22062925 0.023535281 0.040525585
0000c0 86 83 62 3e 0e b6 1d be 94 64 47 3e 90 0d fc 3c
       0.22120485 -0.1540148 0.19471961 0.030768186
0000d0 98 4e 26 be 00 40 48 be c4 5b e3 bd c6 7f 73 3e
       -0.16240919 -0.19555664 -0.11101487 0.2377921
0000e0 80 4a 33 bc 54 ce 71 be 44 24 ae bd 90 ae 02 bd
       -0.010943055 -0.23613864 -0.08503011 -0.031904757
0000f0 38 91 dc bd 38 23 44 3d 90 88 15 3d 28 31 54 3d
       -0.10769886 0.04788515 0.03650719 0.05180469
000100 b6 c6 21 3e b8 87 a6 3d 20 95 7f bc 60 55 66 bd
       0.15798458 0.08131355 -0.015599519 -0.056233764
000110 0a f8 27 be 70 e8 2d 3d ee 12 60 be 54 ca 9c 3d
       -0.16403213 0.042457998 -0.21882221 0.076557785
000120 90 28 4f bd 70 2b c0 bc a0 09 93 bd f8 0d 41 3d
       -0.050575793 -0.023458213 -0.0717957 0.047132462
000130 2a be 1d 3e 70 31 90 3c 06 5d 44 be c4 9e c8 bd
       0.15404573 0.017601699 -0.1917611 -0.09795907
000140 7c c0 01 3e 20 22 21 bc e0 e5 f5 bc e4 49 df bd
       0.12671083 -0.009834796 -0.03001684 -0.109027654
000150 e6 67 4b be 00 3c 57 3a 00 90 d9 bc d0 9f 3e bd
       -0.19863853 0.000821054 -0.026557922 -0.046539128
000160 e0 a5 17 3c 1a 5b 73 be 48 82 27 3e 7e 41 43 3e
       0.009255856 -0.23765221 0.16358292 0.19067952
000170 20 d1 19 bc c4 55 90 3d 3e 76 34 3e c8 65 6e 3d
       -0.009388238 0.070476085 0.17623231 0.058202535
000180 12 81 65 be 14 4b de bd fa be 7e be a0 7a a7 bd
       -0.22412518 -0.10854164 -0.2487754 -0.08177686
000190 e0 65 29 3d 14 90 a7 bd ac 10 a8 bd f8 9f 3b be
       0.04135692 -0.081817776 -0.08206305 -0.18322742
0001a0 16 72 5f 3e 60 08 5c 3d e0 d1 2e bc a2 80 11 3e
       0.21820864 0.053718925 -0.010670155 0.14209226
0001b0 5c 3f e7 3d 0a a3 0f 3e 9c 91 0f be 48 2e ea bd
       0.11291382 0.14027038 -0.1402039 -0.11434609
0001c0 18 da c0 3d c0 3d 61 bc 80 43 7f bd 80 91 94 bc
       0.09416598 -0.0137476325 -0.062320232 -0.018135786
0001d0 a8 38 48 bd 42 8c 0b be b6 11 50 3e be 75 14 be
       -0.048882157 -0.13627723 0.20319256 -0.1449804
0001e0 f0 2a 63 3d 3a 6f 7a 3e d6 eb 2b be 78 2d d3 3d
       0.05546087 0.24456492 -0.16789183 0.10311407
0001f0 2e 8f 78 be 60 08 77 be a6 05 66 3e ba f1 4e be
       -0.24273369 -0.24124289 0.22463092 -0.20209399
000200 16 3f 3b be 02 45 65 be f8 35 00 bd d6 1d 74 be
       -0.18285784 -0.22389606 -0.03130147 -0.23839507
000210 46 44 47 3e 64 16 be bd 20 ca 5e bd a0 d3 e4 bd
       0.19459638 -0.092816144 -0.05439198 -0.11173177
000220 0c 45 7b 3e d8 52 bb bd 84 3c 28 3e 20 78 8a 3d
       0.24538058 -0.091466606 0.16429335 0.06761193
000230 f0 00 03 bd 40 39 0e be 56 d9 5b be 78 93 cd 3d
       -0.031983316 -0.13889027 -0.21469626 0.10037893
000240 18 b5 f7 3d c4 ec ca bd b0 e2 af 3c 68 f2 6b 3e
       0.12095088 -0.09908441 0.021470398 0.2304169
000250 bc 7e 31 3e 62 06 15 3e 28 98 e6 bd 40 f9 8b 3c
       0.17333502 0.14553216 -0.1125949 0.017086625
000260 b6 8e 02 be c0 ad 46 bd 20 9c b5 3c 80 32 fc bc
       -0.12749752 -0.048505545 0.022169173 -0.030785799
000270 b0 d8 3d 3e 06 76 43 be dc fa 88 bd 10 be 50 3e
       0.18539691 -0.19087991 -0.06688473 0.20385003
000280 02 ae 0f 3e 82 53 7b be a2 c4 5b be 3e 2e 2f 3e
       0.14031222 -0.24543574 -0.21461728 0.17107484
000290 b4 e4 83 3d a0 fb e8 bd b0 6d 97 bd 76 b4 02 be
       0.06440106 -0.11376119 -0.07393968 -0.12764153
0002a0 a0 e9 78 be 00 39 84 ba 38 35 51 be ae 22 1c be
       -0.24307871 -0.0010087788 -0.20430458 -0.15247604
0002b0 c8 03 a0 bd 4c 9e ea bd 24 db 56 be e2 64 57 3e
       -0.07813221 -0.11455974 -0.20982033 0.21034577
0002c0 d0 3f 4e bd 3a fa 2c be 3a 10 4d be 74 59 46 3e
       -0.050353825 -0.16892329 -0.20025721 0.19370061
0002d0 54 4d 10 be c2 e4 47 be 5a fa 5d be 74 d5 1b be
       -0.14091998 -0.19520858 -0.21677533 -0.15218145
0002e0 38 53 27 3e e0 d8 a9 bd fa f4 05 3e c8 38 6e be
       0.16340339 -0.08293319 0.13081732 -0.23263848
0002f0 9a c0 36 3e 0a ac 61 3e 38 42 44 3d c0 c4 d8 3d
       0.17846909 0.22038284 0.047914714 0.10584402
000300 18 f6 73 bd 50 04 8f bc 4a f9 38 3e 6c ac 54 be
       -0.059560865 -0.017458111 0.18063846 -0.20768899
000310 c8 f3 42 3d da 55 10 be fe 63 15 3e 5c 58 8e 3d
       0.04759577 -0.1409525 0.14588925 0.06950447
000320 e8 e8 20 3e 80 98 39 3e 7a 3c 0c be dc b8 06 be
       0.15713847 0.1812458 -0.13694945 -0.13156456
000330 e6 8a 08 be 50 fe cd 3c b0 72 50 3e 78 98 7f bd
       -0.13334236 0.02514568 0.2035625 -0.062401265
000340 c0 1f 2a 3d 08 91 1b 3e 1c e3 36 be 48 0e 81 3d
       0.041534185 0.15192044 -0.17860073 0.06301552
000350 c6 79 63 be 00 b5 0b 3d f4 ef 89 bd 24 3b 4d 3e
       -0.22214422 0.034108162 -0.067352206 0.20042092
000360 c0 26 29 bc 0e 7d 2e be 84 cf 0e 3e 18 73 79 bd
       -0.01032418 -0.17039892 0.13946348 -0.060900778
000370 60 c9 51 3e 40 50 b4 3d 80 40 18 be 98 52 5a be
       0.20486975 0.08804369 -0.14868355 -0.2132057
000380 22 32 61 3e 22 54 21 be c8 ef 37 be 82 0f 28 be
       0.2199178 -0.1575475 -0.17962563 -0.16412166
000390 48 82 ed bd 42 51 5b be 2e 27 5a 3e 38 15 98 3d
       -0.11597115 -0.21417716 0.21304008 0.07425922
0003a0 5e 28 49 be 00 c9 13 bd 44 ba 25 be c8 50 df 3d
       -0.19644305 -0.03608036 -0.16184336 0.1090408
0003b0 e0 0d a5 3c de 17 32 3e bc d2 7e 3e 54 6c 6f 3e
       0.020148218 0.17391917 0.24885076 0.23381168
0003c0 bc 9b f0 3d 52 2b 0a be c8 5a 4f bd 88 50 aa bd
       0.11748454 -0.13493088 -0.050623685 -0.08316141
0003d0 18 6b 2c be d2 75 63 be 58 9f 22 3d 46 b6 56 be
       -0.16837728 -0.22212914 0.039702743 -0.2096797
0003e0 40 93 7c bd 14 54 82 3d a4 7a b7 3d b4 50 e0 bd
       -0.061663866 0.06363693 0.08958939 -0.10952893
0003f0 a4 c5 b1 3d e8 93 08 3e 4e 59 72 be f2 16 33 3e
       0.08680275 0.13337672 -0.2366688 0.17489222

sparse_weighted_adjacency_matrices.pair_attention.edge_key.bias f4 [16]
000000 2a 71 51 be 20 76 4b bc 00 0f 6b 3d e2 fc 50 3e
       -0.20453325 -0.0124183 0.057387352 0.20408967
000010 4e 27 49 be a8 d4 0e 3d 88 16 24 3d 2c 9f ae 3d
       -0.196439 0.034870774 0.04006055 0.085264534
000020 10 b2 3c bd 00 ee 68 3d b0 b1 ae bc 74 72 22 3e
       -0.04606825 0.0568676 -0.021324962 0.15863973
000030 86 3b 2d be 32 81 44 be 2a 4f 03 3e 92 52 21 3e
       -0.16917238 -0.19189909 0.12823167 0.15754154
