checkpoints/GHGNN/sdd/train_best.pth (torch, 128930 bytes, 58 tensors)

sparse_weighted_adjacency_matrices.edge_inital.x_embedding.weight f4 [16, 2]
-0.0005414991 -0.002334664 -0.0028330872 0.0009681619 0.005442474 -0.0038690495 0.00055632315 0.015915472
0.0043914677 0.012616814 1.07609e-05 2.0036705e-06 -0.005456203 0.010154031 -0.002180663 -0.0073714363
-0.0062815067 -0.0068023317 0.00782674 0.082796425 -0.0018547466 -0.03020624 -0.0006822868 0.003906373
0.0086357985 -0.0010461805 -5.1071693e-05 0.00057418714 -0.002115433 -0.001722537 7.5163545e-05 -0.00016611704
00000000: 64f3 0dba 2a01 19bb 51ab 39bb 3fcc 7d3a
00000010: c856 b23b e18f 7dbb 37d6 113a 2a61 823c
00000020: 4de6 8f3b c1b6 4e3c b789 3437 cc76 0636
00000030: f3c9 b2bb 185d 263c 74e9 0ebb 178c f1bb
00000040: 19d5 cdbb 18e6 debb ba3b 003c 2c91 a93d
00000050: f81a f3ba 1473 f7bc 7edb 32ba 0801 803b
00000060: 2a7d 0d3c fe1f 89ba d035 56b8 0c85 163a
00000070: 14a3 0abb c0c6 e1ba 1fa1 9d38 b42f 2eb9

sparse_weighted_adjacency_matrices.edge_inital.x_embedding.bias f4 [16]
0.0076129274 0.08738325 -0.024841717 -0.139627 -0.025531134 9.818547e-05 -0.068950295 -0.10748897
0.04385551 -0.33495173 0.16020225 -0.0064974157 -0.20768541 0.10230299 -0.0052933856 -0.00010052917
00000000: dd75 f93b fdf5 b23d db80 cbbc 61fa 0ebe
00000010: ab26 d1bc ece8 cd38 d035 8dbd 2d23 dcbd
00000020: d6a1 333d cb7e abbe 0f0c 243e 46e8 d4bb
00000030: 7cab 54be 3b84 d13d 2374 adbb 30d3 d2b8

sparse_weighted_adjacency_matrices.edge_inital.edge_embedding.weight f4 [16, 16]
-3.313024e-05 0.0010101744 -0.0042638327 0.009525815 0.005135672 -7.883336e-06 0.00094808004 -0.0036142732
-0.016070725 0.022849152 0.0050928607 -0.00014225455 -0.0070250505 -0.024387216 -0.0015558999 8.613817e-06
-4.946888e-05 -0.0037885532 -0.00077087077 0.0025459086 0.0029879492 -1.45689e-06 0.00058381003 -0.00019945734
-0.0037025302 0.012109165 -0.0034890117 3.031424e-05 0.0042670276 -0.010485254 0.0010067354 2.646852e-07
1.5009235e-05 -0.0015776254 3.9968647e-05 0.009377648 -0.0032617564 -9.851619e-07 -0.00022914643 0.00093820435
-0.001514538 -0.030442428 0.0020038516 -6.7369336e-05 0.0054829624 -0.013697839 -0.008699121 -0.00020696296
2.9419964e-05 0.0021639182 -0.002024723 -0.0022276037 0.00016431637 3.506414e-07 -0.0003541675 -0.0023932466
0.0024902783 -0.0019621004 0.0037043868 -3.0584783e-05 -0.0016247213 0.0010770812 0.00050627807 1.3940005e-06
-0.00013518824 -0.010442029 0.0006097417 -0.0117852725 0.0006014154 -2.5404502e-06 0.0010958529 0.006035941
0.014819555 0.013314096 -0.020605173 0.000113838774 0.010111443 -0.028369674 -0.001937914 -1.2031509e-05
-0.004486804 -0.0024890222 0.072201796 0.04272155 -0.083946854 -7.100386e-05 0.003815239 0.067945324
0.06563742 0.053501256 -0.038020395 0.003073732 -0.046328943 -0.033125598 0.07240943 -0.0020721997
-9.830736e-05 0.0020035023 0.0064759217 0.00040078867 0.0043695965 5.2995915e-06 0.0024256476 0.010499489
-0.008071334 0.004672063 -0.0051788534 0.00037189902 0.00654202 0.0116426 -0.0009957443 -2.3650407e-05
-6.7940375e-05 -0.00090518646 0.0013507779 -0.0013198524 0.00013594318 -1.0481112e-06 0.0008154856 0.0039331303
0.0076895864 0.009632725 -0.0060836133 5.2160645e-05 0.014286655 0.002836157 0.0037612135 -4.6901783e-05
0.0032180825 0.06915534 -0.03578143 0.039163236 0.036496185 0.00010040588 0.0038494521 -0.042209107
-0.0016710616 -0.008481418 0.006149492 0.00023524188 -0.065642774 0.08454196 -0.01964853 -0.0044391234
-4.5474735e-05 -0.0063723978 0.008283115 -0.001044939 0.013293351 -5.6205687e-07 -0.000112939284 -0.001021129
-0.011506689 -0.004899105 -0.0040464518 5.9015332e-05 0.0018483044 -0.0137132155 0.010805891 -0.00024654443
8.3700026e-05 -0.0051409085 -0.004155562 -0.0015988603 -0.001462839 -1.1875762e-06 -0.0027864657 0.006368971
0.012655129 -0.016680315 -0.0014178938 -0.00015459486 0.0002244132 0.0027005626 -0.0017360038 1.853546e-05
-4.1365023e-05 -0.0061642723 0.0048386296 0.0015804403 -0.0002103671 -4.445904e-07 0.00051867653 0.004307413
0.0049027777 0.0019554351 0.001109721 4.5566063e-05 0.0020020572 -0.0068820603 0.0013329041 -2.1155076e-06
-5.055012e-05 -0.0074702944 -0.020807672 0.07969662 0.06533012 -9.175849e-06 -0.01163285 -0.084904276
-0.03757401 -0.013127323 -0.047313385 0.011732332 -0.10621349 -0.13910969 0.014895688 0.003546219
-1.9895828e-05 -0.00015740034 0.0019826451 0.0048775165 0.0021006793 2.874987e-07 0.00032950446 0.00023176933
-0.0026430632 0.00018092748 0.00010150827 4.194098e-05 0.00049545034 0.0016151113 -0.0005256065 -4.482825e-06
0.0060391678 -0.014988674 -0.04037396 0.029984979 -0.07065468 5.1280123e-05 -0.07941451 -0.052971262
0.090238705 -0.17008722 0.11625028 0.0020627102 0.010262953 -0.0760779 0.055257764 -0.0023098208
-0.008182005 0.08468003 0.041207578 -0.06682999 0.077453695 -0.00019355358 -0.004717791 0.057252914
-0.09419243 -0.091672696 -0.066281624 0.0026974748 -0.039259765 -0.056596555 -0.018038336 0.010499838
00000000: 53f5 0ab8 d467 843a 9fb7 8bbb 2a12 1c3c
00000010: 2449 a83b ac42 04b7 9388 783a 71dd 6cbb
00000020: c1a6 83bc 252e bb3c 03e2 a63b 2a2a 15b9
00000030: 6532 e6bb b3c7 c7bc 56ef cbba 1084 1037
00000040: ce7c 4fb8 6049 78bb 4314 4aba 42d9 263b
00000050: 78d1 433b 5c8a c3b5 d40a 193a 6c25 51b9
00000060: 26a6 72bb 8565 463c e7a7 64bb 564b fe37
00000070: 6cd2 8b3b 58ca 2bbc 6ff4 833a 0f1a 8e34
00000080: 2cd0 7b37 53c8 ceba 02a4 2738 b5a4 193c
00000090: 31c3 55bb e839 84b5 0747 70b9 d4f1 753a
000000a0: 7683 c6ba 6662 f9bc 0d53 033b a348 8db8
000000b0: 6caa b33b e76c 60bc c286 0ebc 3204 59b9
000000c0: e4ca f637 86d0 0d3b 37b1 04bb fdfc 11bb
000000d0: 574c 2c39 c93f bc34 8faf b9b9 04d8 1cbb
000000e0: f033 233b 9596 00bb 4cc5 723b 2948 00b8
000000f0: 9af4 d4ba d92c 8d3a bfb7 043a 7e19 bb35
00000100: 51c1 0db9 0b15 2bbc 13d7 1f3a 0417 41bc
00000110: 4ea8 1d3a 9a7c 2ab6 b9a2 8f3a 25c9 c53b
00000120: b8cd 723c 5e23 5a3c 2ecc a8bc babc ee38
00000130: 77aa 253c 8567 e8bc 9b01 feba f0da 49b7
00000140: 0a06 93bb dd1e 23bb 89de 933d cbfc 2e3d
00000150: 54ec abbd e8e7 94b8 1709 7a3b eb26 8b3d
00000160: e96c 863d 2224 5b3d 46bb 1bbd aa70 493b
00000170: 6bc3 3dbd b5ae 07bd 654b 943d becd 07bb
00000180: 5d2a ceb8 314d 033b f833 d43b f220 d239
00000190: d52e 8f3b 25d3 b136 9df7 1e3b 0c06 2c3c
000001a0: a13d 04bc 1b18 993b 5fb3 a9bb 71fb c239
000001b0: 715e d63b 9bc0 3e3c a283 82ba dd64 c6b7
000001c0: 367b 8eb8 094a 6dba 960c b13a e6fe acba
000001d0: f88b 0e39 d4ac 8cb5 50c6 553a 7de1 803b
000001e0: edf8 fb3b 94d2 1d3c 0c59 c7bb 11c7 5a38
000001f0: 9312 6a3c d2de 393b b17e 763b 68b8 44b8
00000200: 77e6 523b 51a1 8d3d 8c8f 12bd a169 203d
00000210: 067d 153d ff90 d238 1747 7c3b 75e3 2cbd
00000220: 8607 dbba a5f5 0abc ae81 c93b 43ab 7639
00000230: b86f 86bd 5624 ad3d f4f5 a0bc 1176 91bb
00000240: 20bc 3eb8 8ccf d0bb e7b5 073c 56f6 88ba
00000250: 5bcc 593c 41e0 16b5 d1d9 ecb8 67d7 85ba
00000260: 8d86 3cbc ac88 a0bb 1998 84bb 3b87 7738
00000270: ce42 f23a 65ad 60bc 310b 313c a242 81b9
00000280: 1c88 af38 1175 a8bb 612b 88bb d990 d1ba
00000290: bbbc bfba cf64 9fb5 239d 36bb cdb2 d03b
000002a0: 7557 4f3c 28a5 88bc 9fd8 b9ba be1a 22b9
000002b0: 7650 6b39 ecfb 303b 9f8a e3ba 997c 9b37
000002c0: 5b7f 2db8 aafd c9bb 5e8d 9e3b c726 cf3a
000002d0: fd95 5cb9 0ab0 eeb4 cbf7 073a 3325 8d3b
000002e0: 7ba7 a03b c226 003b 0f74 913a 301e 3f38
000002f0: f234 033b e882 e1bb d7b4 ae3a 25f8 0db6
00000300: c705 54b8 5fc9 f4bb da74 aabc fb37 a33d
00000310: cccb 853d f9f1 19b7 b697 3ebc 4be2 adbd
00000320: 35e7 19bd fc13 57bc aecb 41bd f838 403c
00000330: 7586 d9bd c572 0ebe 0b0d 743c af67 683b
00000340: f7e5 a6b7 d50b 25b9 44ef 013b 93d3 9f3b
00000350: 8dab 093b 8559 9a34 57c1 ac39 1b07 7339
00000360: 3e37 2dbb 5ab7 3d39 d6e0 d438 c9e9 2f38
00000370: 1ce1 013a 24b2 d33a dbc8 09ba 2c6b 96b6
00000380: 36e4 c53b 0e93 75bc 2a5f 25bd 0fa3 f53c
00000390: 67b3 90bd 9d15 5738 13a4 a2bd 65f8 58bd
000003a0: 12cf b83d 582b 2ebe a014 ee3d 892e 073b
000003b0: f225 283c bbce 9bbd f755 623d 5d60 17bb
000003c0: d10d 06bc b96c ad3d 47c9 283d 29de 88bd
000003d0: 0ba0 9e3d a5f4 4ab9 b397 9abb 0882 6a3d
000003e0: f6e7 c0bd e5be bbbd a9be 87bd 1ec8 303b
000003f0: d9ce 20bd cad1 67bd 22c5 93bc 8307 2c3c

sparse_weighted_adjacency_matrices.edge_inital.edge_embedding.bias f4 [16]
-0.004972694 0.009716067 -0.015008068 -0.0037557685 0.01536311 0.0010500103 0.0553281 0.009583825
0.037813418 0.0033016915 -0.01519604 0.004761457 -0.16383047 0.0043115523 0.21547104 0.1269264
00000000: fbf1 a2bb 2430 1f3c 66e4 75bc 5723 76bb
00000010: 8eb5 7b3c 80a0 893a b89f 623d 7a05 1d3c
00000020: 3ee2 1a3d 3161 583b d0f8 78bc ff05 9c3b
00000030: 2dc3 27be ec47 8d3b 71a4 5c3e fff8 013e

sparse_weighted_adjacency_matrices.pair_attention.embedding.weight f4 [64, 2]
1.3737874e-28 4.471061e-29 1.370487e-28 2.7036652e-28 -1.06335994e-29 1.9941333e-27 -4.976895e-28 -4.8951795e-29
-1.808517e-29 -2.7758366e-28 -3.4163722e-29 4.5208335e-29 1.1356986e-28 -1.5793194e-28 7.372616e-27 -8.375226e-29
1.9642561e-28 -7.914013e-28 -5.738836e-30 -5.49434e-28 1.0311653e-28 -1.2903436e-28 2.2492947e-27 1.6930083e-30
2.816874e-28 -5.1635903e-29 -3.4554363e-28 2.705948e-27 -5.9270536e-29 -2.0929967e-28 1.5391031e-27 -4.2432613e-28
-2.886699e-27 1.1696283e-28 -2.6369091e-28 -2.5905467e-28 3.8545646e-28 7.591901e-28 -3.52877e-29 5.405173e-30
3.7398456e-28 1.693316e-29 1.9366875e-28 -1.6716032e-29 -6.7442437e-32 3.4202443e-28 -7.6151265e-28 2.0794654e-29
-1.1245059e-30 3.1898908e-27 -2.9607665e-28 2.942492e-28 -2.113083e-29 -2.907204e-28 2.2876768e-29 3.5404084e-29
-4.565728e-28 -6.168452e-29 3.462026e-28 5.116785e-30 8.390472e-29 5.5334014e-29 -9.305023e-28 -2.9505841e-28
-3.9357984e-28 -6.750032e-30 2.6574515e-27 -1.8956595e-28 1.7759178e-29 2.8576166e-29 2.05655e-28 1.0333091e-27
5.0624917e-28 -3.0786767e-29 -8.640615e-29 8.180449e-29 2.2463404e-28 5.0168405e-29 -9.289862e-29 -1.8841706e-28
-6.07543e-29 -5.7543386e-29 1.1270229e-27 1.1226385e-27 5.4937754e-30 -2.207495e-28 -1.5064326e-28 -5.6104434e-29
-3.726106e-28 -8.426762e-28 4.130201e-28 -3.3499325e-28 -2.6410877e-28 6.543551e-29 1.11861815e-27 7.7996696e-27
-2.4640673e-28 1.5700667e-28 -1.6123538e-27 -1.8422063e-27 -8.9764995e-29 -6.532804e-29 -1.0064578e-28 1.8147054e-28
1.3131174e-29 1.2023951e-27 -3.7026987e-29 3.5294713e-29 -2.3183104e-27 -9.1355024e-29 -4.646504e-29 1.9986558e-27
1.1573657e-28 2.6754691e-28 2.85907e-28 4.1278538e-29 -2.30908e-27 5.4255207e-27 4.434822e-28 5.653911e-29
-2.9817618e-28 2.898085e-27 -1.3831423e-28 4.827028e-29 8.22958e-29 2.115833e-28 6.967853e-30 7.184002e-28
00000000: f325 2e11 b1b5 6210 d9ba 2d11 7a5d ab11
00000010: ceac 578f d4fd 1d13 5fb9 1d92 1037 7890
00000020: c967 b78f 86f0 af91 0c3b 2d90 c63b 6510
00000030: 87f7 0f11 d833 4891 9b07 1214 5356 d490
00000040: c1ff 7811 1ace 7a92 7bcb e88e 621f 2e92
00000050: 3ab7 0211 0b92 2391 1e35 3213 685a 090e
00000060: 658a b211 9ee9 8290 a903 db91 2563 5613
00000070: c744 9690 d0a8 8491 70e1 f312 6d79 0692
00000080: 36b5 6493 9c44 1411 4c22 a791 0632 a491
00000090: e34f f411 d198 7012 0eee 3290 8742 db0e
000000a0: 770a ed11 ffb8 ab0f 1a81 7511 4d85 a98f
000000b0: 3017 af8b a3c8 d811 3f55 7192 02e2 d20f
000000c0: 2676 b68d acba 7c13 2fa9 bb91 aa80 ba11
000000d0: c54a d68f 1544 b891 7cff e70f 2185 3310
000000e0: 96b1 1092 8b63 9c90 956e db11 bc8f cf0e
000000f0: 47b9 d410 d449 8c10 a871 9392 f703 bb91
00000100: fb75 f991 2ce8 088f 858b 5213 ab4d 7091
00000110: 7619 b40f fce5 1010 6e59 8211 ffbb a312
00000120: d06f 2012 821b 1c90 cc10 db90 2666 cf10
00000130: f560 8e11 5062 7e10 a786 eb90 d5d8 6e91
00000140: cc07 9a90 cbe3 9190 7b95 b212 a1e3 b112
00000150: a0da de0e a7ea 8b91 88f6 3e91 dc3d 8e90
00000160: 872b ec91 0287 8592 2ce4 0212 c353 d491
00000170: 1966 a791 13e6 a510 8b40 b112 067d 1a14
00000180: c72d 9c91 9407 4711 d77c ff92 62f4 1193
00000190: d094 e390 52a0 a590 d92a ff90 8f0a 6611
000001a0: 7a2a 850f f186 be12 c7bf 3b90 28f7 3210
000001b0: ecac 3793 cd9c e790 129b 6b90 8e59 1e13
000001c0: aab6 1211 f893 a911 1037 b511 9b4e 5110
000001d0: b5f1 3693 51ed d613 8d8b 0c12 fb57 8f10
000001e0: dafd bc91 269c 6513 8955 2f91 68c2 7410
000001f0: 07a5 d010 5a1b 8611 2953 0d0f 8cab 6312

sparse_weighted_adjacency_matrices.pair_attention.embedding.bias f4 [64]
-2.9156165e-28 1.9396439e-28 1.5516101e-29 -9.9082e-29 6.464442e-29 5.765209e-29 8.3398e-28 6.228255e-27
5.693735e-28 1.5507696e-28 -4.768237e-29 -4.47863e-28 1.2233368e-29 -5.5222334e-28 -2.5379592e-28 -8.831061e-28
-1.2527856e-29 2.0638277e-29 -1.8312878e-27 -3.5483757e-28 -7.52675e-29 2.4934288e-28 1.9243778e-28 -9.514348e-29
-2.418777e-28 -2.7354602e-28 5.387352e-30 2.5683756e-29 4.6884073e-28 1.4999923e-27 -1.1997012e-28 3.0566988e-28
-3.7511927e-29 9.730544e-29 1.6231336e-28 -1.3006674e-28 -9.143819e-29 -8.317635e-28 -2.6201446e-28 1.0848947e-29
-1.8059529e-28 -1.1949096e-27 1.0640361e-27 -1.15476435e-29 7.6901694e-28 -4.4567764e-29 -2.6810021e-27 5.679324e-28
-4.438426e-28 1.4197312e-29 2.830969e-27 -3.1454282e-29 3.9486432e-28 -2.2567317e-27 -1.6048768e-28 -3.5931138e-28
-9.5162945e-30 -1.324231e-29 -1.6134781e-28 2.0236426e-27 -5.53939e-29 -5.2131807e-27 3.2102065e-29 -3.744948e-30
00000000: 95cc b891 0be1 7511 1a5a 9d0f e533 fb90
00000010: a1e4 a310 592a 9210 3f26 8412 02ba f613
00000020: 1171 3412 5a95 4411 41c7 7190 f7ee 0d92
00000030: 471f 780f ae01 2f92 bedc a091 0aef 8b92
00000040: 5918 7e8f 084c d10f ee16 1193 b0e7 e091
00000050: 67d3 be90 320a 9e11 a1f1 7311 a637 f190
00000060: e74e 9991 6161 ad91 7689 da0e 6c3b 0210
00000070: e194 1412 ebae ed12 8814 1891 c6bd c111
00000080: 4435 3e90 d7b2 f610 b2c1 4d11 12e1 2491
00000090: c7d2 e790 56cc 8392 4712 a691 f40a 5c0f
000000a0: 86ee 6491 4b57 bd92 6f9a a812 cb36 6a8f
000000b0: 11b6 7312 44fc 6190 2f69 5493 26fc 3312
000000c0: caa8 0c92 54fa 8f0f df4a 6013 fe7d 1f90
000000d0: 6646 fa11 f5cb 3293 3b71 4b91 9bbd e391
000000e0: 6d03 418f 014b 868f 5c88 4c91 5954 2013
000000f0: b270 8c90 ef83 ce93 ddc6 2210 c3e9 978e

sparse_weighted_adjacency_matrices.pair_attention.query.weight f4 [64, 64]
-3.5361112e-29 5.4495117e-30 -2.9101202e-29 -6.422775e-29 1.3684333e-29 4.6611158e-29 -2.1564827e-29 7.062939e-30
2.6406504e-29 1.0476006e-29 4.4225322e-29 -2.9017297e-29 3.4678483e-30 4.8807552e-29 -4.528509e-31 2.3714646e-29
-2.4403359e-29 -5.0271267e-29 4.020542e-29 6.5003037e-29 1.2656674e-29 1.2966785e-29 3.761651e-29 7.9630914e-30
-7.76879e-30 8.1293285e-30 -3.6253118e-29 7.4687196e-31 7.3614895e-30 -4.963703e-29 -1.2349225e-29 2.440225e-29
8.02731e-30 -2.4536165e-29 3.222271e-30 2.6942346e-29 -4.398829e-30 2.0893054e-29 -5.5568237e-29 9.023005e-30
8.289647e-31 3.2221855e-29 3.6357185e-29 2.586968e-29 -3.5195717e-29 4.5219985e-30 -9.953961e-30 -6.524652e-30
1.4882387e-29 1.4883119e-29 9.631888e-30 -7.8935846e-29 -2.5929713e-29 9.0555745e-29 9.798486e-30 -2.1626335e-29
-3.2432468e-29 2.4319748e-29 3.0576157e-29 1.1318032e-29 -3.4614697e-29 1.17368465e-29 -1.8618528e-29 8.835772e-30
4.4816228e-30 6.304737e-29 -8.016773e-30 -8.099369e-29 1.7575751e-29 2.1676339e-29 -2.7334155e-29 6.0425516e-29
-5.267219e-29 4.6442064e-29 -9.670805e-29 -6.1540257e-29 4.9563476e-29 -1.6100889e-29 -1.978266e-29 -5.591322e-29
-6.943211e-29 -1.8259908e-31 4.5244644e-29 4.6791352e-30 7.522747e-29 -7.86123e-30 3.5989278e-29 -4.2272095e-29
-3.0077648e-29 -2.4123329e-29 6.77641e-29 -3.0940176e-29 1.8945318e-30 3.0311324e-29 -5.276436e-29 1.8924681e-29
-2.7879735e-29 5.430481e-29 5.8966775e-29 8.912677e-30 3.1514118e-29 -5.2699293e-29 2.7126883e-29 1.486186e-29
-3.9988228e-29 -3.4143885e-29 1.1580862e-28 8.5200836e-29 5.6742765e-29 4.8535637e-29 -3.5185386e-29 -5.8867602e-30
-9.252939e-30 8.340328e-29 4.6287806e-29 2.743939e-29 1.00903183e-28 1.5591632e-29 -6.060482e-29 -4.9201452e-29
-5.823142e-29 -6.994813e-29 1.0772355e-28 4.219817e-29 -1.0904232e-29 -1.0783739e-32 1.6581792e-30 1.0428877e-28
-1.2307103e-30 5.812006e-29 -4.1620014e-29 2.54387e-29 2.5345798e-29 -2.7076306e-29 1.6370733e-29 1.08737486e-29
-1.0943385e-29 -2.3167e-29 -3.357798e-30 -1.3301268e-30 -5.5910234e-29 2.6678457e-29 7.178478e-30 -3.5007337e-29
-7.8410627e-29 6.9952014e-29 6.750681e-30 -4.9232175e-30 -2.8119715e-29 -2.5727752e-29 2.9374323e-29 -1.16914375e-29
-7.777049e-29 -9.318646e-30 7.893108e-29 -2.7423187e-29 8.991061e-30 8.5717815e-30 -3.4259345e-30 -5.13557e-29
1.6443567e-29 9.68002e-30 -1.5683532e-29 -5.1640917e-29 2.8898477e-29 -1.954831e-29 1.19091924e-29 1.6420215e-29
9.878401e-30 -1.8058786e-29 -3.7502713e-29 5.893636e-29 -5.6701446e-30 7.552647e-30 -3.2421443e-30 1.0332735e-29
-3.7476057e-29 6.025404e-29 1.6222502e-29 -2.1789039e-29 -8.8457144e-29 -9.7807705e-30 -1.9656551e-29 5.7831083e-30
5.3084257e-29 2.9401707e-29 3.9923658e-29 -1.0527364e-29 2.880353e-29 4.308817e-31 -6.411447e-30 7.027593e-29
-2.3506912e-29 -6.0550135e-30 3.1160442e-29 -5.537724e-30 -5.1321856e-29 1.7338493e-30 2.9986227e-29 -2.3418046e-29
1.2511855e-29 -4.220913e-29 -3.8208064e-29 -5.198524e-29 1.0141713e-30 1.7205086e-29 -6.938252e-30 -1.6874142e-29
-9.942282e-30 3.136423e-29 3.1837683e-29 3.1233593e-31 4.4813793e-29 1.8205596e-29 -4.2253308e-29 -1.1999756e-29
5.2428116e-29 -1.2487927e-29 1.0611119e-29 6.980511e-30 1.7842879e-29 3.682372e-29 1.1473143e-30 -8.872806e-29
-2.4891564e-29 -1.8953147e-29 -9.792905e-30 1.4884923e-29 -3.0739656e-29 -4.8215665e-29 1.8212414e-29 -9.253254e-30
2.1235352e-29 -8.9399856e-29 -2.1772587e-29 5.5350155e-30 1.6081983e-29 -1.5591367e-29 -4.6501007e-29 3.2071864e-29
-3.5832432e-29 6.7711454e-29 3.1959778e-29 -3.938044e-30 2.397102e-30 -5.3977846e-29 -4.3558363e-30 -1.8401322e-30
2.6281102e-29 3.3189587e-29 -1.5221321e-29 -3.120093e-29 -3.0290707e-29 4.352668e-29 -2.7050405e-29 3.4586404e-29
00000000: 594d 3390 f70e dd0e 858f 1390 31d6 a290
00000010: 8fc6 8a0f be58 6c10 7eb1 da8f e040 0f0f
00000020: 9ae5 0510 887a 540f c03f 6010 9b22 1390
00000030: 32ac 8c0e d37b 7710 62f5 128d be7e f00f
00000040: be7a f78f d6e7 7e90 9edd 4b10 62cd a410
00000050: 9b5a 800f b37f 830f 06bd 3e10 bc82 210f
00000060: dd91 1d8f e3e1 240f 3dd3 3790 b25f 720d
00000070: 0a4f 150f 8cb0 7b90 d878 7a8f dd77 f70f
00000080: 2dd0 220f 87d3 f88f fab5 820e 2a9d 0810
00000090: 0d70 b28e 78e1 d30f d9e1 8c90 1f02 370f
000000a0: d981 860d 5c62 2310 535a 3810 c42c 0310
000000b0: a776 3290 1e6f b70e ece3 498f ee55 048f
000000c0: e3ec 960f c9ee 960f 9f5b 430f 4b20 c890
000000d0: b17a 0390 0a96 e510 a6bc 460f 2d51 db8f
000000e0: c073 2490 ada1 f60f 1f0a 1b10 958e 650f
000000f0: 7284 2f90 310d 6e0f 76d0 bc8f f435 330f
00000100: d5cb b50e 15d8 9f10 7799 228f e957 cd90
00000110: 423d b20f fed2 db0f c399 0a90 6732 9910
00000120: 358a 8590 3f7d 6b10 1d2f f590 e905 9c90
00000130: 1251 7b10 4c48 a38f b99e c88f c1c1 8d90
00000140: 0408 b090 f406 6d8c e86a 6510 ebce bd0e
00000150: 6bb9 be10 d771 1f8f c17c 3610 5158 5690
00000160: 0583 1890 bea3 f48f 6acd ab10 a5e2 1c90
00000170: e3b3 190e 59b2 1910 07c6 8590 48eb bf0f
00000180: f75d 0d90 d6ad 8910 a07f 9510 44c5 340f
00000190: aacb 1f10 cc9b 8590 b58c 0910 98b7 960f
000001a0: b0c3 4a90 4c21 2d90 0cce 1211 8102 d810
000001b0: 29dc 8f10 dc1a 7610 3e69 3290 9dcb ee8e
000001c0: 02ac 3b8f d373 d310 02b5 6a10 5d22 0b10
000001d0: e9d1 ff10 311e 9e0f c7a6 9990 237b 7990
000001e0: 5aa2 9390 ef56 b190 4a8e 0811 5bf8 5510
000001f0: 022a 5d8f 31f8 5f8a 0987 060e a433 0411
00000200: b5b1 c78d 135a 9310 de09 5390 52fd 0010
00000210: ba84 0010 0e4b 0990 da04 a60f bb8b 5c0f
00000220: 4ef5 5d8f f8f0 ea8f 5e35 888e 4ed3 d78d
00000230: d1bf 8d90 9e46 0710 ca98 110f 1f82 3190
00000240: 68cb c690 7459 b110 8aeb 080f 9db5 c78e
00000250: 7a95 0e90 8874 0290 0df2 1410 6a21 6d8f
00000260: ef2b c590 2d01 3d8f 331d c810 550d 0b90
00000270: 425c 360f 3cdb 2d0f f0f8 8a8e c133 8290
00000280: f1c1 a60f 8a55 440f c70c 9f8f dfec 8290
00000290: 5e88 1210 503e c68f 108c 710f 5185 a60f
000002a0: 975b 480f 4a23 b78f 4e29 3e90 e26b 9510
000002b0: 2602 e68e 962f 190f 5a84 838e a192 510f
000002c0: b406 3e90 1cc3 9810 0684 a40f 94f7 dc8f
000002d0: f843 e090 aa60 468f 5357 c78f 3b97 ea0e
000002e0: a795 8610 9915 1510 df6f 4a10 3385 558f
000002f0: 1f0d 1210 40d4 0b0d 230a 028f b02b b210
00000300: 6f63 ee8f db9e f58e 9100 1e10 04a3 e08e
00000310: ca1d 8290 a4aa 0c0e 590c 1810 b97c ed8f
00000320: 44c5 7d0f 9506 5690 e7bc 4190 5acc 8390
00000330: 078f a40d f57a ae0f 77b9 0c8f c71f ab8f
00000340: 48a7 498f 1909 1f10 ad6f 2110 b5b7 ca0c
00000350: a13b 6310 6ea0 b80f ee3f 5690 4c62 738f
00000360: cbeb 8410 0649 7d8f 1438 570f e394 0d0f
00000370: c3f2 b40f ecb7 3a10 9229 ba0d cef3 e090
00000380: 326e fc8f 2f35 c08f ab9f 468f 78f3 960f
00000390: 5bde 1b90 837b 7490 21b2 b80f a4ad 3b8f
000003a0: 205a d70f d3a7 e290 decc dc8f e386 e00e
000003b0: 3717 a30f 811d 9e8f c2c9 6b90 a99f 2210
000003c0: 28b1 3590 3fab ab10 2a0e 2210 fdbe 9f8e
000003d0: dc79 420e a0d9 8890 97b1 b08e 0d4a 158e
000003e0: d242 0510 8c4a 2810 cf5c 9a8f 1f35 1e90
000003f0: 9697 1990 dcb4 5c10 6f29 0990 b85f 2f10

sparse_weighted_adjacency_matrices.pair_attention.query.bias f4 [64]
5.048791e-29 -5.0335633e-29 2.1637507e-29 3.8232625e-30 -7.930467e-29 1.1647076e-28 4.582954e-29 3.2668987e-29
2.4943236e-30 -3.764068e-29 1.5052355e-29 -2.974822e-29 5.378739e-29 5.0236026e-29 -2.4731258e-29 -3.3924976e-29
-1.6825765e-30 -5.832229e-29 2.9113272e-29 -6.7023e-29 1.8114646e-29 -6.585045e-30 4.8572696e-29 1.7447016e-29
-1.5248522e-29 -1.55784e-29 -5.8945776e-29 5.336688e-29 5.13322e-29 -6.075044e-29 4.7244875e-30 2.3424544e-29
-1.3500796e-29 1.5776446e-29 3.518227e-29 2.3254716e-29 -2.9134735e-30 -2.038139e-29 3.180252e-29 1.2101738e-29
-2.1651908e-29 1.526032e-29 -4.4449188e-30 -6.2440484e-29 2.6113362e-29 -1.0949055e-29 -2.5892933e-29 -2.4245663e-29
-7.5113036e-30 4.315453e-29 8.670927e-30 -2.9121653e-29 -3.7986145e-29 -4.7529718e-29 -1.7899263e-29 -4.2611134e-29
3.687958e-29 3.6672517e-29 -4.9862687e-29 -2.431787e-29 -1.0305365e-29 -4.97601e-30 -5.656864e-29 -2.8921293e-29
00000000: 8700 8010 633b 7f90 2e6e db0f 0717 9b0e
00000010: ac0f c990 eca4 1311 2562 6810 c5a6 2510
00000020: 135d 4a0e 65dc 3e90 26a6 980f 66d7 1690
00000030: 035e 8810 17ba 7e10 04ce fa8f 2305 2c90
00000040: bf81 088e 55dd 9390 309f 1310 6aec a990
00000050: 4fb4 b70f 828f 058f f74a 7610 0bef b00f
00000060: 6da3 9a8f d7fb 9d8f ff71 9590 164d 8710
00000070: 8124 8210 4a05 9a90 e2a5 bf0e 988d ed0f
00000080: 12ea 888f fffd 9f0f 3365 3210 b2d4 eb0f
00000090: 7a5e 6c8e 1db1 ce8f 0842 2110 d173 750f
000000a0: 9193 db8f 0ec2 9a0f ad4e b48e 314e 9e90
000000b0: 1569 0410 be12 5e8f f34a 0390 57e1 f58f
000000c0: eb58 188f c8d1 5a10 07de 2f0f 11aa 1390
000000d0: d69c 4090 1a01 7190 2585 b58f 6a10 5890
000000e0: 6f00 3b10 a6f3 3910 78d5 7c90 cd9c f68f
000000f0: 8404 518f d8d9 c98e 256b 8f90 fca5 1290

sparse_weighted_adjacency_matrices.pair_attention.key.weight f4 [64, 64]
-7.986866e-30 -7.673194e-30 1.5582194e-29 -4.2522842e-29 -3.5829e-31 -5.4274036e-29 -4.7281667e-29 1.551106e-29
6.031576e-29 -3.4382598e-29 7.171184e-29 -7.150526e-29 -2.850444e-29 -7.5648404e-29 5.490736e-29 -2.662083e-29
2.921633e-29 -1.3559122e-29 3.8962553e-29 -6.188899e-29 4.6136588e-29 -1.7128202e-29 2.1811874e-29 -4.2476686e-29
4.6568847e-30 -1.5504052e-29 -3.0687822e-29 3.0322994e-29 4.5493092e-29 5.5906304e-30 -3.3903346e-29 -2.6806537e-29
-1.01225975e-29 2.0992552e-29 -3.9055717e-29 -2.4692877e-29 -2.328585e-29 -4.784929e-29 2.7811418e-30 1.9367833e-29
2.5571664e-29 9.944471e-30 -1.13824664e-29 -1.4252947e-29 1.09525334e-29 1.2130818e-29 -6.630211e-29 -6.452521e-29
-4.686907e-29 1.4742926e-29 3.5815938e-29 3.1273642e-29 -2.9886457e-29 7.7648816e-30 -5.432452e-30 1.2757607e-28
-8.2356664e-29 8.449614e-30 8.823929e-29 -1.8935773e-29 -8.8614655e-29 -3.19178e-29 2.2443328e-29 2.3142563e-29
-1.1432309e-29 3.2385616e-29 6.4262793e-29 7.155536e-30 1.192249e-31 9.700051e-31 -1.9230319e-29 -1.0210071e-29
4.188919e-29 -5.1479114e-29 -3.9121237e-29 -4.248532e-29 -5.2139034e-29 -1.7796085e-29 3.0324655e-29 3.5252438e-29
-9.3725014e-29 -1.6484423e-29 -1.7087648e-30 -2.5348178e-29 -2.2159773e-29 -5.0279928e-29 8.746621e-29 7.129406e-30
1.7183893e-29 -7.6524855e-30 8.8294036e-29 -1.7688834e-29 -6.260383e-29 -3.8166054e-29 2.8331438e-30 -3.206458e-29
-3.8890514e-30 7.260954e-29 3.3137695e-29 6.755165e-29 4.3090275e-29 7.0071825e-29 1.207353e-29 8.9086094e-30
9.735387e-30 3.0146136e-29 -1.0993551e-29 -3.2929334e-29 2.8513378e-29 2.5413247e-29 -6.918786e-29 2.6684864e-29
5.260542e-29 1.1410496e-28 -8.238481e-29 2.407514e-30 -1.8683308e-29 -2.3450845e-29 -1.1926931e-29 3.8162807e-29
2.8205968e-30 -3.9854084e-29 4.2134396e-31 -3.258037e-29 -9.2648076e-29 2.2546913e-29 -3.931221e-29 9.829e-30
3.8623893e-29 -1.5485602e-29 -5.9855826e-29 -2.4019923e-29 9.520698e-29 -2.5306859e-30 2.78147e-29 -3.6640664e-29
1.7770354e-29 -1.4353047e-29 -8.8341757e-29 4.4172324e-30 -1.7414394e-29 -2.2257775e-30 -2.2860761e-29 -8.129697e-30
2.0180556e-29 1.4618488e-29 6.449379e-29 9.635578e-30 2.314151e-29 1.6787934e-30 -7.1917986e-30 -5.281207e-29
6.023892e-29 -3.1871e-30 -1.6497909e-29 -1.3691203e-29 -1.5866932e-29 3.859125e-29 8.737204e-30 6.0786333e-30
1.05415324e-29 4.0989835e-29 -3.7887974e-29 2.0676233e-29 -4.9698645e-30 4.7835514e-30 2.8368724e-30 -3.9484642e-29
9.829817e-29 2.885791e-29 1.7642928e-29 -1.0786151e-29 2.6095165e-29 1.07995386e-29 -3.1643914e-29 4.030177e-29
-3.395537e-29 1.8991749e-29 4.9270467e-29 -2.7961966e-29 -2.1206892e-29 3.324871e-29 2.3307866e-29 7.499439e-30
-1.1742659e-29 2.898242e-29 -3.710927e-29 -2.2251855e-29 -1.2128575e-28 -4.1840647e-30 -7.80344e-31 1.0499218e-29
-2.0318653e-29 5.9782575e-29 -2.8500242e-29 7.173491e-30 -1.532074e-29 1.4980098e-29 -1.8453412e-29 9.710546e-30
-2.0662732e-29 -1.706873e-29 -3.8665e-29 3.720967e-29 -5.0320063e-29 4.0961045e-29 1.2572525e-29 -4.1765137e-30
1.4139297e-29 -9.9984345e-30 9.433946e-29 6.856346e-30 -4.197128e-29 -1.0137552e-29 4.0253702e-29 -5.75134e-29
6.3790405e-29 3.8299396e-30 -4.7213532e-29 4.5133675e-30 -6.514006e-30 3.6002092e-29 7.605719e-30 -5.1117834e-29
6.051142e-30 1.9792661e-31 8.226466e-30 2.2700656e-29 5.120038e-29 -2.0658349e-29 -3.9039014e-31 -1.584885e-29
9.35756e-30 -2.4734443e-29 9.033184e-30 2.5574983e-29 3.9672086e-29 2.1159035e-29 -4.5828857e-29 1.5728802e-29
-2.9764491e-30 -3.012065e-29 1.6629681e-29 -7.0948527e-29 -2.7541936e-29 5.854393e-31 -4.9328443e-29 1.9858628e-29
-8.244258e-30 1.23149595e-29 -5.1100796e-29 -3.4519457e-29 -3.4720214e-29 9.313603e-30 -1.800972e-29 3.580644e-29
00000000: 2efe 218f 80a1 1b8f b005 9e0f ce9d 5790
00000010: 238b e88c dd99 8990 1dbf 6f90 044d 9d0f
00000020: 2beb 9810 2a57 2e90 a5cf b510 9149 b590
00000030: e188 1090 9fca bf90 ea34 8b10 d0fb 0690
00000040: f724 1410 7e81 898f 4990 4510 40e8 9c90
00000050: b7f0 6910 5bb3 ad8f dd32 dd0f e461 5790
00000060: dbe7 bc0e d23a 9d8f 129b 1b90 7fc1 1910
00000070: 69ad 6610 6dc8 e20e 0fe9 2b90 e0ec 0790
00000080: 884f 4d8f c8e3 d40f 3809 4690 606a fa8f
00000090: 8625 ec8f ee9f 7290 0ea2 610e c569 c40f
000000a0: eba9 0110 a5b2 490f 25dd 668f c48a 908f
000000b0: ce24 5e0f cf0a 760f 8818 a890 4197 a390
000000c0: 88a7 6d90 d382 950f bf9b 3510 8293 1e10
000000d0: d78a 1790 927d 1d0f cf5d dc8e cdb8 2111
000000e0: 88cc d090 e760 2b0f 93b6 df10 1408 c08f
000000f0: 33aa e090 acd7 2190 369a e30f 87b1 ea0f
00000100: f1df 678f ef36 2410 f0ec a210 ab21 110f
00000110: 45c3 1a0c 6f64 9d0d c304 c38f b815 4f8f
00000120: 4767 5410 db83 8290 455e 4690 196d 5790
00000130: 2b30 8490 4779 b48f a7c3 1910 48c0 3210
00000140: 039f ed90 022c a78f a8a1 0a8e d187 0090
00000150: 0fba e08f 14f3 7e90 d1c0 dd10 fe99 100f
00000160: f043 ae0f fa35 1b8f 1bda df10 d762 b38f
00000170: 35b8 9e90 5f86 4190 18da 650e 3496 2290
00000180: 38c2 9d8e 4916 b810 3007 2810 8743 ab10
00000190: 607e 5a10 37a7 b110 5ae1 740f 25b0 340f
000001a0: 0575 450f ecdb 1810 c8f9 5e8f b8f8 2690
000001b0: 7b94 1010 48dc 0010 7d69 af90 ef4e 0710
000001c0: df5e 8510 2da5 1011 ccde d090 1c52 430e
000001d0: a478 bd8f e0d1 ed8f 2be8 718f 2882 4110
000001e0: 81d5 640e 8f15 4a90 e3bb 080d bd33 2590
000001f0: 0ae4 ea90 22a7 e40f 2b56 4790 165b 470f
00000200: aed8 4310 ec0a 9d8f a7c0 9790 4997 f38f
00000210: dd60 f110 4a50 4d8e 8b09 0d10 4dca 3990
00000220: 7a36 b40f a48e 918f 14f9 df90 2a2f b30e
00000230: 5a9a b08f 9793 348e eed5 e78f cde3 248f
00000240: b8a7 cc0f c43f 940f dd82 a310 c86e 430f
00000250: cbae ea0f 2d33 080e f4dd 118f fee4 8590
00000260: 4bb9 9810 bd48 818e 054f a78f 65d8 8a8f
00000270: e9e8 a08f 4eae 4310 2836 310f 2394 f60e
00000280: c4ce 550f d9d7 4f10 671d 4090 92ae d10f
00000290: 069a c98e 3d0b c20e 8927 660e ff35 4890
000002a0: 2937 f910 b553 1210 a9eb b20f e6c4 5a8f
000002b0: 7651 0410 690a 5b0f 2674 2090 b05a 4c10
000002c0: 972c 2c90 6699 c00f b9d4 7910 b5c8 0d90
000002d0: 3d10 d78f 4b97 2810 ae5e ec0f 501b 180f
000002e0: 5f2b 6e8f 55f5 1210 962a 3c90 1ea9 e18f
000002f0: 7abf 1991 d0b9 a98e 713c 7d8d 0ef3 540f
00000300: 3d0e ce8f 1c91 9710 6e83 1090 e57e 110f
00000310: ea5e 9b8f 8fea 970f cc23 bb8f 0af4 440f
00000320: 858b d18f f518 ad8f 0a0e 4490 eaac 3c10
00000330: 2d27 7f90 7ab2 4f10 4800 7f0f 666b a98e
00000340: b763 8f0f d7ca 4a8f cf2d ef10 2f10 0b0f
00000350: d6d1 5490 2e9d 4d8f 4b1c 4c10 55d0 9190
00000360: 57ba a110 5e5c 9b0e ab66 6f90 7d15 b70e
00000370: a71e 048f 638d 3610 2743 1a0f 5f99 8190
00000380: a776 f50e 3376 800c 41da 260f 4636 e60f
00000390: f2ce 8110 2480 d18f b060 fd8c f8b9 a08f
000003a0: 3bcb 3d0f 49d6 fa8f f936 370f 3aae 0110
000003b0: 5029 4910 ff93 d60f 4261 6890 4e82 9f0f
000003c0: 6e7a 718e d7ba 1890 1fa5 a80f 3ae0 b390
000003d0: 7aa7 0b90 65fc 3d0d fb1f 7a90 f263 c90f
000003e0: a336 278f edc6 790f 508e 8190 d108 2f90
000003f0: 6a0d 3090 fee6 3c0f e8a3 b68f 6b8f 3510

sparse_weighted_adjacency_matrices.pair_attention.key.bias f4 [64]
-1.262602e-30 6.3085214e-29 3.8807895e-30 -8.480906e-30 3.7976696e-29 -1.2071844e-29 -4.722958e-30 4.7051074e-30
-1.6741244e-29 -3.9995092e-29 2.2519092e-29 7.639802e-30 -2.6055762e-29 2.3804187e-29 -6.1051726e-29 -1.6853195e-29
4.253434e-30 1.06854746e-29 1.18912866e-29 -3.4484594e-29 -2.8760922e-30 -1.7410226e-30 3.000414e-30 6.930895e-30
-3.6352328e-29 8.509032e-30 2.677591e-29 -3.259372e-29 1.0271026e-29 -7.668e-30 -2.437188e-30 -2.3572072e-30
-2.8091316e-29 2.9253849e-30 5.569629e-29 4.4919476e-30 9.678004e-29 -8.5128276e-29 -1.8557218e-29 5.8865375e-29
6.104462e-29 7.168859e-30 -4.6988956e-29 1.7534108e-30 -3.1244954e-29 -4.2262438e-29 7.5085185e-30 -2.6459925e-30
-7.622078e-30 4.4451107e-29 7.55255e-30 -9.180435e-30 1.7137421e-29 -6.4077447e-29 7.711927e-30 -3.838583e-29
-3.57482e-29 4.3287547e-29 -1.8505286e-29 6.4909286e-30 -1.4699558e-29 3.896531e-29 4.9359547e-29 -2.3945095e-29
00000000: 6fde cc8d a5f0 9f10 6c6c 9d0e 6203 2c8f
00000010: 9290 4010 99d8 748f 0096 bf8e a1dc be0e
00000020: c1c6 a98f 99cc 4a90 e85e e40f 1ff4 1a0f
00000030: 501e 0490 3467 f10f d6c8 9a90 65e9 aa8f
00000040: 2f8a ac0e 28ba 580f 172f 710f 90db 2e90
00000050: 1956 698e a03f 0d8e 296c 730e 4493 0c0f
00000060: 0554 3890 6c95 2c0f 1ec5 0710 1145 2590
00000070: 3752 500f 8886 1b8f 6aba 458e 473d 3f8e
00000080: 9d70 0e90 de55 6d0e f534 8d10 0d37 b60e
00000090: d65d f510 69d3 d790 4b31 bc8f d03d 9510
000000a0: 39c4 9a10 d866 110f 2743 6e90 eb40 0e0e
000000b0: 456e 1e90 c84b 5690 754a 180f 1dab 568e
000000c0: 1798 1a8f d664 6110 152f 190f 8b33 3a8f
000000d0: 4acb ad0f a474 a290 9d6a 1c0f a8a3 4290
000000e0: d143 3590 737e 5b10 78aa bb8f d4a6 030f
000000f0: 3c12 958f dd93 4510 5b48 7a10 05d5 f28f

sparse_weighted_adjacency_matrices.pair_attention.edge_query.weight f4 [16, 16]
-0.22671631 -0.07680583 0.13279995 -0.15096572 0.19134587 0.00074625015 -0.18855539 -0.0712598
-0.046542227 -0.16462365 0.1797733 0.04704833 -0.2437365 -0.114491105 -0.047260314 -0.10619792
0.16158745 -0.13242856 -0.04529932 0.1266846 0.21285796 0.21630803 -0.24022761 0.21223456
-0.23938248 -0.1722363 0.18414658 -0.12808359 -0.1436105 -0.22247887 -0.21795341 0.09688133
-0.12585938 -0.19656458 0.07600623 -0.123657346 0.13560137 0.08350158 0.08455846 0.029593349
0.21005729 0.09610778 -0.070845634 0.23001596 0.05255434 0.013785809 0.031248063 0.18920353
-0.09039825 -0.2002098 -0.20669708 -0.04430318 0.23615184 0.113353044 0.15336052 -0.04348415
0.14569798 -0.07959238 -0.018756032 0.039374292 -0.029101789 0.12021983 -0.056109935 0.10251966
-0.12221363 0.026057005 -0.10149294 -0.13643283 -0.01925823 -0.1536178 0.060074955 -0.23318899
0.13128349 0.06442127 0.19180164 -0.06489846 0.049387634 0.028882056 0.033637464 0.13047656
-0.22719508 0.03050515 -0.11776301 -0.084766895 -0.16775537 0.013983846 0.033137262 -0.24664956
-0.24767679 -0.069327 -0.21649492 0.17410347 0.1416496 0.08482391 -0.23588154 0.16400301
-0.0763472 -0.031615824 0.15269905 -0.040947586 -0.17694545 0.19040638 -0.1903601 -0.17514056
-0.011168659 0.22372112 0.12613308 0.11725968 -0.04641545 0.14662239 0.17342508 0.20683467
0.12315628 0.14772007 0.10549885 -0.03509292 0.06000173 0.20366022 -0.15031108 0.23771274
-0.22708741 -0.1797227 -0.046266258 -0.08937588 -0.23311332 -0.18623993 0.24108407 -0.14291495
-0.025099248 -0.10056108 0.027293354 -0.23296025 0.033893675 0.17087436 -0.21784565 0.13763627
-0.20583552 0.22909752 0.05085057 -0.04192701 -0.09235042 -0.09061003 0.0264934 -0.24704719
-0.013363779 -0.06699622 -0.037618548 0.1403141 -0.20857051 -0.09791228 -0.22637588 -0.2413806
-0.16761407 0.076595396 0.17751572 0.22593793 -0.09275493 0.07967684 -0.1688185 0.009681195
-0.2088556 -0.16521862 0.15143123 0.038778067 0.09852365 0.09224054 -0.15978757 -0.034193397
-0.16512248 -0.18826327 -0.11206797 -0.19906574 0.06059864 0.1964063 -0.046277165 0.12019262
0.17925441 -0.0033254623 0.054127485 0.11456147 -0.036601573 0.04013872 0.21874815 -0.0361093
0.16609812 0.02403158 0.13493118 -0.16006598 -0.17774454 0.23284891 0.20545599 0.12589988
-0.21282008 -0.15500918 0.14284441 0.2414869 -0.050608784 -0.16197833 0.13343716 0.22418424
-0.23275697 -0.14134678 0.15899014 -0.066821605 0.122755975 0.23626137 -0.14410996 -0.028283715
0.12143996 0.067207485 -0.12562823 0.15705615 0.09573564 0.18963465 0.21463096 -0.17210627
0.017449975 0.15427157 0.14918298 -0.016996473 0.16939205 -0.15618822 0.18569556 -0.074573606
0.011601955 -0.019501418 0.07432914 0.036352187 0.19820616 -0.036878437 0.036616445 -0.24572033
-0.068802 -0.12643656 0.02791372 0.013235509 0.009790391 0.04612294 0.10352346 0.074411005
0.1673879 0.2301476 -0.06283042 0.19072026 0.16039819 0.0018743277 0.20860368 -0.19078007
0.11488727 -0.09032291 0.15652409 0.23420593 -0.14796916 -0.025283366 0.21483919 0.09125686
00000000: 5228 68be 604c 9dbd b6fc 073e c296 1abe
00000010: 2cf0 433e 00a0 433a aa14 41be a8f0 91bd
00000020: 10a3 3ebd 1a93 28be 7e16 383e c0b5 403d
00000030: 1096 79be 507a eabd 0894 41bd 4c7e d9bd
00000040: 2e77 253e 5a9b 07be c88b 39bd 9cb9 013e
00000050: 70f7 593e da7f 5d3e 3afe 75be 0454 593e
00000060: ae20 75be b65e 30be ec90 3c3e 5828 03be
00000070: a20e 13be 80d1 63be 2e2f 5fbe b869 c63d
00000080: 48e1 00be 3a48 49be 28a9 9b3d 1040 fdbd
00000090: 16db 0a3e e002 ab3d fc2c ad3d c06d f23c
000000a0: 4219 573e 28d4 c43d 8417 91bd 4e89 6b3e
000000b0: 3843 573d e0dd 613c f0fb ff3c 92be 413e
000000c0: b822 b9bd cc03 4dbe 66a8 53be 4077 35bd
000000d0: cad1 713e a425 e83d 8a0a 1d3e 701c 32bd
000000e0: da31 153e 5401 a3bd 40a6 99bc f046 213d
000000f0: e066 eebc d035 f63d 88d3 65bd d4f5 d13d
00000100: 244b fabd 8075 d53c 88db cfbd 0cb5 0bbe
00000110: 70c3 9dbc fc4d 1dbe 2811 763d 18c9 6ebe
00000120: 2e6f 063e 4cef 833d a667 443e 7ce9 84bd
00000130: b04a 4a3d 109a ec3c 70c7 093d a69b 053e
00000140: d4a5 68be f0e5 f93c bc2d f1bd 449a adbd
00000150: 10c8 2bbe 801c 653c f0ba 073d b491 7cbe
00000160: fc9e 7dbe 50fb 8dbd d8b0 5dbe 2e48 323e
00000170: 980c 113e 28b8 ad3d ee8a 71be 68f0 273e
00000180: ec5b 9cbd 987f 01bd 245d 1c3e a8b8 27bd
00000190: 3031 35be e4f9 423e c2ed 42be 0c58 33be
000001a0: c0fc 36bc 2617 653e 0829 013e d825 f03d
000001b0: 201e 3ebd 2e24 163e 5896 313e 78cc 533e
000001c0: 5c39 fc3d ee43 173e c80f d83d 98bd 0fbd
000001d0: 60c4 753d 4e8c 503e 26eb 19be f86a 733e
000001e0: 9a89 68be 3a09 38be b081 3dbd b40a b7bd
000001f0: 42b5 6ebe aeb5 3ebe bede 763e 4c58 12be
00000200: f09c cdbc f8f2 cdbd 5096 df3c 228d 6ebe
00000210: 18d4 0a3d b0f9 2e3e ee12 5fbe 86f0 0c3e
00000220: 8cc6 52be 8a98 6a3e b048 503d a8bb 2bbd
00000230: 3822 bdbd c091 b9bd b008 d93c f0f9 7cbe
00000240: c0f3 5abc 5035 89bd e815 1abd 80ae 0f3e
00000250: 8293 55be 3c86 c8bd 14cf 67be 7a2c 77be
00000260: 06a3 2bbe 0cde 9c3d aec6 353e 465c 673e
00000270: 4cf6 bdbd 9c2d a33d c2de 2cbe e09d 1e3c
00000280: 3ede 55be 122f 29be ca10 1b3e c0d5 1e3d
00000290: c4c6 c93d 9ce8 bc3d 5a9f 23be 600e 0cbd
000002a0: de15 29be 16c8 40be e483 e5bd e4d7 4bbe
000002b0: 4836 783d bc1e 493e 208d 3dbd 8c27 f63d
000002c0: 788e 373e 00f0 59bb c8b4 5d3d 349f ea3d
000002d0: 88eb 15bd 8068 243d 84ff 5f3e 58e7 13bd
000002e0: a015 2a3e e0dd c43c 662b 0a3e 56e8 23be
000002f0: aa02 36be f26f 6e3e 0e63 523e e6eb 003e
00000300: 82ed 59be baba 1ebe ce45 123e 5848 773e
00000310: 284b 4fbd a6dd 25be c0a3 083e 8e90 653e
00000320: d857 6ebe 36bd 10be 50ce 223e c4d9 88bd
00000330: 7c67 fb3d 80ee 713e 9091 13be 40b3 e7bc
00000340: 84b5 f83d 14a4 893d b0a4 00be 54d3 203e
00000350: 0c11 c43d 962f 423e 38c8 5b3e a03c 30be
00000360: 40f3 8e3c 5ef9 1d3e 6cc3 183e 303c 8bbc
00000370: 1c75 2d3e ceef 1fbe fa26 3e3e 0cba 98bd
00000380: 2016 3e3c 70c1 9fbc e039 983d 08e6 143d
00000390: 8ef6 4a3e d80d 17bd 20fb 153d 1c9e 7bbe
000003a0: 10e8 8cbd 9678 01be 50ab e43c c0d9 583c
000003b0: e067 203c 68eb 3c3d 1c04 d43d cc64 983d
000003c0: bc67 2b3e d0ab 6b3e 3cad 80bd 2c4c 433e
000003d0: 6c3f 243e 00ac f53a 349c 553e da5b 43be
000003e0: 044a eb3d 38fb b8bd da47 203e aed3 6f3e
000003f0: 3a85 17be 101f cfbc cefe 5b3e e0e4 ba3d

sparse_weighted_adjacency_matrices.pair_attention.edge_query.bias f4 [16]
0.084243506 -0.11500496 0.20823887 0.034383893 0.15268016 0.15766984 -0.0015708208 0.07819888
-0.23461372 0.18824941 0.028322577 -0.10923585 -0.045606107 -0.14685118 0.028889328 0.1672315
00000000: dc87 ac3d b887 ebbd 923c 553e 20d6 0c3d
00000010: 3058 1c3e 3474 213e 00e4 cdba bc26 a03d
00000020: 943e 70be 74c4 403e c004 e83c 0cb7 dfbd
00000030: 78cd 3abd 2860 16be 50a9 ec3c bc3e 2b3e

sparse_weighted_adjacency_matrices.pair_attention.edge_key.weight f4 [16, 16]
-0.22812673 -0.18419749 0.1696698 0.11889449 -0.17577115 0.06846666 -0.16050693 0.040687352
-0.086553365 -0.118762225 -0.15596285 -0.031885505 0.14585856 -0.0005094707 -0.035301358 -0.014309704
0.048755974 -0.08051592 -0.18276846 0.088593245 -0.029309034 -0.019885689 0.15098381 0.063660234
0.21654347 -0.18378192 0.18383545 -0.032473713 0.15416563 0.19841236 -0.24163425 0.0014594495
-0.07230085 -0.13144797 -0.16872564 -0.21170607 -0.0053836107 -0.0639562 -0.13286722 -0.07760364
-0.13549775 -0.015296072 0.16323918 -0.07235667 -0.1630303 -0.057184637 0.09904659 -0.1539957
-0.21423355 0.010376185 -0.24285847 -0.19150561 0.018012106 -0.008850545 -0.09415862 -0.10698053
-0.20162329 -0.15313655 -0.22450203 -0.03796822 -0.24966297 -0.15767601 -0.059999764 0.19564506
0.23819748 -0.13911772 -0.08394027 -0.18652472 0.10705599 -0.17549634 -0.20548207 0.14316225
0.112422526 0.06969267 -0.16106653 0.2092911 0.035410106 0.018850744 -0.049630493 0.121344
-0.10108748 0.07680833 0.22371319 -0.16688791 0.048564196 -0.022827446 -0.055584252 0.066868365
-0.065375 -0.09613797 0.14061213 -0.21334648 -0.04409811 0.24495965 0.009094834 -0.10959193
-0.12406841 -0.025059015 0.19051951 -0.11779007 0.24503669 -0.16658443 -0.120351076 -0.026348263
-0.2451123 0.20026979 -0.16398942 0.15284255 0.08951202 -0.12798777 -0.11920819 0.20959651
0.22034818 -0.24183029 -0.08313072 -0.19436282 -0.1693882 -0.09337646 0.13541123 0.23308262
0.24097499 -0.008691072 -0.044985265 0.10674223 -0.1305078 -0.004520178 -0.1415998 0.2089428
-0.0051852763 -0.19076994 -0.14205852 0.08138564 -0.14925244 0.13187653 0.2342017 0.08490685
0.055628628 0.066964775 0.09804869 0.23758551 -0.1828059 -0.13962248 0.065431565 -0.14098418
0.00064608455 -0.060797006 0.15413547 -0.14664108 -0.08525428 -0.077041715 0.22193292 0.07066548
0.057653338 0.09680045 -0.21071443 -0.09033176 0.2453824 -0.133223 0.13934499 0.13208586
-0.07507658 -0.19728774 0.08381629 0.14907625 0.13212323 -0.22772107 -0.17388389 -0.09312996
-0.18684107 -0.20820576 -0.07211968 0.19223014 -0.106411844 0.18928373 -0.0026538968 0.16095981
0.14575231 0.1565158 0.047011077 0.03006208 -0.08224499 -0.061253697 -0.18143377 -0.11799675
-0.17532101 -0.23996833 0.124345034 0.08462542 0.1402367 -0.20700628 -0.14909354 0.118525565
0.12494886 -0.24443865 -0.24458951 -0.13708103 -0.06462866 0.2295582 0.0999015 -0.21156088
0.15891364 0.052737236 -0.12114802 -0.19099134 0.24495941 -0.20228949 -0.18707275 0.04273197
0.015308589 0.08846417 -0.24983841 -0.029853165 -0.14159983 0.113134414 0.059173256 -0.07622501
-0.17873004 0.05647722 -0.082336575 0.1589171 -0.057651043 0.172903 -0.19569108 -0.1343103
0.066378236 -0.035236508 0.109455675 -0.15081465 0.15189853 -0.04400456 0.1315243 -0.21282116
-0.048533827 0.10152322 -0.20849654 0.010042876 -0.03679681 0.060309857 -0.21410728 0.083103895
0.0704689 -0.085252404 -0.015469283 0.1678553 0.05453813 -0.21395954 0.15645537 -0.06969336
-0.19806644 0.068568796 0.064910024 0.22422537 -0.24257547 -0.16801164 0.05333528 -0.11400527
00000000: 0e9a 69be 449e 3cbe ecbd 2d3e f47e f33d
00000010: 5afd 33be 4038 8c3d ee5b 24be c8a7 263d
00000020: e442 b1bd 9c39 f3bd bab4 1fbe 609a 02bd
00000030: f25b 153e 008e 05ba 2898 10bd 4073 6abc
00000040: 58b4 473d 88e5 a4bd a827 3bbe 6070 b53d
00000050: 8019 f0bc 50e7 a2bc 809b 1a3e 4c60 823d
00000060: 92bd 5d3e 5431 3cbe 5c3f 3c3e 2803 05bd
00000070: 98dd 1d3e 9c2c 4b3e f86e 77be 004b bf3a
00000080: 7812 94bd 4c9a 06be 6ac6 2cbe 7ac9 58be
00000090: 0069 b0bb 78fb 82bd 580e 08be a8ee 9ebd
000000a0: ecbf 0abe 609c 7abc 2c28 273e bc2f 94bd
000000b0: 6af1 26be 703a 6abd f0d8 ca3d 0cb1 1dbe
000000c0: 0a60 5bbe e000 2a3c e4af 78be 0c1a 44be
000000d0: 208e 933c e001 11bc 3cd6 c0bd 9c18 dbbd
000000e0: 5676 4ebe d4cf 1cbe dce3 65be 9084 1bbd
000000f0: a6a7 7fbe d275 21be 50c2 75bd 2e57 483e
00000100: 0aea 733e e074 0ebe e0e8 abbd 5600 3fbe
00000110: 2c40 db3d 50b5 33be e469 52be 2099 123e
00000120: c83d e63d 08bb 8e3d a0ee 24be 6850 563e
00000130: 300a 113d e06c 9a3c 5849 4bbd 3483 f83d
00000140: f406 cfbd b04d 9d3d 1215 653e aae4 2abe
00000150: 40eb 463d a000 bbbc 50ac 63bd 48f2 883d
00000160: 54e3 85bd fce3 c4bd a0fc 0f3e 8077 5abe
00000170: 38a0 34bd b4d6 7a3e 8002 153c bc71 e0bd
00000180: 9417 febd 9048 cdbc 8c17 433e ec3b f1bd
00000190: e6ea 7a3e 1c95 2abe a07a f6bd 50d8 d7bc
000001a0: b8fe 7abe 8613 4d3e d8ec 27be c282 1c3e
000001b0: 1452 b73d 3a0f 03be 6c23 f4bd 78a0 563e
000001c0: f4a2 613e 5ca2 77be 7040 aabd 0c07 47be
000001d0: 1a74 2dbe 283c bfbd 3ea9 0a3e 36ad 6e3e
000001e0: 26c2 763e 0065 0ebc 7842 38bd ac9b da3d
000001f0: d6a3 05be 001e 94bb 8aff 10be 1af5 553e
00000200: 40e9 a9bb 3259 43be ca77 11be 84ad a63d
00000210: a2d5 18be a40a 073e 92d2 6f3e a4e3 ad3d
00000220: d8da 633d d424 893d c0cd c83d 9e49 733e
00000230: 7831 3bbe 32f9 0ebe fc00 863d 285e 10be
00000240: 005e 293a 4806 79bd b0d5 1d3e 1429 16be
00000250: cc99 aebd 0cc8 9dbd 6242 633e 10b9 903d
00000260: e825 6c3d 503f c63d 86c5 57be dcff b8bd
00000270: 8645 7b3e 9c6b 08be 74b0 0e3e 8441 073e
00000280: c0c1 99bd cc05 4abe e0a7 ab3d 72a7 183e
00000290: 504b 073e b62f 69be 9e0e 32be ecba bebd
000002a0: 4453 3fbe e433 55be 7cb3 93bd fad7 443e
000002b0: 74ee d9bd 98d3 413e 00ed 2dbb a6d2 243e
000002c0: 1840 153e ae45 203e b08e 403d c044 f63c
000002d0: 1070 a8bd 28e5 7abd c6c9 39be 48a8 f1bd
000002e0: 5a87 33be 42ba 75be 9ca8 fe3d 1850 ad3d
000002f0: 369a 0f3e 74f9 53be faab 18be 88bd f23d
00000300: 30e5 ff3d 204e 7abe ac75 7abe f85e 0cbe
00000310: 085c 84bd 4e11 6b3e 2899 cc3d 6aa3 58be
00000320: 42ba 223e 0003 583d 741c f8bd 3c93 43be
00000330: a4d6 7a3e fa24 4fbe 0090 3fbe b807 2f3d
00000340: e0d0 7a3c b42c b53d a4d5 7fbe a08e f4bc
00000350: 8cff 10be 04b3 e73d a85f 723d dc1b 9cbd
00000360: 0205 37be a854 673d 14a0 a8bd 2abb 223e
00000370: 8023 6cbd 7c0d 313e 3e63 48be a488 09be
00000380: 50f1 873d 2854 10bd 4c2a e03d 286f 1abe
00000390: 4a8b 1b3e 203e 34bd 4eae 063e caed 59be
000003a0: 68cb 46bd 68eb cf3d 1e80 55be e08a 243c
000003b0: 40b8 16bd 7807 773d f03e 5bbe 6032 aa3d
000003c0: 0052 903d d098 aebd e072 7dbc 42e2 2b3e
000003d0: 6063 5f3d 3618 5bbe d635 203e 64bb 8ebd
000003e0: eed1 4abe cc6d 8c3d 8cef 843d 569b 653e
000003f0: b465 78be 3e0b 2cbe 1876 5a3d 987b e9bd

sparse_weighted_adjacency_matrices.pair_attention.edge_key.bias f4 [16]
0.0024021268 -0.096304506 -0.20523384 -0.22809619 -0.07980794 -0.1256071 -0.19437116 0.24327794
-0.06643829 -0.24214986 -0.2438151 -0.006482452 -0.14243028 0.1501917 -0.15365484 0.066184044
00000000: 006d 1d3b 4c3b c5bd d228 52be 0c92 69be
00000010: 5872 a3bd 269f 00be 3c09 47be da1d 793e
00000020: cc10 88bd 22f6 77be aaaa 79be c06a d4bb
00000030: 3ed9 11be dacb 193e b257 1dbe 808b 873d

sparse_weighted_adjacency_matrices.group_attention.embedding.weight f4 [64, 2]
3.6783329e-28 3.4323577e-28 5.7483857e-29 -2.7098937e-28 1.0017195e-27 1.0156911e-27 -1.4012272e-29 9.3194835e-29
-2.1894049e-28 -2.2759513e-28 -1.7859547e-27 2.8132393e-28 -8.3628254e-29 -3.1342548e-28 -1.6976644e-30 1.0292484e-28
7.6443284e-28 5.5639157e-27 2.7665384e-28 -5.642264e-28 1.4243247e-27 -1.2822791e-28 1.4530229e-28 -2.900301e-29
3.2522908e-29 -2.732463e-28 -2.4357767e-29 1.2511884e-29 -2.6893433e-28 4.318614e-29 -1.7289157e-28 -2.1584465e-27
-1.0062829e-27 1.2397416e-30 6.0501553e-28 -3.579584e-29 -3.202984e-29 -2.715764e-28 -1.0350122e-28 7.4403007e-28
2.9486838e-30 4.37089e-28 -3.092928e-29 -8.574864e-28 -6.8535777e-28 8.839692e-28 -5.997217e-28 -1.7326997e-28
2.9161524e-28 6.685618e-30 3.619229e-29 5.7262587e-28 -1.0971888e-29 -2.0074209e-28 4.0813913e-28 5.0304198e-29
-1.2728369e-29 2.0785087e-29 1.8979421e-27 -2.3243873e-28 2.3345825e-29 2.0780657e-28 -5.246201e-27 7.14172e-29
-2.8829008e-29 4.8348636e-29 -1.5895451e-28 7.0523757e-29 -3.1358928e-28 1.8267085e-27 -1.1677604e-28 1.2884874e-27
-3.6902187e-29 -4.4085072e-29 -3.3384464e-28 2.9921837e-28 -4.319135e-30 1.1275702e-28 -2.0619133e-27 5.0181657e-29
4.0157052e-28 2.8874986e-27 1.1725742e-27 3.2889188e-28 -4.9227468e-28 -3.6069923e-29 7.7868367e-28 -1.6078609e-28
4.8598766e-29 -5.048214e-28 2.2085498e-28 -4.064491e-28 -1.344204e-28 -2.979287e-28 -4.4063847e-28 1.1065759e-28
-5.762664e-29 9.101688e-28 1.7042931e-28 -2.897064e-29 2.1566758e-29 2.476346e-29 2.0756457e-29 7.1017675e-28
2.8196823e-28 -6.5386904e-29 -7.098591e-29 -3.3494262e-28 -3.63621e-28 8.444176e-28 -9.509716e-29 7.7109914e-29
1.4612872e-28 2.0709207e-28 3.6298423e-29 1.0573522e-27 9.2471546e-29 -2.8620226e-27 -1.5992063e-27 1.3370597e-28
1.5131528e-28 2.9474627e-29 -5.482605e-28 -8.209768e-27 -7.3843964e-29 -2.047433e-27 4.2981445e-27 -4.911575e-30
00000000: 5d24 e911 308d d911 28bd 9110 8ac2 ab91
00000010: 92ba 9e12 53f1 a012 f019 8e8f e846 ec10
00000020: 20c5 8a91 6c41 9091 777f 0d93 6b4f b211
00000030: d705 d490 31a8 c691 1cbb 098e 0579 0211
00000040: 2942 7212 cf68 dc13 a759 af11 7ccf 3292
00000050: 79b1 e112 568c 2291 4a31 3811 0f10 1390
00000060: 26e9 2410 bf30 ad91 6104 f78f 6ac5 7d0f
00000070: 1775 aa91 d1fa 5a10 862a 5b91 7f02 2b93
00000080: af73 9f92 da28 c90d b1bc 3f12 a881 3590
00000090: 1c69 2290 ca21 ac91 1134 0391 e4ca 6b12
000000a0: c439 6f0e df84 0a12 80d4 1c90 c8df 8792
000000b0: d432 5992 0d12 8c12 340f 3e92 52a5 5b91
000000c0: 47d5 b811 b799 070f 4784 3710 ee78 3512
000000d0: 4d89 5e8f 8878 7e91 2e58 0112 9512 7f10
000000e0: bc14 818f 2cc9 d20f d75e 1613 5753 9391
000000f0: 3ac1 ec0f 8bb6 8311 ccd2 cf93 6a10 b510
00000100: 312e 1290 1e28 7510 b07f 4991 89cc b210
00000110: c5c2 c691 0dba 1013 fe07 1491 422b cc12
00000120: c71d 3b90 b289 5f90 6499 d391 f5a6 bd11
00000130: 7634 af8e bfef 0e11 925c 2393 8473 7e10
00000140: 8b86 fe11 6ec5 6413 43cd b912 c275 d011
00000150: 1102 1c92 70e5 3690 53c6 7612 12d2 4b91
00000160: ce6c 7610 fafb 1f92 c5fb 8b11 12cf 0092
00000170: ea65 2a91 b2d5 bc91 d7a4 0b92 7146 0c11
00000180: d419 9290 d538 9012 790b 5811 0ae6 1290
00000190: 81b6 da0f 9e21 fb0f d87e d20f 6210 6112
000001a0: f6b7 b211 87c6 a590 7df8 b390 8c4b d491
000001b0: e178 e691 a6cd 8512 9619 f190 327f c310
000001c0: 7b3d 3911 9c42 8311 0c0e 3810 4d8b a712
000001d0: 7771 ea10 b7c0 6293 8467 fd92 117e 2911
000001e0: 9ed0 3f11 4174 1510 2dc0 2d92 789c 2294
000001f0: 7937 bb90 e036 2293 5d44 aa13 b63c c78e

sparse_weighted_adjacency_matrices.group_attention.embedding.bias f4 [64]
-3.5355115e-28 -1.7868642e-28 1.6391409e-28 -1.3829099e-28 2.2175254e-27 -6.6532733e-28 -1.2753399e-28 -1.0515072e-28
6.9561104e-28 -2.956679e-27 -2.0685104e-28 5.485119e-29 -5.3759915e-29 -1.524799e-28 1.347565e-28 -7.9607443e-28
-1.5986426e-28 1.8577884e-28 -2.7526096e-28 8.305643e-30 -1.9981964e-28 8.875974e-28 -3.9266454e-28 -6.171785e-29
8.093114e-28 1.562733e-28 2.342893e-28 2.0975736e-29 -2.6832677e-28 -5.0460414e-30 -1.1876801e-28 -2.14016e-27
2.3068665e-29 6.0904183e-28 3.150884e-28 1.6361526e-27 4.3640534e-29 -7.6583713e-28 1.9725906e-27 1.0977089e-27
-1.2320676e-28 5.7065653e-29 -1.8139425e-28 8.1199524e-29 3.5705676e-29 1.8674716e-27 7.120813e-28 2.1903952e-27
1.7286826e-28 1.4948573e-27 -6.4656256e-28 -9.8820164e-29 -7.3327067e-28 -6.241047e-28 -2.9501604e-28 -6.387593e-29
7.25621e-28 2.5617798e-27 3.8042015e-28 6.38781e-28 -7.9648435e-27 1.1688206e-27 4.0602512e-29 3.2765082e-29
00000000: f416 e091 0f83 6291 2ac9 4f11 fe4d 2f91
00000010: c2b0 2f13 c4d9 5292 25ab 2191 5c4b 0591
00000020: ac72 5c12 9340 6a93 801b 8391 7510 8b10
00000030: 2e4c 8890 8e4a 4191 fcd2 2a11 3b49 7c92
00000040: eba6 4a91 ae80 6b11 a577 ae91 5d75 280f
00000050: 2e4d 7d91 3aa5 8c12 77e1 f891 2d79 9c90
00000060: 923d 8012 9619 4611 9d7f 9411 20b8 d40f
00000070: 8212 aa91 17b1 cc8e 6c8e 1691 9a8f 2993
00000080: aef1 e90f 5803 4112 04b6 c711 1ea1 0113
00000090: a748 5d10 17b4 7292 e448 1c13 5df0 ad12
000000a0: e12e 1c91 baad 9010 cdf1 6591 81dd cd10
000000b0: 9e0c 3510 d3f4 1313 e6aa 6112 7e8a 2d13
000000c0: f522 5b11 9ede ec12 63e7 4c92 f489 fa90
000000d0: fc61 6892 63c9 4592 17fd ba91 d9f1 a190
000000e0: 5ff5 6512 11f7 4a13 b31e f111 1270 4a12
000000f0: 8ec2 1d94 ff34 b912 13e1 4d10 8223 2610
