checkpoints/GHGNN/sdd/val_best.pth (torch, 128786 bytes, 58 tensors)

sparse_weighted_adjacency_matrices.edge_inital.x_embedding.weight f4 [16, 2]
00000000: 19bc b5bb c0b9 3cbc 92bb b33b f69c 12bd
00000010: 7c8d 383b 7ba4 893c f518 06bb 9896 f83c
00000020: 5865 943b b39a 8d3c 01a4 60b9 e0a6 543a
00000030: 0601 04bd 73eb f13c 3ace aebb 514f 8abc
00000040: 6a83 acbb a764 a7bc 48a6 a23b 8000 1d3e
00000050: 86e6 4f3c 9078 8cbd 9469 c2bb 59f1 983c
00000060: b9d3 153d 6b33 ee3b f9ce 8e3b 16bf debb
00000070: 581e 8cbb 37d5 36bb a377 9039 0aa5 f5ba
-0.0055461046 -0.011518896 0.0054850066 -0.03579422 0.0028160503 0.016802063 -0.0020461653 0.030345246
0.0045286827 0.01728568 -0.00021423401 0.00081120245 -0.03222754 0.029531216 -0.0053346427 -0.016883524
-0.005264689 -0.020433737 0.00496367 0.15332222 0.012689238 -0.06858933 -0.005932996 0.018669771
0.036578868 0.007269313 0.004358169 -0.0067976816 -0.004276078 -0.0027898082 0.00027554957 -0.0018741202

sparse_weighted_adjacency_matrices.edge_inital.x_embedding.bias f4 [16]
00000000: 53b2 763c d9a6 133e c3c7 4cbd 80b5 58be
00000010: 276f 32bd 7c95 133a c354 cbbd 6a44 2dbe
00000020: c14e a83d 7d85 d1be 31fd 623e bc34 7fbc
00000030: 1118 8fbe f23e 363e cf32 e6bc 8f3c da3a
0.015057164 0.14419116 -0.049995195 -0.21162987 -0.043563034 0.000562988 -0.099282764 -0.16920629
0.08218146 -0.40922156 0.22166897 -0.015576538 -0.2794805 0.17797449 -0.0281004 0.0016650128

sparse_weighted_adjacency_matrices.edge_inital.edge_embedding.weight f4 [16, 16]
00000000: df77 c4b9 7c0b 053b ac0d 26bc c762 bc3c
00000010: e824 853c 4e40 87b9 5410 e33b 5f46 4abc
00000020: 9763 32bd d324 423d 876a 3f3c 2e46 b2b9
00000030: 04dc adbc ce83 5abd 5a0f f5bb bc3e 8cb8
00000040: c0c6 e9b9 7a47 72bc 2614 7ebb 7cd3 be3b
00000050: a8a2 4f3c b8f8 bcb8 e445 b33a bf49 a7bb
00000060: 472d 60bc f553 003d e272 1dbc 3905 2439
00000070: 419d 1c3c 488a fcbc af84 b13b 2065 14b8
00000080: e5f8 c8b9 c06c 99bb d8fd 883a 6227 b33c
00000090: 0361 04bc 2220 c8b7 bba3 c739 7dbd 3b3b
000000a0: c5b0 84bb de47 7abd e3db 703b aa78 2bb9
000000b0: c8b9 553c 4b78 ffbc d2b1 debc ffa8 07bb
000000c0: 74d0 4d39 96bf 0a3c 2aff 17bc 57cb eebb
000000d0: 149d ae3a 96aa 8037 e37f f5ba bdaa 38bc
000000e0: 1c12 153c 17e2 46bb e754 5e3c d8fa 18b9
000000f0: 4885 88bb 6e27 223b 3d54 583b 361a 4438
00000100: 7e1d 12ba a5de c1bc 464d 203a 5a62 02bd
00000110: 794c 4d3a 9da6 bfb8 8ab0 ab3a 16ed 6b3c
00000120: 1266 113d eda1 b93c f475 40bd c220 3439
00000130: c987 a43c ea02 7bbd fcce d0bb add7 cbb8
00000140: 6187 70bc dc82 6abb e0e3 df3d c5e9 673d
00000150: f9b8 f3bd 1694 65b9 c715 1e3c 9f4b c03d
00000160: 033c b23d 14ec 893d eb04 59bd 1af9 723c
00000170: 81bd 8bbd 60ca 2ebd ad52 de3d 612a b6bb
00000180: 9b21 24b9 1a15 4a3c bcce 7a3c b6cf 49bb
00000190: d80d 1e3c 9c7e 8639 7897 2a3b a903 d93c
000001a0: c046 84bc c90a 8e39 ffa5 aebb 14fe 913a
000001b0: c8ca 863c 0d4b e03c 9c0d fdb9 bfd7 c3b9
000001c0: f574 6bb9 dfde 7dba be6b 7a3b 8db2 b5bb
000001d0: 35cd 0239 bcd7 5bb8 b4d8 5d3b 514e 2d3c
000001e0: 2219 a73c 5402 9a3c cfec 6dbc 1b69 8d38
000001f0: 547b 133d 54c3 0a3c 78b8 5b3c e5ed 43ba
00000200: 8cbd 613c c07b d13d 7642 79bd df82 6a3d
00000210: d56c 6a3d 7250 903a 01b7 083c bd67 80bd
00000220: c30f d8ba a269 3abc b7df 113c 11ae d7ba
00000230: a3bf b1bd 27c6 f23d 5b95 03bd 8ab9 60bc
00000240: 0b6f 1f39 ee9a 5cbc 8785 a33c d9f3 6fbb
00000250: 788e f33c 99b6 d0b7 1eb4 70bb 2935 87bb
00000260: bf3f c3bc 9708 4bbc 54cf f5bb afe8 d437
00000270: 4820 223b fe9a e2bc 6157 f53c db0a fcba
00000280: edf4 cc39 1e3d 93bc 4856 30bc ff77 8fba
00000290: fa27 15bb d6ee bbb8 abf3 24bc 1443 8d3c
000002a0: 3043 f83c 2e6f f2bc 3185 00bc 34fe 3fba
000002b0: 6b18 183b cbfa 853b 503b edbb 0beb a639
000002c0: dd30 93b9 4c8c b1bc e2fc 9c3c b0fe 4d3b
000002d0: 4877 b7ba e8c6 11b7 6cba f83a 605d 7d3c
000002e0: 222c 8e3c 7af1 c33a 9a1e d93b cd84 8539
000002f0: 21bf 833b 5317 9bbc ab1a d33b 8513 98b8
00000300: 0e55 00ba ab5b 20bc 346f babc 753f c43d
00000310: 2f58 b93d b892 dc39 ac9a 61bc 4174 e2bd
00000320: 99c8 4fbd e4e9 87bc 8b3c 74bd a482 093d
00000330: 8562 0abe df44 29be f98d 843c c902 d33b
00000340: 6e7d 9ab8 38f1 4b3a 5546 033c 5099 933c
00000350: 3427 013c 9f00 3f38 1522 6d3a 2c48 313a
00000360: 7827 10bc 6cd8 13bb c646 303b d9a3 ad39
00000370: 5574 c03a e2ec ce3b ac26 29bb 6888 19b9
00000380: 00d2 563c bf25 9dbc a72a 6dbd af89 1c3d
00000390: 3410 c8bd a35b d7b9 c101 f5bd 7d84 6bbd
000003a0: 9c61 ec3d 9b16 43be c3ac 0f3e 2690 0f3a
000003b0: 89d8 c53c c400 bdbd a79d a03d b277 7ebb
000003c0: 627f c3bc 1957 f23d 5f94 5f3d 2df2 b6bd
000003d0: c89e d83d 7c7e f4ba 9225 80bc 8210 a73d
000003e0: c9f0 f8bd c9a3 f1bd d5ad adbd 31ce 9e3b
000003f0: 8ba3 44bd 4d1f 94bd 308b c5bc ed5d d93c
-0.00037473344 0.0020301035 -0.010135096 0.02299632 0.01625295 -0.00025797117 0.0069294367 -0.012345879
-0.043552008 0.0473984 0.011683113 -0.00034003094 -0.021223076 -0.053348355 -0.0074786367 -6.6874054e-05
-0.00044589303 -0.014787549 -0.0038769334 0.0058235507 0.012673058 -9.010866e-05 0.0013677445 -0.0051052268
-0.01368267 0.031330068 -0.00960991 0.00015642204 0.009558977 -0.030827656 0.0054174284 -3.538013e-05
-0.00038332414 -0.0046821535 0.0010451628 0.021869365 -0.00807977 -2.3856821e-05 0.00038078226 0.002864688
-0.004049393 -0.061103694 0.0036752156 -0.00016352782 0.013044782 -0.03118529 -0.0271844 -0.0020700095
0.00019627978 0.008468529 -0.009277144 -0.0072874236 0.0013321959 1.5338224e-05 -0.001873013 -0.011271176
0.009098556 -0.0030347162 0.013570047 -0.00014589296 -0.004166279 0.002474274 0.0033009194 4.6754452e-05
-0.00055738527 -0.023665735 0.000611503 -0.031832077 0.00078315247 -9.138624e-05 0.0013098877 0.014399787
0.035497732 0.02266022 -0.04698749 0.00017178341 0.020084279 -0.061282076 -0.0063723307 -9.719967e-05
-0.014680714 -0.0035783565 0.109321356 0.056619424 -0.11900515 -0.00021894308 0.009648747 0.093894236
0.087028526 0.067344815 -0.052983206 0.014829898 -0.068232544 -0.04267347 0.10855613 -0.005559251
-0.00015652778 0.012334133 0.015308078 -0.0030793971 0.009646855 0.00025652803 0.0026030224 0.026491003
-0.016147017 0.00027092386 -0.005329847 0.0011138343 0.016454116 0.027379537 -0.0004826606 -0.00037354042
-0.00022454916 -0.00096843945 0.0038211192 -0.0055449666 0.00012474212 -5.2414587e-05 0.003385109 0.010577754
0.020397726 0.018799938 -0.014521792 6.742981e-05 0.036006287 0.008469421 0.01341068 -0.0007474109
0.013778102 0.102286816 -0.060854398 0.057253715 0.057232697 0.0011010303 0.008344413 -0.062697865
-0.001648419 -0.011377724 0.008903435 -0.0016455074 -0.0867913 0.11854201 -0.03212486 -0.013716111
0.00015204788 -0.0134646725 0.019961132 -0.003661385 0.02973102 -2.488056e-05 -0.0036728452 -0.00412621
-0.023834107 -0.012392185 -0.007501522 2.5380721e-05 0.002473848 -0.027661797 0.029948892 -0.0019229309
0.00039092396 -0.017973479 -0.010762759 -0.0010945796 -0.0022759424 -8.9613415e-05 -0.010067861 0.0172439
0.030305475 -0.02959403 -0.007844255 -0.0007323951 0.0023207914 0.0040887347 -0.0072397366 0.00031837108
-0.0002807443 -0.021673344 0.019163553 0.0031432323 -0.001399734 -8.688985e-06 0.0018976456 0.015464157
0.017355029 0.0014949285 0.0066259624 0.0002546668 0.004020587 -0.01893202 0.006442388 -7.2515606e-05
-0.00048954866 -0.00978748 -0.022758104 0.09582416 0.09050023 0.00042070984 -0.013769787 -0.1105733
-0.050728414 -0.01659102 -0.05962805 0.033571854 -0.13514145 -0.16530178 0.01618098 0.006439541
-7.366655e-05 0.000777978 0.008012374 0.018017441 0.007882882 4.5538527e-05 0.0009045911 0.00067627686
-0.008798473 -0.0022559417 0.0026897653 0.00033119207 0.0014683107 0.0063148597 -0.0025810404 -0.00014642032
0.013111591 -0.019183038 -0.057902005 0.038217243 -0.097687155 -0.0004107627 -0.11963225 -0.057499398
0.11542055 -0.19051592 0.14030747 0.0005476497 0.024151104 -0.09228662 0.0784257 -0.0038828668
-0.023864452 0.11833019 0.054584857 -0.0893291 0.1057716 -0.0018653418 -0.015642915 0.081574455
-0.12155301 -0.11798818 -0.084804215 0.0048463573 -0.04800753 -0.07232533 -0.024114221 0.026534045

sparse_weighted_adjacency_matrices.edge_inital.edge_embedding.bias f4 [16]
00000000: 9a5d 19bb 67e7 ed3c 0d6e d0bc 1ddf 69bc
00000010: 2897 163d d03e 113c fbb4 a83d aa52 bf3c
00000020: 104c 0e3d 385b 183c 5555 e2bc e0a5 713c
00000030: d20d 2fbe 0f25 393c 160d 5e3e 60b2 103e
-0.0023401738 0.029041005 -0.025443101 -0.014274386 0.036765248 0.008865073 0.08237644 0.023354847
0.034740508 0.009299092 -0.02762858 0.01474902 -0.17095116 0.011300339 0.2168468 0.14130545

sparse_weighted_adjacency_matrices.pair_attention.embedding.weight f4 [64, 2]
00000000: 258f a720 23a6 2f20 6c2b 0aa1 db39 2820
00000010: 3fa1 219f eed0 28a2 782c da20 a42c d521
00000020: 4831 71a1 0853 32a1 9970 4122 0a03 361f
00000030: 08ad 3ba1 67ba d8a1 78b8 25a3 437f ad1f
00000040: 6bd6 3da1 9035 da21 072b 0a21 53ed c620
00000050: a859 9220 6345 3622 a395 c6a2 45ae 6e9e
00000060: d601 2ba1 3818 6221 9f80 7e21 9ada 1622
00000070: a4b2 5320 9bed 16a1 c1eb 86a2 3522 efa1
00000080: cfb5 08a2 4020 4421 7a86 b7a0 130f 2a21
00000090: 6cad 9e21 ba0a 64a1 d54d 0c9d b24f 9a20
000000a0: 9c50 bf21 db5c 4f1f 5499 0621 87a8 0ea0
000000b0: 830a 96a0 8d98 4122 5171 0aa1 ff9b 0420
000000c0: 18b8 0a9f df45 0ca3 9150 aaa1 624a 3021
000000d0: 3de8 83a0 62fb 0d21 612b 9c1f 3f4c 68a1
000000e0: c1b6 e721 1d11 6c20 6c47 72a1 bc9f d7a1
000000f0: ff69 cf20 5a50 d1a0 ddf7 ec21 19a7 16a1
00000100: 7a20 efa1 bf3d a99e c12b 83a2 a0b8 f4a0
00000110: 5052 05a1 d1db f49f b40b 30a1 004c 21a2
00000120: 2d14 84a1 0aa3 761f ecb3 dca1 3584 4920
00000130: 343d 741f 43ea c720 2569 0021 b963 10a1
00000140: 8a4d 73a1 adbc bf1f fe9f 1aa2 9540 1fa2
00000150: 4934 e021 73b2 1ba1 d09b 7a21 54f8 261f
00000160: 581a 9021 5d82 51a2 944b 82a1 a099 5e21
00000170: 5d9f 32a1 a4da db21 151d 1fa2 8649 2ba3
00000180: b9c9 73a1 d7c7 de20 ce3a 8822 d2d7 8822
00000190: 3495 7021 948a 8e1f 0a12 95a0 5784 aba0
000001a0: 181e fc1e 03af 8522 a5ad ce20 995c 48a0
000001b0: 8c33 9e22 45cd b1a0 75c2 e920 1931 27a2
000001c0: 5f5f ed20 a058 42a1 4b47 3421 d35e 43a1
000001d0: 657a a122 bf53 dba1 9af9 eca2 df4f 3320
000001e0: 7d95 30a0 5bd2 eba1 b791 e6a0 ec2d 4921
000001f0: 4faf 67a0 a405 35a1 1af9 15a0 acce 7fa1
2.8385626e-19 1.4878047e-19 -4.6813687e-19 1.4249296e-19 -3.4226456e-20 -2.2878852e-18 3.6960063e-19 1.4445258e-18
-8.17192e-19 -6.0418637e-19 2.6215986e-18 3.8542513e-20 -6.358707e-19 -1.468607e-18 -8.983731e-18 7.347889e-20
-6.431947e-19 1.4786432e-18 4.6813165e-19 3.3699553e-19 2.4792692e-19 2.4702332e-18 -5.382644e-18 -1.2635653e-20
-5.7939483e-19 7.660383e-19 8.6228776e-19 2.0444517e-18 1.7931502e-19 -5.1136445e-19 -3.6570387e-18 -1.6204324e-18
-1.8527686e-18 6.6450066e-19 -3.1090395e-19 5.761819e-19 1.0752401e-18 -7.72636e-19 -1.8569084e-21 2.6141353e-19
1.2964001e-18 4.3910763e-20 4.5603894e-19 -1.2083629e-19 -2.5417944e-19 2.6237137e-18 -4.690619e-19 1.123245e-19
-2.9374915e-20 -7.604211e-18 -1.1540974e-18 5.9729564e-19 -2.2345946e-19 4.810536e-19 6.6140334e-20 -7.870557e-19
1.5701543e-18 1.999564e-19 -8.2087315e-19 -1.4611248e-18 3.5137306e-19 -3.545915e-19 1.6057591e-18 -5.104313e-19
-1.6203866e-18 -1.7919109e-20 -3.5553947e-18 -4.1457382e-19 -4.517109e-19 -1.03701675e-19 -5.964661e-19 -2.1859803e-18
-8.950008e-19 5.222739e-20 -1.4955405e-18 1.7069106e-19 5.1719636e-20 3.3866933e-19 4.3507245e-19 -4.892108e-19
-8.2434225e-19 8.1203784e-20 -2.095559e-18 -2.1582708e-18 1.519267e-18 -5.275222e-19 8.490951e-19 3.535728e-20
9.764793e-19 -2.8393796e-18 -8.829148e-19 7.5419847e-19 -6.051966e-19 1.4897891e-18 -2.1563914e-18 -9.285498e-18
-8.259858e-19 3.7740506e-19 3.6925136e-18 3.7091383e-18 8.151263e-19 6.03686e-20 -2.525352e-19 -2.9056102e-19
2.6693984e-20 3.6235023e-18 3.5012666e-19 -1.6971297e-19 4.2880563e-18 -3.0120802e-19 3.9600416e-19 -2.2658712e-18
4.0212473e-19 -6.584705e-19 6.108073e-19 -6.619407e-19 4.3768728e-18 -1.4862185e-18 -6.4232204e-18 1.5188317e-19
-1.4957241e-19 -1.59799e-18 -3.9059942e-19 6.8162226e-19 -1.9624466e-19 -6.133265e-19 -1.2703212e-19 -8.667089e-19

sparse_weighted_adjacency_matrices.pair_attention.embedding.bias f4 [64]
00000000: d6f1 6120 c75f fda0 526b 6620 58dd 01a0
00000010: f3a3 5b20 587f 0220 1ac5 41a1 a900 17a3
00000020: 140b c6a1 0465 2ea0 8c3f 4ca1 0caf 3920
00000030: 4e27 429f 8f9e ba20 1dbc cf9f 10ac e620
00000040: 1061 c520 5e7f 06a0 a5f0 8a22 6da3 6721
00000050: 91e2 c7a0 853c 41a2 6640 1821 3a0d e621
00000060: 3b0a 8f22 4613 caa1 e83c 9f9e d1fd ce1f
00000070: fdbd 7ca1 256b 85a2 579c b6a0 2c7d 5fa1
00000080: e58e c99e 058f 8720 b77a 0ea1 d424 14a1
00000090: 18a6 9920 630b 56a2 207d aba0 8d7d 08a0
000000a0: fbaf e221 d425 c0a2 8787 0ea2 788e 311e
000000b0: 1610 7ca1 7011 cd20 3f44 19a2 cda7 d4a0
000000c0: 9f8a 9521 e155 a21f eccb 84a1 fc54 e61f
000000d0: bb9d 1b21 5426 f5a2 2931 aca0 5c94 98a1
000000e0: d66f b71e fec3 2a1b 4c7a 0021 f047 c922
000000f0: 20e9 4720 829a 9721 e61b aa1f 48c0 1a1e
1.9138258e-19 -4.2923247e-19 1.9517267e-19 -1.0999962e-19 1.8604268e-19 1.1053563e-19 -6.5651805e-19 -8.185866e-18
-1.3419934e-18 -1.4771797e-19 -6.920199e-19 1.5728028e-19 -4.111361e-20 3.161455e-19 -8.797912e-20 3.9077377e-19
3.3437329e-19 -1.1392384e-19 3.7659767e-18 7.8482137e-19 -3.386184e-19 -2.6188416e-18 5.1584834e-19 1.5588907e-18
3.877106e-18 -1.3693154e-18 -1.685997e-20 8.76643e-20 -8.563237e-19 -3.6163166e-18 -3.0935456e-19 -7.5721e-19
-2.1340803e-20 2.2964532e-19 -4.8273883e-19 -5.019309e-19 2.602912e-19 -2.9008436e-18 -2.9051328e-19 -1.1561189e-19
1.5360937e-18 -5.2081756e-18 -1.9316336e-18 9.399764e-21 -8.540221e-19 3.473989e-19 -2.0771496e-18 -3.6025238e-19
1.0133325e-18 6.8751743e-20 -8.998646e-19 9.7549384e-20 5.2724797e-19 -6.6447965e-18 -2.9170465e-19 -1.0339191e-18
1.9422133e-20 1.4125399e-22 4.3529945e-19 5.4557326e-18 1.693309e-19 1.0273056e-18 7.2043955e-20 8.192455e-21

sparse_weighted_adjacency_matrices.pair_attention.query.weight f4 [64, 64]
00000000: 0507 8a1f fafe d61e 625a de9f ee45 2820
00000010: f4f1 aa1e c151 2aa0 7cd0 eb9f f982 ae1e
00000020: 4770 e09f 67ef b09f c256 ab1f af8c 1e9f
00000030: 04f1 a59f 2131 a21f b199 669e 05e0 c09f
00000040: 2698 c09f e72e 059f 52a5 549f 1282 bb1f
00000050: 3693 389e 9bc0 c29d fbbc e71f 4909 c59e
00000060: b4bf 2da0 035d ac9e cff2 b01f 5b90 3a9e
00000070: 2fe9 7d1f f77c 6d20 ba59 0b1f 6f19 b29f
00000080: a109 9d9f 5eee cd1f 1582 9a1f e762 03a0
00000090: 7a20 821f 1e93 c91f e182 2b20 4c83 8d9f
000000a0: 8fcd 4c1d db70 8f9f 26dc 931e ad90 4b9e
000000b0: 95b6 07a0 2a83 e51c 6c21 041f 5a86 aa1e
000000c0: 3eaa 191f 8311 849f 0f79 109e c95c fa9c
000000d0: cfc7 1b1f 95bb 83a0 c68c 9c1f d852 629f
000000e0: 1e5a dd1f c118 9b9f 8895 de1f 8d26 1520
000000f0: 9137 f29d cbc7 2c1f 1cfd 661e 236d ad1f
00000100: 9fbb 881f 3656 22a0 714c 1420 af51 e99e
00000110: 563a ce9f e7ca 8a1f eae6 a79f 7e49 e49e
00000120: d835 18a0 6cb8 5d1f 4937 a320 cb55 8a20
00000130: 4c02 36a0 e0d6 c79f d548 3e1d eaff c39f
00000140: 4f9b 6720 b559 339f f81a a51f 158a b59f
00000150: f4a6 611f 82a5 241f eb03 0b20 0c97 1c20
00000160: 41e0 b89f ce67 e41e 9b7a 5ea0 4af6 c49f
00000170: a666 271f 2b22 ce1e 5547 5020 cbef 1f1f
00000180: e6b6 379c a8aa 3820 b6ba 76a0 83ae c29f
00000190: 0fd9 da1d 5a85 889f 9fb1 2920 b522 3d9f
000001a0: fb3d 449f ff61 8f20 e297 b620 4f1c 51a0
000001b0: e921 0ba0 77cc 38a0 60dd 5c1f 2ee9 ee1f
000001c0: 51be 89a0 cbe3 d71f 81ca 4920 f1fd e21e
000001d0: 487e ab20 9aed d71d 899b 179f d513 3ba0
000001e0: b55b 7520 e88e 30a0 baeb 349f f441 6d9f
000001f0: 4293 0e9f 4bbb 811f ef54 9c9f 0e6a 8da0
00000200: 6bfe 3f1f 3dba 3120 83cb 4ea0 05ce ee1f
00000210: 558d d81e 81d6 441f f630 a01d 6b01 f39d
00000220: dae3 e41f da3d 6f1f 7ce6 4020 a5a9 179f
00000230: 2878 8f1d bd68 881f 3413 b39f d0d8 301f
00000240: 1322 1e20 a79b 3220 1ff2 809e 077e 9b9e
00000250: 0368 f01f f796 0220 41de bd1f 8241 181f
00000260: 0b7b 681f 4654 991f 4746 1a1f a805 381f
00000270: bf7b b81f b49c c61f 5ccc 851e 27ed 709f
00000280: 0465 3c1f 8588 5f9f a747 8d9f fa48 dc9e
00000290: 9393 901f ba87 619f 1689 db1f 2d12 b09e
000002a0: af44 d79e e470 f99e fa3d 0220 1d49 3ea0
000002b0: 7f76 0aa0 bc89 861f 69f6 9d1e 50ff 27a0
000002c0: 7327 0620 f3f4 ba20 d1fd db1f 5373 089f
000002d0: 3c9f 5720 63d6 40a0 6efb 2f1f 5833 3320
000002e0: e60b 719f 5ae2 8a9f d85c 16a0 3bd0 091f
000002f0: d6f4 311f 5362 ce9f 0053 9a1d fa9e 1f1e
00000300: 0458 a09f 568a 8a9f 009c d11f cf24 711d
00000310: 6ce8 09a0 e876 869e 0a5c 279f a397 879e
00000320: ab8c 261d 0858 e11f 37f3 0020 6a4f 2c20
00000330: f2d7 eb1d 172d 979f d4ea 4d9f 2e1e a49f
00000340: 3e93 ee9d e103 791f ac79 1ca0 a8b9 12a0
00000350: 0897 f41f 8c8e 379e ee27 9c9f d7b9 859b
00000360: e7e7 a09f 513f 0b9f daff 0d20 2206 b21e
00000370: 3446 161f fcf9 18a0 b421 931f 96f6 9b9f
00000380: ff0e 0d20 46e2 9e9f 0244 031f 19e6 809f
00000390: 95b3 d79f 18f5 24a0 de11 8b9c 25f4 e09f
000003a0: ca25 641f a528 8820 7629 2020 9afc 8b9f
000003b0: 6393 961f a8a8 ad1f f7f7 27a0 377b ca1f
000003c0: a7d2 39a0 ff6a 40a0 74a7 3d9f ff39 5e1e
000003d0: a692 0020 5fd7 5c20 ccfb da9e cec8 1c1e
000003e0: 20df 669f 8d7d b51f d596 c39f 2f95 271f
000003f0: b6d7 d29f cda3 5aa0 7956 a71e f759 6c9f
5.8456886e-20 2.2763587e-20 -9.417018e-20 1.4253291e-19 1.809952e-20 -1.442661e-19 -9.987128e-20 1.8477136e-20
-9.505344e-20 -7.493496e-20 7.2564846e-20 -3.3574172e-20 -7.0278945e-20 6.8690946e-20 -1.2207881e-20 -8.168577e-20
-8.156687e-20 -2.8202642e-20 -4.5029496e-20 7.9412764e-20 -9.771321e-21 -5.155052e-21 9.814495e-20 -2.0862027e-20
-1.4717099e-19 -1.8249677e-20 7.494059e-20 -9.87661e-21 5.376772e-20 2.0116028e-19 2.9508615e-20 -7.542801e-20
-6.6508016e-20 8.721522e-20 6.543674e-20 -1.1128856e-19 5.511087e-20 8.5370196e-20 1.4527568e-19 -5.9933035e-20
2.7105446e-21 -6.074956e-20 1.5655282e-20 -1.0776649e-20 -1.1495356e-19 1.5187854e-21 2.7979733e-20 1.8055017e-20
3.253983e-20 -5.5933145e-20 -7.648331e-21 -1.6567597e-21 3.2987805e-20 -2.2316395e-19 6.630146e-20 -4.7925888e-20
9.374623e-20 -6.5686005e-20 9.4268036e-20 1.2633546e-19 -6.411432e-21 3.658768e-20 1.22284404e-20 7.34489e-20
5.7908633e-20 -1.3750459e-19 1.256138e-19 -2.4703618e-20 -8.73409e-20 5.878095e-20 -7.1109266e-20 -2.4170835e-20
-1.2892716e-19 4.695112e-20 2.764986e-19 2.3434882e-19 -1.541676e-19 -8.463526e-20 2.5183944e-21 -8.3009087e-20
1.9617848e-19 -3.7978928e-20 6.9924834e-20 -7.688492e-20 4.7783704e-20 3.4865256e-20 1.1775054e-19 1.3263691e-19
-7.829803e-20 2.4183372e-20 -1.8844698e-19 -8.341668e-20 3.5448534e-20 2.182523e-20 1.7641887e-19 3.3867912e-20
-6.078601e-22 1.5641872e-19 -2.0898788e-19 -8.24509e-20 5.7928553e-21 -5.781885e-20 1.4373627e-19 -4.0051016e-20
-4.1555883e-20 2.428999e-19 3.0932507e-19 -1.7712355e-19 -1.1784978e-19 -1.5653058e-19 4.676993e-20 1.01182684e-19
-2.3334644e-19 9.1432894e-20 1.7092365e-19 2.4033708e-20 2.9052093e-19 5.71557e-21 -3.210415e-20 -1.5846078e-19
2.078265e-19 -1.4955064e-19 -3.831147e-20 -5.0241257e-20 -3.019148e-20 5.4943475e-20 -6.620908e-20 -2.395651e-19
4.0656273e-20 1.5054104e-19 -1.7516215e-19 1.0113775e-19 2.2928343e-20 4.1682048e-20 4.240227e-21 -6.432303e-21
9.6938705e-20 5.066138e-20 1.6339293e-19 -3.211582e-20 3.7976023e-21 5.7771515e-20 -7.584122e-20 3.7448793e-20
1.3394395e-19 1.5128688e-19 -1.3652666e-20 -1.6463387e-20 1.01816027e-19 1.1061378e-19 8.04123e-20 3.224144e-20
4.922969e-20 6.493744e-20 3.26689e-20 3.8968194e-20 7.813175e-20 8.4115505e-20 1.4166444e-20 -5.1018145e-20
3.9894107e-20 -4.7335013e-20 -5.983436e-20 -2.3323588e-20 6.1230513e-20 -4.7757874e-20 9.29769e-20 -1.8642242e-20
-2.2792417e-20 -2.6410591e-20 1.1031935e-19 -1.6117817e-19 -1.1728262e-19 5.697907e-20 1.6724934e-20 -1.4229926e-19
1.1363294e-19 3.167172e-19 9.317001e-20 -2.8894514e-20 1.8263895e-19 -1.6333967e-19 3.726567e-20 1.5178878e-19
-5.1043577e-20 -5.881974e-20 -1.2736214e-19 2.9183123e-20 3.768373e-20 -8.740706e-20 4.084928e-21 8.4502655e-21
-6.7908245e-20 -5.867413e-20 8.8773023e-20 3.1915114e-21 -1.1681253e-19 -1.423698e-20 -3.543976e-20 -1.4356396e-20
2.204264e-21 9.543684e-20 1.0922495e-19 1.4595243e-19 6.2427264e-21 -6.402558e-20 -4.3604684e-20 -6.950663e-20
-6.315032e-21 5.273101e-20 -1.3253972e-19 -1.242811e-19 1.0358788e-19 -9.717417e-21 -6.613463e-20 -2.21231e-22
-6.8146286e-20 -2.948677e-20 1.2027819e-19 1.884902e-20 3.1821806e-20 -1.2957614e-19 6.231268e-20 -6.6052996e-20
1.1948126e-19 -6.728994e-20 2.7796584e-20 -5.4590773e-20 -9.1353135e-20 -1.3972435e-19 -9.202867e-22 -9.5271593e-20
4.8312136e-20 2.3066192e-19 1.3566245e-19 -5.9286684e-20 6.37713e-20 7.354737e-20 -1.4227495e-19 8.575417e-20
-1.5739809e-19 -1.6298435e-19 -4.016082e-20 1.17645755e-20 1.0890544e-19 1.8705985e-19 -2.3185789e-20 8.300097e-21
-4.888896e-20 7.686419e-20 -8.283524e-20 3.5487027e-20 -8.9295323e-20 -1.8519515e-19 1.7717577e-20 -5.004936e-20

sparse_weighted_adjacency_matrices.pair_attention.query.bias f4 [64]
00000000: 2219 2aa0 9b94 0fa0 d42e 5b9f b36e 869f
00000010: 09f8 2aa0 6cb0 a6a0 09b4 4ea0 7915 451f
00000020: 994c 981f f11e 9e9f 377d 0d1e 324b 739e
00000030: 808f 46a0 743e 389f ac95 59a0 81e8 d41d
00000040: 53cd 61a0 86bc 9d9f a186 ed9f aec3 3a20
00000050: 0a73 831e cb47 169e 46da 87a0 cb4e c29e
00000060: f364 e59d 06c5 091f 5cd0 30a0 68e9 5ba0
00000070: 7aa6 4520 184d 1220 7207 fd9e bdb2 04a0
00000080: a85e dc9f 5dc4 ba1e 3daa f99f 4d8c 35a0
00000090: 42de d59e 62d8 631f 9050 1620 8b37 fd9f
000000a0: 8c23 0da0 ea22 689e b4f6 921e 2d9c 37a0
000000b0: 55fb 33a0 8755 f59e 9980 8b1f 89ac 111f
000000c0: 6d04 4d1e 57dd ac1e e238 ed9f 08e3 311f
000000d0: 9831 4f9f b1ca 849f 8a3d 591f 528b 041f
000000e0: ddc1 f31d bdcc e09f bd1c 769e 0dc4 521f
000000f0: cb7f 509f d394 851e 10c4 0020 9420 2920
-1.4407876e-19 -1.216174e-19 -4.641379e-20 -5.6934344e-20 -1.4481628e-19 -2.823824e-19 -1.7508447e-19 4.1734134e-20
6.4501224e-20 -6.696679e-20 7.490372e-21 -1.2879863e-20 -1.6818733e-19 -3.9015176e-20 -1.8430137e-19 5.6356336e-21
-1.9126177e-19 -6.680397e-20 -1.0059613e-19 1.5819558e-19 1.3917744e-20 -7.95578e-21 -2.301433e-19 -2.0573137e-20
-6.0720174e-21 2.9173852e-20 -1.497672e-19 -1.8627249e-19 1.6741632e-19 1.2392189e-19 -2.6790496e-20 -1.1239974e-19
-9.333022e-20 1.977473e-20 -1.0573724e-19 -1.5377718e-19 -2.2644176e-20 4.8248107e-20 1.273215e-19 -1.07241556e-19
-1.1954926e-19 -1.2289198e-20 1.5560385e-20 -1.5552377e-19 -1.5245049e-19 -2.5975757e-20 5.908154e-20 3.0847662e-20
1.0853525e-20 1.8302752e-20 -1.0046751e-19 3.7669004e-20 -4.3874978e-20 -5.62395e-20 4.600244e-20 2.806733e-20
6.4522014e-21 -9.52064e-20 -1.30290745e-20 4.46314e-20 -4.415142e-20 1.4143475e-20 1.0906893e-19 1.4325636e-19

sparse_weighted_adjacency_matrices.pair_attention.key.weight f4 [64, 64]
00000000: 6ca9 0a1f 8238 849f 8973 af1f ee94 059f
00000010: bba4 601f 9a6a 431e 9ecb 14a0 ea01 641e
00000020: 22d1 ef1f 0f46 669f 8e1e 2b20 b4bc 711c
00000030: 04dc 03a0 a263 1720 70f1 e51e 9a56 16a0
00000040: 251a 141f e0b6 919e d789 ee9f c110 e69e
00000050: 71ad 2320 5c5d 639f 8f67 4aa0 3964 05a0
00000060: a42e 4e20 26b2 249f 8965 8f9f 3d8a bb9f
00000070: f1c6 241f 7d74 351e 9677 a19d 2374 9d20
00000080: 6a19 f99f bc6d 1da0 eaca d91f 24c2 60a0
00000090: 89ac 06a0 c04a e91f d24e b09e d129 f59e
000000a0: 5c46 c31f 7109 b91e 53cb 5b9f 23ee 941f
000000b0: a586 301f fabf cd1f 280e 6620 1570 e71f
000000c0: 706d 93a0 0cef 6c1f fbd5 271f 62db cd1f
000000d0: 4e4c 659f b563 ca1e 2619 05a0 814a aca0
000000e0: db3b a29f 1446 c99f f150 4b20 64df 211e
000000f0: 57ed 2120 852c 841f d734 b71f c8bd f39f
00000100: 03cc 101f 5e66 251f a262 4920 c69e 0d9d
00000110: d033 b29f 4683 a49f f0e7 8f20 5b41 4720
00000120: 1889 a61f f06e 1220 f136 26a0 88a2 721f
00000130: 2583 c29f c6b6 31a0 5197 571f 39ff bb1f
00000140: 7b62 a120 7189 861f 34fc 8c9d 23de 989f
00000150: be84 00a0 b113 2da0 375c 5120 7a17 379f
00000160: 2cdf f51f 8a15 331f a33d 471d 5306 11a0
00000170: 98a1 3c1f b72f d29f 9f8e b31f 3c93 8f20
00000180: a3b7 bc9f 7389 38a0 99a8 9f1d 1a29 349f
00000190: ef7e c09f 3758 2320 a2db 3b20 d8bc 1c9c
000001a0: 1904 349f be72 c01f b663 659f a175 b99c
000001b0: 44f8 c71f cbb3 ca1f d813 6120 acae 279f
000001c0: 8147 1c20 89a7 9520 13a1 8520 f97c 0d9f
000001d0: e3d1 cc1f e3f3 ca1f 9bb4 8c1e 04f0 d59f
000001e0: 29be bd1f 0a68 779f c362 c21f 38d2 9d1e
000001f0: 5911 7320 9dbf 5b9e 9cfe b29f d65e e09f
00000200: 1d4e 5da0 ee7c 0fa0 83bf b49f e1ba a49f
00000210: 2c67 e69f fdb3 051f 3012 841d 878a 969f
00000220: 6678 a31f 05c0 d79e aa1a 009e 5006 821f
00000230: 8b34 a71f 915f 799f 9e18 1920 b715 951f
00000240: 7794 101e 85e2 c29d 0dfa 7aa0 9b2d ef1d
00000250: b4b0 829f ed10 1e9d c888 369f 8bab 6a9f
00000260: ecfb 81a0 76e8 0d9f 3fb5 641f 5b78 819f
00000270: 5fc6 201f e99d ea1f 931b 861f fbd2 491e
00000280: 7fff 911f 730d df1f 22e5 fc9f 162f 851f
00000290: 9735 b41e 62a7 269f e747 541e 6438 6a9f
000002a0: 3591 b11f 371c 8c1f 63f6 1420 1531 769f
000002b0: f801 ca1f 88da 2e1f 735d 3ca0 2dfc e11f
000002c0: c96f 191f 4863 a59e 0877 679e 36ee 39a0
000002d0: f718 a29f d1b8 7d1f ddec 711f d83c 611f
000002e0: 89b8 d81e 4928 0c9f 680c 6d1e 0d45 3720
000002f0: de8a 9ca0 9027 269f 8afb 3d9e ae01 669f
00000300: f7d4 841f 499f 371e 2d57 b01f 9311 c89f
00000310: e5cd 2420 57c8 b69f 81dd 0e1f bd15 659f
00000320: 2670 d19f 9b05 d19f cb5d ec9f f3d7 261e
00000330: d16e 01a0 4ccf 1aa0 3787 1d9e f2a1 1b9f
00000340: f863 3a1f 4dba 141f 7cd7 741f ffb2 bb9e
00000350: 6076 5b1f d02c 109d 5f26 ef9f 13d5 3420
00000360: baa8 33a0 8ed8 491d dfeb 389f c90e 421f
00000370: 2f3c 051f 2955 941f 91df f61e 4ffb 731f
00000380: 7164 431f ac19 7d1e c7ac a41f b229 931f
00000390: a9d8 011e 8208 a31e a5ee 23a0 ba59 6c9f
000003a0: 7d3d 781e 9fbc 6e9f 9a9e 4f1e e5dc a21f
000003b0: ae66 4620 a284 2a9f 9177 4ea0 119c 1fa0
000003c0: c507 3520 f1ec 839f 5968 539f de8d 4920
000003d0: f50b 5e1f 61e7 049f 15dd 1b20 a09d 859f
000003e0: 75a5 0e9e 0726 249f bac2 f01e a0cd b19f
000003f0: ce43 679f b2d4 c81e 181b 1d1f e065 b69f
2.936278e-20 -5.599766e-20 7.430652e-20 -2.8287037e-20 4.7570107e-20 1.0345259e-20 -1.2603459e-19 1.2070615e-20
1.0156642e-19 -4.8762346e-20 1.4494373e-19 7.9984104e-22 -1.1168929e-19 1.2823163e-19 2.4346174e-20 -1.2734148e-19
3.1361845e-20 -1.5428107e-20 -1.0102496e-19 -2.4359126e-20 1.3864024e-19 -4.8146345e-20 -1.714433e-19 -1.1298699e-19
1.7464311e-19 -3.4875712e-20 -6.073083e-20 -7.9426277e-20 3.489291e-20 9.6061494e-21 -4.2739994e-21 2.6673687e-19
-1.05497646e-19 -1.3334725e-19 9.223877e-20 -1.9037774e-19 -1.1407329e-19 9.8803e-20 -1.8667324e-20 -2.5957679e-20
8.270211e-20 1.9591542e-20 -4.654324e-20 6.30744e-20 3.7380825e-20 8.7138476e-20 1.9486442e-19 9.801773e-20
-2.4975188e-19 5.017268e-20 3.5540626e-20 8.7183816e-20 -4.8555754e-20 2.142882e-20 -1.1273859e-19 -2.9187236e-19
-6.870869e-20 -8.5242746e-20 1.722155e-19 8.569465e-21 1.371576e-19 5.5977826e-20 7.759093e-20 -1.0322847e-19
3.066194e-20 3.5024785e-20 1.7057997e-19 -1.8743279e-21 -7.547165e-20 -6.9673875e-20 2.4378626e-19 1.687758e-19
7.053054e-20 1.2403387e-19 -1.4078926e-19 5.1379936e-20 -8.2379156e-20 -1.5052958e-19 4.5653187e-20 7.961981e-20
2.733963e-19 5.6978585e-20 -3.7318463e-21 -6.4742e-20 -1.0885942e-19 -1.4660185e-19 1.77335e-19 -3.8771177e-20
1.0413074e-19 3.792254e-20 2.6369296e-21 -1.228407e-19 3.9944216e-20 -8.90174e-20 7.6045396e-20 2.4322574e-19
-7.99249e-20 -1.5630884e-19 4.2261275e-21 -3.815048e-20 -8.152516e-20 1.3835825e-19 1.5912187e-19 -5.1860145e-22
-3.8119872e-20 8.150499e-20 -4.8575115e-20 -1.2272679e-21 8.46905e-20 8.584777e-20 1.9064807e-19 -3.550811e-20
1.3237373e-19 2.5352447e-19 2.2637666e-19 -2.9961286e-20 8.674459e-20 8.5953804e-20 1.4897773e-20 -9.060608e-20
8.035921e-20 -5.2390344e-20 8.2325583e-20 1.6709966e-20 2.058864e-19 -1.1633388e-20 -7.580715e-20 -9.502458e-20
-1.8745274e-19 -1.2153907e-19 -7.6549795e-20 -6.976587e-20 -9.757947e-20 2.8312728e-20 3.4958915e-21 -6.3756645e-20
6.923237e-20 -2.2843428e-20 -6.7817776e-21 5.5067585e-20 7.0814176e-20 -5.2806852e-20 1.2967749e-19 6.313988e-20
7.653998e-21 -5.158559e-21 -2.1258559e-19 6.330993e-21 -5.534947e-20 -2.0919876e-21 -3.8653142e-20 -4.9693324e-20
-2.2020158e-19 -3.00502e-20 4.84308e-20 -5.4832737e-20 3.4045407e-20 9.9364095e-20 5.6796825e-20 1.0684481e-20
6.183257e-20 9.4466423e-20 -1.0710522e-19 5.640559e-20 1.9080406e-20 -3.5290323e-20 1.1238056e-20 -4.9598073e-20
7.520264e-20 5.9338984e-20 1.261761e-19 -5.2133126e-20 8.5553585e-20 3.7026698e-20 -1.5955139e-19 9.5708396e-20
3.2491477e-20 -1.7511116e-20 -1.2253653e-20 -1.5748927e-19 -6.865097e-20 5.372771e-20 5.1229664e-20 4.7695932e-20
2.2946212e-20 -2.9679476e-20 1.2549241e-20 1.552355e-19 -2.6519323e-19 -3.5184593e-20 -1.0057594e-20 -4.8705784e-20
5.6256495e-20 9.720879e-21 7.468312e-20 -8.473237e-20 1.3959465e-19 -7.741143e-20 3.0252893e-20 -4.8510618e-20
-8.870048e-20 -8.8524216e-20 -1.00105055e-19 8.832624e-21 -1.0963391e-19 -1.3112896e-19 -8.3394726e-21 -3.2956485e-20
3.9469724e-20 3.1494323e-20 5.1847254e-20 -1.9873426e-20 4.647297e-20 -1.9081409e-21 -1.0128392e-19 1.5317093e-19
-1.5217717e-19 2.6714085e-21 -3.9158624e-20 4.1093328e-20 2.8213628e-20 6.2821324e-20 2.6138728e-20 5.166513e-20
4.137594e-20 1.3399017e-20 6.974254e-20 6.23259e-20 6.8740074e-21 1.7261815e-20 -1.3885598e-19 -5.0049164e-20
1.3141726e-20 -5.0554484e-20 1.0991287e-20 6.897511e-20 1.6805226e-19 -3.610861e-20 -1.748844e-19 -1.3519462e-19
1.5333867e-19 -5.5872645e-20 -4.4767302e-20 1.7072302e-19 4.702022e-20 -2.814348e-20 1.320216e-19 -5.658846e-20
-7.551633e-21 -3.4759806e-20 2.5491525e-20 -7.5302594e-20 -4.897224e-20 2.1263792e-20 3.3268455e-20 -7.7248536e-20

sparse_weighted_adjacency_matrices.pair_attention.key.bias f4 [64]
00000000: cf67 aa1d bf5b 18a0 0640 0fa0 dbc0 cf1e
00000010: 1a01 0e1f 79d5 a81f 29c0 059e e7a0 6f9f
00000020: 5252 1d1e 7388 d31f b497 c91f eafa a49e
00000030: afeb 3920 2591 ce1e 8d74 f11e 0c6f 53a0
00000040: 2f92 891e 1f25 f39e 9f54 111e 7772 1fa0
00000050: 6926 781e da2d d11e 574a 0e9e 084d 829f
00000060: 9ac3 cc9f c71e 141f de87 329f 7763 cb1c
00000070: 03d2 411f bf93 8e1f 7d2b 381d f7e0 051e
00000080: fd9f d61f 9474 0120 7a79 1f1e 82c4 f41e
00000090: 18e8 701f 1863 20a0 7ee8 e91e cdfb 3a20
000000a0: 6cf9 6d9f 7a1a 9c1d da93 23a0 5edb 1f9e
000000b0: a943 bb9e 059c 4e20 fbc1 c99e e99e 249e
000000c0: 0b62 2d1f 98eb fb1e 8ae2 c71e a39e 231d
000000d0: ba79 881f 048a d99f 9364 3e1f 90b6 e39f
000000e0: 785f 569f 0498 c59f 63f8 f01f 5dd2 1ba0
000000f0: 6d86 e49e ff6f e01f d96e 1120 12ab 1520
4.510596e-21 -1.2905257e-19 -1.2133755e-19 2.199674e-20 3.007058e-20 7.150393e-20 -7.080699e-21 -5.0743314e-20
8.328534e-21 8.958771e-20 8.537778e-20 -1.7467951e-20 1.5748091e-19 2.1871129e-20 2.5565072e-20 -1.7909138e-19
1.45659e-20 -2.5743979e-20 7.693735e-21 -1.3505697e-19 1.3136954e-20 2.21477e-20 -7.5327905e-21 -5.518458e-20
-8.6720956e-20 3.1365677e-20 -3.7805353e-20 1.3459124e-21 4.1043057e-20 6.0383765e-20 2.437468e-21 7.087483e-21
9.0897204e-20 1.0965297e-19 8.442511e-21 2.5915779e-20 5.101396e-20 -1.3585315e-19 2.4765991e-20 1.5838127e-19
-5.039302e-20 4.1320232e-21 -1.3855557e-19 -8.462754e-21 -1.9827379e-20 1.7500501e-19 -2.1361931e-20 -8.7149496e-21
3.6715274e-20 2.6673098e-20 2.1163639e-20 2.1654884e-21 5.779962e-20 -9.21314e-20 4.0317258e-20 -9.6440264e-20
-4.5395233e-20 -8.3684234e-20 1.02054875e-19 -1.3198614e-19 -2.4196036e-20 9.505297e-20 1.2318654e-19 1.2677393e-19

sparse_weighted_adjacency_matrices.pair_attention.edge_query.weight f4 [16, 16]
00000000: 5228 68be 604c 9dbd b6fc 073e c296 1abe
00000010: 2cf0 433e 00a0 433a aa14 41be a8f0 91bd
00000020: 10a3 3ebd 1a93 28be 7e16 383e c0b5 403d
00000030: 1096 79be 507a eabd 0894 41bd 4c7e d9bd
00000040: 2e77 253e 5a9b 07be c88b 39bd 9cb9 013e
00000050: 70f7 593e da7f 5d3e 3afe 75be 0454 593e
00000060: ae20 75be b65e 30be ec90 3c3e 5828 03be
00000070: a20e 13be 80d1 63be 2e2f 5fbe b869 c63d
00000080: 48e1 00be 3a48 49be 28a9 9b3d 1040 fdbd
00000090: 16db 0a3e e002 ab3d fc2c ad3d c06d f23c
000000a0: 4219 573e 28d4 c43d 8417 91bd 4e89 6b3e
000000b0: 3843 573d e0dd 613c f0fb ff3c 92be 413e
000000c0: b822 b9bd cc03 4dbe 66a8 53be 4077 35bd
000000d0: cad1 713e a425 e83d 8a0a 1d3e 701c 32bd
000000e0: da31 153e 5401 a3bd 40a6 99bc f046 213d
000000f0: e066 eebc d035 f63d 88d3 65bd d4f5 d13d
00000100: 244b fabd 8075 d53c 88db cfbd 0cb5 0bbe
00000110: 70c3 9dbc fc4d 1dbe 2811 763d 18c9 6ebe
00000120: 2e6f 063e 4cef 833d a667 443e 7ce9 84bd
00000130: b04a 4a3d 109a ec3c 70c7 093d a69b 053e
00000140: d4a5 68be f0e5 f93c bc2d f1bd 449a adbd
00000150: 10c8 2bbe 801c 653c f0ba 073d b491 7cbe
00000160: fc9e 7dbe 50fb 8dbd d8b0 5dbe 2e48 323e
00000170: 980c 113e 28b8 ad3d ee8a 71be 68f0 273e
00000180: ec5b 9cbd 987f 01bd 245d 1c3e a8b8 27bd
00000190: 3031 35be e4f9 423e c2ed 42be 0c58 33be
000001a0: c0fc 36bc 2617 653e 0829 013e d825 f03d
000001b0: 201e 3ebd 2e24 163e 5896 313e 78cc 533e
000001c0: 5c39 fc3d ee43 173e c80f d83d 98bd 0fbd
000001d0: 60c4 753d 4e8c 503e 26eb 19be f86a 733e
000001e0: 9a89 68be 3a09 38be b081 3dbd b40a b7bd
000001f0: 42b5 6ebe aeb5 3ebe bede 763e 4c58 12be
00000200: f09c cdbc f8f2 cdbd 5096 df3c 228d 6ebe
00000210: 18d4 0a3d b0f9 2e3e ee12 5fbe 86f0 0c3e
00000220: 8cc6 52be 8a98 6a3e b048 503d a8bb 2bbd
00000230: 3822 bdbd c091 b9bd b008 d93c f0f9 7cbe
00000240: c0f3 5abc 5035 89bd e815 1abd 80ae 0f3e
00000250: 8293 55be 3c86 c8bd 14cf 67be 7a2c 77be
00000260: 06a3 2bbe 0cde 9c3d aec6 353e 465c 673e
00000270: 4cf6 bdbd 9c2d a33d c2de 2cbe e09d 1e3c
00000280: 3ede 55be 122f 29be ca10 1b3e c0d5 1e3d
00000290: c4c6 c93d 9ce8 bc3d 5a9f 23be 600e 0cbd
000002a0: de15 29be 16c8 40be e483 e5bd e4d7 4bbe
000002b0: 4836 783d bc1e 493e 208d 3dbd 8c27 f63d
000002c0: 788e 373e 00f0 59bb c8b4 5d3d 349f ea3d
000002d0: 88eb 15bd 8068 243d 84ff 5f3e 58e7 13bd
000002e0: a015 2a3e e0dd c43c 662b 0a3e 56e8 23be
000002f0: aa02 36be f26f 6e3e 0e63 523e e6eb 003e
00000300: 82ed 59be baba 1ebe ce45 123e 5848 773e
00000310: 284b 4fbd a6dd 25be c0a3 083e 8e90 653e
00000320: d857 6ebe 36bd 10be 50ce 223e c4d9 88bd
00000330: 7c67 fb3d 80ee 713e 9091 13be 40b3 e7bc
00000340: 84b5 f83d 14a4 893d b0a4 00be 54d3 203e
00000350: 0c11 c43d 962f 423e 38c8 5b3e a03c 30be
00000360: 40f3 8e3c 5ef9 1d3e 6cc3 183e 303c 8bbc
00000370: 1c75 2d3e ceef 1fbe fa26 3e3e 0cba 98bd
00000380: 2016 3e3c 70c1 9fbc e039 983d 08e6 143d
00000390: 8ef6 4a3e d80d 17bd 20fb 153d 1c9e 7bbe
000003a0: 10e8 8cbd 9678 01be 50ab e43c c0d9 583c
000003b0: e067 203c 68eb 3c3d 1c04 d43d cc64 983d
000003c0: bc67 2b3e d0ab 6b3e 3cad 80bd 2c4c 433e
000003d0: 6c3f 243e 00ac f53a 349c 553e da5b 43be
000003e0: 044a eb3d 38fb b8bd da47 203e aed3 6f3e
000003f0: 3a85 17be 101f cfbc cefe 5b3e e0e4 ba3d
-0.22671631 -0.07680583 0.13279995 -0.15096572 0.19134587 0.00074625015 -0.18855539 -0.0712598
-0.046542227 -0.16462365 0.1797733 0.04704833 -0.2437365 -0.114491105 -0.047260314 -0.10619792
0.16158745 -0.13242856 -0.04529932 0.1266846 0.21285796 0.21630803 -0.24022761 0.21223456
-0.23938248 -0.1722363 0.18414658 -0.12808359 -0.1436105 -0.22247887 -0.21795341 0.09688133
-0.12585938 -0.19656458 0.07600623 -0.123657346 0.13560137 0.08350158 0.08455846 0.029593349
0.21005729 0.09610778 -0.070845634 0.23001596 0.05255434 0.013785809 0.031248063 0.18920353
-0.09039825 -0.2002098 -0.20669708 -0.04430318 0.23615184 0.113353044 0.15336052 -0.04348415
0.14569798 -0.07959238 -0.018756032 0.039374292 -0.029101789 0.12021983 -0.056109935 0.10251966
-0.12221363 0.026057005 -0.10149294 -0.13643283 -0.01925823 -0.1536178 0.060074955 -0.23318899
0.13128349 0.06442127 0.19180164 -0.06489846 0.049387634 0.028882056 0.033637464 0.13047656
-0.22719508 0.03050515 -0.11776301 -0.084766895 -0.16775537 0.013983846 0.033137262 -0.24664956
-0.24767679 -0.069327 -0.21649492 0.17410347 0.1416496 0.08482391 -0.23588154 0.16400301
-0.0763472 -0.031615824 0.15269905 -0.040947586 -0.17694545 0.19040638 -0.1903601 -0.17514056
-0.011168659 0.22372112 0.12613308 0.11725968 -0.04641545 0.14662239 0.17342508 0.20683467
0.12315628 0.14772007 0.10549885 -0.03509292 0.06000173 0.20366022 -0.15031108 0.23771274
-0.22708741 -0.1797227 -0.046266258 -0.08937588 -0.23311332 -0.18623993 0.24108407 -0.14291495
-0.025099248 -0.10056108 0.027293354 -0.23296025 0.033893675 0.17087436 -0.21784565 0.13763627
-0.20583552 0.22909752 0.05085057 -0.04192701 -0.09235042 -0.09061003 0.0264934 -0.24704719
-0.013363779 -0.06699622 -0.037618548 0.1403141 -0.20857051 -0.09791228 -0.22637588 -0.2413806
-0.16761407 0.076595396 0.17751572 0.22593793 -0.09275493 0.07967684 -0.1688185 0.009681195
-0.2088556 -0.16521862 0.15143123 0.038778067 0.09852365 0.09224054 -0.15978757 -0.034193397
-0.16512248 -0.18826327 -0.11206797 -0.19906574 0.06059864 0.1964063 -0.046277165 0.12019262
0.17925441 -0.0033254623 0.054127485 0.11456147 -0.036601573 0.04013872 0.21874815 -0.0361093
0.16609812 0.02403158 0.13493118 -0.16006598 -0.17774454 0.23284891 0.20545599 0.12589988
-0.21282008 -0.15500918 0.14284441 0.2414869 -0.050608784 -0.16197833 0.13343716 0.22418424
-0.23275697 -0.14134678 0.15899014 -0.066821605 0.122755975 0.23626137 -0.14410996 -0.028283715
0.12143996 0.067207485 -0.12562823 0.15705615 0.09573564 0.18963465 0.21463096 -0.17210627
0.017449975 0.15427157 0.14918298 -0.016996473 0.16939205 -0.15618822 0.18569556 -0.074573606
0.011601955 -0.019501418 0.07432914 0.036352187 0.19820616 -0.036878437 0.036616445 -0.24572033
-0.068802 -0.12643656 0.02791372 0.013235509 0.009790391 0.04612294 0.10352346 0.074411005
0.1673879 0.2301476 -0.06283042 0.19072026 0.16039819 0.0018743277 0.20860368 -0.19078007
0.11488727 -0.09032291 0.15652409 0.23420593 -0.14796916 -0.025283366 0.21483919 0.09125686

sparse_weighted_adjacency_matrices.pair_attention.edge_query.bias f4 [16]
00000000: dc87 ac3d b887 ebbd 923c 553e 20d6 0c3d
00000010: 3058 1c3e 3474 213e 00e4 cdba bc26 a03d
00000020: 943e 70be 74c4 403e c004 e83c 0cb7 dfbd
00000030: 78cd 3abd 2860 16be 50a9 ec3c bc3e 2b3e
0.084243506 -0.11500496 0.20823887 0.034383893 0.15268016 0.15766984 -0.0015708208 0.07819888
-0.23461372 0.18824941 0.028322577 -0.10923585 -0.045606107 -0.14685118 0.028889328 0.1672315

sparse_weighted_adjacency_matrices.pair_attention.edge_key.weight f4 [16, 16]
00000000: 0e9a 69be 449e 3cbe ecbd 2d3e f47e f33d
00000010: 5afd 33be 4038 8c3d ee5b 24be c8a7 263d
00000020: e442 b1bd 9c39 f3bd bab4 1fbe 609a 02bd
00000030: f25b 153e 008e 05ba 2898 10bd 4073 6abc
00000040: 58b4 473d 88e5 a4bd a827 3bbe 6070 b53d
00000050: 8019 f0bc 50e7 a2bc 809b 1a3e 4c60 823d
00000060: 92bd 5d3e 5431 3cbe 5c3f 3c3e 2803 05bd
00000070: 98dd 1d3e 9c2c 4b3e f86e 77be 004b bf3a
00000080: 7812 94bd 4c9a 06be 6ac6 2cbe 7ac9 58be
00000090: 0069 b0bb 78fb 82bd 580e 08be a8ee 9ebd
000000a0: ecbf 0abe 609c 7abc 2c28 273e bc2f 94bd
000000b0: 6af1 26be 703a 6abd f0d8 ca3d 0cb1 1dbe
000000c0: 0a60 5bbe e000 2a3c e4af 78be 0c1a 44be
000000d0: 208e 933c e001 11bc 3cd6 c0bd 9c18 dbbd
000000e0: 5676 4ebe d4cf 1cbe dce3 65be 9084 1bbd
000000f0: a6a7 7fbe d275 21be 50c2 75bd 2e57 483e
00000100: 0aea 733e e074 0ebe e0e8 abbd 5600 3fbe
00000110: 2c40 db3d 50b5 33be e469 52be 2099 123e
00000120: c83d e63d 08bb 8e3d a0ee 24be 6850 563e
00000130: 300a 113d e06c 9a3c 5849 4bbd 3483 f83d
00000140: f406 cfbd b04d 9d3d 1215 653e aae4 2abe
00000150: 40eb 463d a000 bbbc 50ac 63bd 48f2 883d
00000160: 54e3 85bd fce3 c4bd a0fc 0f3e 8077 5abe
00000170: 38a0 34bd b4d6 7a3e 8002 153c bc71 e0bd
00000180: 9417 febd 9048 cdbc 8c17 433e ec3b f1bd
00000190: e6ea 7a3e 1c95 2abe a07a f6bd 50d8 d7bc
000001a0: b8fe 7abe 8613 4d3e d8ec 27be c282 1c3e
000001b0: 1452 b73d 3a0f 03be 6c23 f4bd 78a0 563e
000001c0: f4a2 613e 5ca2 77be 7040 aabd 0c07 47be
000001d0: 1a74 2dbe 283c bfbd 3ea9 0a3e 36ad 6e3e
000001e0: 26c2 763e 0065 0ebc 7842 38bd ac9b da3d
000001f0: d6a3 05be 001e 94bb 8aff 10be 1af5 553e
00000200: 40e9 a9bb 3259 43be ca77 11be 84ad a63d
00000210: a2d5 18be a40a 073e 92d2 6f3e a4e3 ad3d
00000220: d8da 633d d424 893d c0cd c83d 9e49 733e
00000230: 7831 3bbe 32f9 0ebe fc00 863d 285e 10be
00000240: 005e 293a 4806 79bd b0d5 1d3e 1429 16be
00000250: cc99 aebd 0cc8 9dbd 6242 633e 10b9 903d
00000260: e825 6c3d 503f c63d 86c5 57be dcff b8bd
00000270: 8645 7b3e 9c6b 08be 74b0 0e3e 8441 073e
00000280: c0c1 99bd cc05 4abe e0a7 ab3d 72a7 183e
00000290: 504b 073e b62f 69be 9e0e 32be ecba bebd
000002a0: 4453 3fbe e433 55be 7cb3 93bd fad7 443e
000002b0: 74ee d9bd 98d3 413e 00ed 2dbb a6d2 243e
000002c0: 1840 153e ae45 203e b08e 403d c044 f63c
000002d0: 1070 a8bd 28e5 7abd c6c9 39be 48a8 f1bd
000002e0: 5a87 33be 42ba 75be 9ca8 fe3d 1850 ad3d
000002f0: 369a 0f3e 74f9 53be faab 18be 88bd f23d
00000300: 30e5 ff3d 204e 7abe ac75 7abe f85e 0cbe
00000310: 085c 84bd 4e11 6b3e 2899 cc3d 6aa3 58be
00000320: 42ba 223e 0003 583d 741c f8bd 3c93 43be
00000330: a4d6 7a3e fa24 4fbe 0090 3fbe b807 2f3d
00000340: e0d0 7a3c b42c b53d a4d5 7fbe a08e f4bc
00000350: 8cff 10be 04b3 e73d a85f 723d dc1b 9cbd
00000360: 0205 37be a854 673d 14a0 a8bd 2abb 223e
00000370: 8023 6cbd 7c0d 313e 3e63 48be a488 09be
00000380: 50f1 873d 2854 10bd 4c2a e03d 286f 1abe
00000390: 4a8b 1b3e 203e 34bd 4eae 063e caed 59be
000003a0: 68cb 46bd 68eb cf3d 1e80 55be e08a 243c
000003b0: 40b8 16bd 7807 773d f03e 5bbe 6032 aa3d
000003c0: 0052 903d d098 aebd e072 7dbc 42e2 2b3e
000003d0: 6063 5f3d 3618 5bbe d635 203e 64bb 8ebd
000003e0: eed1 4abe cc6d 8c3d 8cef 843d 569b 653e
000003f0: b465 78be 3e0b 2cbe 1876 5a3d 987b e9bd
-0.22812673 -0.18419749 0.1696698 0.11889449 -0.17577115 0.06846666 -0.16050693 0.040687352
-0.086553365 -0.118762225 -0.15596285 -0.031885505 0.14585856 -0.0005094707 -0.035301358 -0.014309704
0.048755974 -0.08051592 -0.18276846 0.088593245 -0.029309034 -0.019885689 0.15098381 0.063660234
0.21654347 -0.18378192 0.18383545 -0.032473713 0.15416563 0.19841236 -0.24163425 0.0014594495
-0.07230085 -0.13144797 -0.16872564 -0.21170607 -0.0053836107 -0.0639562 -0.13286722 -0.07760364
-0.13549775 -0.015296072 0.16323918 -0.07235667 -0.1630303 -0.057184637 0.09904659 -0.1539957
-0.21423355 0.010376185 -0.24285847 -0.19150561 0.018012106 -0.008850545 -0.09415862 -0.10698053
-0.20162329 -0.15313655 -0.22450203 -0.03796822 -0.24966297 -0.15767601 -0.059999764 0.19564506
0.23819748 -0.13911772 -0.08394027 -0.18652472 0.10705599 -0.17549634 -0.20548207 0.14316225
0.112422526 0.06969267 -0.16106653 0.2092911 0.035410106 0.018850744 -0.049630493 0.121344
-0.10108748 0.07680833 0.22371319 -0.16688791 0.048564196 -0.022827446 -0.055584252 0.066868365
-0.065375 -0.09613797 0.14061213 -0.21334648 -0.04409811 0.24495965 0.009094834 -0.10959193
-0.12406841 -0.025059015 0.19051951 -0.11779007 0.24503669 -0.16658443 -0.120351076 -0.026348263
-0.2451123 0.20026979 -0.16398942 0.15284255 0.08951202 -0.12798777 -0.11920819 0.20959651
0.22034818 -0.24183029 -0.08313072 -0.19436282 -0.1693882 -0.09337646 0.13541123 0.23308262
0.24097499 -0.008691072 -0.044985265 0.10674223 -0.1305078 -0.004520178 -0.1415998 0.2089428
-0.0051852763 -0.19076994 -0.14205852 0.08138564 -0.14925244 0.13187653 0.2342017 0.08490685
0.055628628 0.066964775 0.09804869 0.23758551 -0.1828059 -0.13962248 0.065431565 -0.14098418
0.00064608455 -0.060797006 0.15413547 -0.14664108 -0.08525428 -0.077041715 0.22193292 0.07066548
0.057653338 0.09680045 -0.21071443 -0.09033176 0.2453824 -0.133223 0.13934499 0.13208586
-0.07507658 -0.19728774 0.08381629 0.14907625 0.13212323 -0.22772107 -0.17388389 -0.09312996
-0.18684107 -0.20820576 -0.07211968 0.19223014 -0.106411844 0.18928373 -0.0026538968 0.16095981
0.14575231 0.1565158 0.047011077 0.03006208 -0.08224499 -0.061253697 -0.18143377 -0.11799675
-0.17532101 -0.23996833 0.124345034 0.08462542 0.1402367 -0.20700628 -0.14909354 0.118525565
0.12494886 -0.24443865 -0.24458951 -0.13708103 -0.06462866 0.2295582 0.0999015 -0.21156088
0.15891364 0.052737236 -0.12114802 -0.19099134 0.24495941 -0.20228949 -0.18707275 0.04273197
0.015308589 0.08846417 -0.24983841 -0.029853165 -0.14159983 0.113134414 0.059173256 -0.07622501
-0.17873004 0.05647722 -0.082336575 0.1589171 -0.057651043 0.172903 -0.19569108 -0.1343103
0.066378236 -0.035236508 0.109455675 -0.15081465 0.15189853 -0.04400456 0.1315243 -0.21282116
-0.048533827 0.10152322 -0.20849654 0.010042876 -0.03679681 0.060309857 -0.21410728 0.083103895
0.0704689 -0.085252404 -0.015469283 0.1678553 0.05453813 -0.21395954 0.15645537 -0.06969336
-0.19806644 0.068568796 0.064910024 0.22422537 -0.24257547 -0.16801164 0.05333528 -0.11400527

sparse_weighted_adjacency_matrices.pair_attention.edge_key.bias f4 [16]
00000000: 006d 1d3b 4c3b c5bd d228 52be 0c92 69be
00000010: 5872 a3bd 269f 00be 3c09 47be da1d 793e
00000020: cc10 88bd 22f6 77be aaaa 79be c06a d4bb
00000030: 3ed9 11be dacb 193e b257 1dbe 808b 873d
0.0024021268 -0.096304506 -0.20523384 -0.22809619 -0.07980794 -0.1256071 -0.19437116 0.24327794
-0.06643829 -0.24214986 -0.2438151 -0.006482452 -0.14243028 0.1501917 -0.15365484 0.066184044

sparse_weighted_adjacency_matrices.group_attention.embedding.weight f4 [64, 2]
00000000: 7565 70a0 c9c3 bea1 28c8 50a0 4af0 e4a0
00000010: 3ba1 8522 be96 cb21 5df3 169e c5c7 9821
00000020: 270e 11a2 747c cc21 2f3b 57a2 5a0e 89a1
00000030: cd2f 7d20 b923 8d9f 2884 02a0 0b85 2f9f
00000040: c214 0521 0bfb 07a2 fec5 e2a1 ebcd 2ca2
00000050: 4015 8522 fa6d e820 f3b6 8422 d1b3 8d1f
00000060: cb28 06a0 3e68 64a1 df7e c620 0d06 289f
00000070: fc70 9a20 6f86 1920 9407 83a0 f2bb 8222
00000080: b0c8 0622 55fd e99d 6448 61a1 2db7 30a0
00000090: 72fc 381e 607d 8620 5baa dea1 3e96 3921
000000a0: c4ca daa1 3155 429f 207c 4a21 53f3 36a2
000000b0: de57 01a3 82ef 3c22 ab20 2a21 aacc d4a0
000000c0: 9176 2f21 87c1 a81e f78d db9f 5e1f 0ca1
000000d0: c287 ec9e 100b cb20 4124 84a1 618f 8c1e
000000e0: e16a ad9d f936 8a1f 8cc0 8aa2 1b66 0023
000000f0: c24b 07a0 98c0 f220 249c f722 a792 dd1f
00000100: 441e ac9f bb78 52a1 d25d 6a20 139c 9820
00000110: 108d 689f 4293 0223 1bc4 e99c bd66 b122
00000120: 9d0e 50a0 8f88 f022 1fad bba0 9c6d d521
00000130: fd4b 1ea1 590c 24a0 d625 8c22 33f4 8fa0
00000140: 1c37 dba1 07fc 28a2 cc9b d5a2 db55 9020
00000150: 1351 ec22 d7e2 9ea2 a64d e122 ce08 05a1
00000160: 2fc0 911e a454 9d21 9112 35a1 dc57 8921
00000170: 11f3 a21f fdd3 1721 e656 8921 b22e a820
00000180: 7347 dba1 1547 4922 9022 2620 2d19 bd20
00000190: cb27 429f c305 879f 5448 6b1f 6c88 2920
000001a0: 2f57 b8a0 d9e1 79a1 6147 3d20 6833 30a2
000001b0: 1ebf 6020 5d9c a51f 0a4e 8621 aa2a 839f
000001c0: 216e d7a0 e257 46a1 fde7 46a0 c965 0ea2
000001d0: 2837 c020 8911 2022 16c8 d022 d121 f120
000001e0: c005 f4a0 0307 721f cc37 c721 1142 3223
000001f0: 1797 919f fc7f cca2 455e 0aa3 7bee 6f9e
-2.036236e-19 -1.2926725e-18 -1.7684511e-19 -3.8783712e-19 3.622043e-18 1.3795716e-18 -7.99126e-21 1.0352799e-18
-1.9658657e-18 1.385652e-18 -2.9169265e-18 -9.28728e-19 2.144575e-19 -5.977492e-20 -1.1055155e-19 -3.7167742e-20
4.5089626e-19 -1.8428813e-18 -1.5366764e-18 -2.3419359e-18 3.607222e-18 3.9375105e-19 3.5972377e-18 6.0013304e-20
-1.1363739e-19 -7.738737e-19 3.362646e-19 -3.558039e-20 2.6163382e-19 1.3004084e-19 -2.2197278e-19 3.5435565e-18
1.826663e-18 -6.1936526e-21 -7.6328773e-19 -1.4968388e-19 9.793083e-21 2.278345e-19 -1.5088398e-18 6.287928e-19
-1.4825926e-18 -4.1151567e-20 6.860454e-19 -2.4794414e-18 -7.011711e-18 2.5605545e-18 5.7641476e-19 -3.6049632e-19
5.944923e-19 1.7867733e-20 -9.298497e-20 -4.747536e-19 -2.504362e-20 3.4396858e-19 -8.954264e-19 1.4882377e-20
-4.590323e-21 5.853622e-20 -3.760884e-18 6.9605156e-18 -1.1460011e-19 4.1123842e-19 6.7114804e-18 9.3839757e-20
-7.2894904e-20 -7.1310553e-19 1.9851614e-19 2.5853083e-19 -4.9244595e-20 7.078497e-18 -1.5469339e-21 4.8084725e-18
-1.762312e-19 6.5196717e-18 -3.1793594e-19 1.4462455e-18 -5.363305e-19 -1.3895426e-19 3.7987136e-18 -2.438674e-19
-1.4854605e-18 -2.2901668e-18 -5.789872e-18 2.4451363e-19 6.405377e-18 -4.306616e-18 6.1068586e-18 -4.5073806e-19
1.5431957e-20 1.0661138e-18 -6.134976e-19 9.306737e-19 6.901179e-20 5.1441354e-19 9.306483e-19 2.8491207e-19
-1.485893e-18 2.727821e-18 1.4072183e-19 3.2034505e-19 -4.1114014e-20 -5.7184256e-20 4.9823014e-20 1.4359995e-19
-3.1228506e-19 -8.466339e-19 1.603254e-19 -2.3879662e-18 1.9036773e-19 7.01389e-20 9.10085e-19 -5.555124e-20
-3.6495294e-19 -6.720132e-19 -1.6848011e-19 -1.9298473e-18 3.2562565e-19 2.1693326e-18 5.6590362e-18 4.0849366e-19
-4.1339013e-19 5.1251293e-20 1.3499534e-18 9.6633894e-18 -6.1659846e-20 -5.542982e-18 -7.500957e-18 -1.2701871e-20

sparse_weighted_adjacency_matrices.group_attention.embedding.bias f4 [64]
00000000: d19f 97a1 3bf1 4ba1 cb56 3620 4aac bc20
00000010: 40ce fa22 1d9e d8a1 62c9 d5a1 35de 0821
00000020: d66d 95a1 830d 03a2 7095 4321 a53e 169f
00000030: cf4c c6a0 2b76 49a0 801c b6a0 2dbd 2d9f
00000040: 3408 0da1 9d45 dea1 4709 82a0 62ba 461e
00000050: 4d2c 38a2 390f e0a2 4cd7 1aa1 5165 1d20
00000060: 6f74 8b21 ae21 f3a2 8c20 4420 1310 219f
00000070: d981 1fa1 8a8f 22a0 65a3 0ba0 b3fc 6d22
00000080: b330 a41f 3191 6f20 d417 40a1 2d8e 0623
00000090: 0206 be1f 0611 4fa1 3ae2 8aa2 006e 22a2
000000a0: fba2 c120 e61b 0320 ca53 d120 493b e29f
000000b0: 4d71 2b1f d593 0523 449f c8a1 3b35 77a2
000000c0: b7ad 47a0 c82f 0623 5f71 be21 e4df e720
000000d0: 4af9 12a1 7b0d 87a0 bd9b 3ea0 1264 72a1
000000e0: ff50 1e21 96e0 d39f 8f0f 1320 8e4a 94a1
000000f0: b988 2d23 0bf6 0322 99d7 95a0 ace6 359f
-1.0274461e-18 -6.909834e-19 1.5444717e-19 3.196245e-19 6.798101e-18 -1.4678582e-18 -1.4486747e-18 4.637268e-19
-1.0125706e-18 -1.7760964e-18 6.626635e-19 -3.1815554e-20 -3.3593332e-19 -1.7064461e-19 -3.085086e-19 -3.6790658e-20
-4.7783515e-19 -1.5061732e-18 -2.2028996e-19 1.0520576e-20 -2.4960103e-18 -6.073144e-18 -5.2462173e-19 1.333194e-19
9.449826e-19 -6.590094e-18 1.6612615e-19 -3.4106372e-20 -5.4043147e-19 -1.3769427e-19 -1.1827821e-19 3.2253267e-18
6.953727e-20 2.0292127e-19 -6.5083667e-19 7.2942614e-18 8.047807e-20 -7.015686e-19 -3.76445e-18 -2.2013328e-18
3.2803323e-19 1.1105362e-19 3.5461424e-19 -9.58128e-20 3.630438e-20 7.241249e-18 -1.3594684e-18 -3.3502922e-18
-1.6913433e-19 7.274273e-18 1.290491e-18 3.928108e-19 -4.9796655e-19 -2.287881e-19 -1.6145155e-19 -8.212523e-19
5.363968e-19 -8.973352e-20 1.2456532e-19 -1.0048605e-18 9.407301e-18 1.7884065e-18 -2.5384252e-19 -3.8519048e-20
