checkpoints/GHGNN/zara1/val_best.pth (torch, 128786 bytes, 58 tensors)

sparse_weighted_adjacency_matrices.edge_inital.x_embedding.weight f4 [16, 2]
000000 81 a5 60 b8 2b a2 db b7 74 19 79 39 03 65 97 39
       -5.35599e-05 -2.618235e-05 0.00023755973 0.00028876224
000010 6c e8 6f b0 ee d8 a4 31 d9 3c 9d b6 a5 79 3e 37
       -8.7277985e-10 4.7976902e-09 -4.686048e-06 1.1353205e-05
000020 8a 98 69 b6 93 2e 98 b5 87 a3 c5 b4 1c 81 96 b4
       -3.4808495e-06 -1.1338437e-06 -3.681309e-07 -2.8033617e-07
000030 0f db 8a b4 f7 bc 3c b2 a3 08 9d b6 90 e4 b9 b6
       -2.586389e-07 -1.0986006e-08 -4.67997e-06 -5.540038e-06
000040 05 a9 45 b7 9b 56 93 b6 7a c8 20 33 1f 96 fd b2
       -1.1781468e-05 -4.3910236e-06 3.7435235e-08 -2.9521344e-08
000050 86 1e c7 af d5 5d af 30 34 4e af b4 a1 47 e9 b3
       -3.6219577e-10 1.2759594e-09 -3.265319e-07 -1.0862937e-07
000060 2f 2f c1 38 14 e9 b0 38 6f 22 d3 37 02 64 07 38
       9.211746e-05 8.435748e-05 2.5169194e-05 3.2279648e-05
000070 59 60 17 b0 3f 7e 8b 31 be cb ef 37 2a 73 0f 38
       -5.50704e-10 4.059785e-09 2.8585895e-05 3.420111e-05

sparse_weighted_adjacency_matrices.edge_inital.x_embedding.bias f4 [16]
000000 eb 2c fb bb e0 5a da 3c ab 93 15 b4 68 37 4d 37
       -0.0076652667 0.02665466 -1.3930428e-07 1.2231852e-05
000010 eb 3d f7 b9 57 87 4b 37 44 d7 36 b8 c7 d0 95 37
       -0.00047157644 1.2131254e-05 -4.3592663e-05 1.7859404e-05
000020 5c b4 f6 ba fb 6c b7 36 56 9e dc b3 23 63 30 b8
       -0.0018822062 5.466512e-06 -1.02733495e-07 -4.2054e-05
000030 8f 5a 63 b7 89 6d 47 bb 22 2e 75 b2 53 53 36 b9
       -1.3551339e-05 -0.0030430278 -1.4271366e-08 -0.00017387913

sparse_weighted_adjacency_matrices.edge_inital.edge_embedding.weight f4 [16, 16]
000000 1f 52 6c 39 8a 07 ef bb 35 7c 32 31 2b 32 a6 3b
       0.00022537306 -0.0072946 2.5973013e-09 0.0050718985
000010 3f 32 e5 38 0a 70 5d 39 42 10 34 b6 de e0 24 bb
       0.0001092893 0.0002111794 -2.6831553e-06 -0.0025158445
000020 bc 09 1b 38 c6 42 bf b3 90 63 0e 31 85 74 2e b7
       3.6963946e-05 -8.9062766e-08 2.0720314e-09 -1.03983375e-05
000030 c4 a7 30 bb cc eb 3b ba f0 9f 95 34 7b bb 81 bb
       -0.0026955465 -0.00071686204 2.7869783e-07 -0.003959117
000040 1f 74 96 39 93 e2 48 39 10 91 11 32 40 38 a1 b7
       0.00028696746 0.00019157892 8.473094e-09 -1.9218889e-05
000050 30 60 af 37 7a 5a 7d b5 30 cb 0a 36 56 bd 0f 35
       2.0906416e-05 -9.4381505e-07 2.0681873e-06 5.354717e-07
000060 a4 6b ae 38 ae 19 a3 b4 3e bb d4 31 fc 52 15 36
       8.317016e-05 -3.03798e-07 6.191299e-09 2.2251033e-06
000070 d4 1a 83 39 3b 39 8b 38 cd a1 25 30 fa 6c da 37
       0.00025006256 6.6386965e-05 6.0256583e-10 2.6038371e-05
000080 90 fe db 2e 7f 74 2b b4 8c ca 3e 27 05 c4 a8 af
       1.00041864e-10 -1.5967997e-07 2.6477598e-15 -3.0698302e-10
000090 1f 52 f6 2c 5a 36 05 ab 93 e6 29 2b b9 9b 14 b2
       7.000858e-12 -4.732652e-13 6.0360847e-13 -8.650141e-09
0000a0 11 9f d9 2d a3 35 d3 a9 e5 8c 04 27 b7 94 3a 2b
       2.4740683e-11 -9.379587e-14 1.839506e-15 6.628686e-13
0000b0 43 6d 8b 32 66 db 09 2f 31 02 85 25 7f d1 63 30
       1.6231416e-08 1.2538023e-10 2.3073307e-16 8.287983e-10
0000c0 48 05 8e b6 f1 e1 ee 3a b9 89 ef ad 05 4f 34 b9
       -4.2325446e-06 0.0018225295 -2.7232315e-11 -0.00017195575
0000d0 50 82 04 b6 5c 1e b5 b6 f1 06 c8 b3 fc 09 1b 3b
       -1.9745385e-06 -5.3977546e-06 -9.3144884e-08 0.0023657074
0000e0 3d d3 21 b5 45 23 7c 30 5b d5 b5 ad 37 25 bf b5
       -6.0284566e-07 9.1727187e-10 -2.0672066e-11 -1.424144e-06
0000f0 2d 3e 4d 38 13 ac 75 b8 77 f4 87 31 89 fe b5 b8
       4.8933714e-05 -5.857281e-05 3.9568095e-09 -8.6781634e-05
000100 8c 4b af b4 9a 89 9a 39 74 1e 61 ac 3f 36 0a b8
       -3.2651258e-07 0.0002947569 -3.1991328e-12 -3.2952285e-05
000110 55 7c d5 b3 5a 2e 0b 35 c6 de 30 b1 55 dc 98 39
       -9.941201e-08 5.1848986e-07 -2.5738003e-09 0.0002915586
000120 71 ff 55 b3 fe 3f 08 2f 84 a3 2c ac 59 71 bf b2
       -4.982525e-08 1.2391863e-10 -2.453344e-12 -2.2286871e-08
000130 c0 1f d7 38 88 60 74 b6 f7 39 11 ab 09 71 b2 b8
       0.00010257913 -3.6415022e-06 -5.159479e-13 -8.508756e-05
000140 56 53 bc b9 33 c1 26 3b 7c e5 b5 b1 96 da 57 38
       -0.00035920244 0.0025444746 -5.2938827e-09 5.146357e-05
000150 d7 62 ee b7 15 58 ad 36 9d a6 28 b6 bd 07 ed 38
       -2.8417837e-05 5.166056e-06 -2.5130932e-06 0.00011302482
000160 d8 f2 bc b8 f8 ff 9a 34 7a c0 c2 b1 92 7e 74 b6
       -9.009772e-05 2.8870977e-07 -5.668025e-09 -3.6432507e-06
000170 c2 c6 f4 b9 9b 5c 1f b9 6f 37 a6 af 8f 9b 52 b9
       -0.00046687393 -0.0001519792 -3.0234612e-10 -0.00020085111
000180 a7 a0 a0 36 1b 1c 4d ba 93 2f 3a 2f c7 1f db b6
       4.787074e-06 -0.00078243174 1.6933503e-10 -6.530408e-06
000190 c6 b9 3d 35 cf 92 f3 33 a3 1e 0d 33 83 26 64 b8
       7.067832e-07 1.13422736e-07 3.2856985e-08 -5.4395303e-05
0001a0 36 e0 b1 35 aa 4b b7 b1 05 7a 00 2f 88 f4 c0 33
       1.3252782e-06 -5.334603e-09 1.1684882e-10 8.985177e-08
0001b0 a2 d4 5e b9 8c 6e 03 37 61 55 c5 2d 44 c9 65 38
       -0.00021250782 7.833947e-06 2.2434223e-11 5.4785298e-05
0001c0 a4 4f 15 3a 0c 26 2b bb 73 07 12 32 f7 7a c7 b8
       0.00056957663 -0.0026115207 8.500012e-09 -9.5119634e-05
0001d0 f3 3c 1e 38 51 a0 59 b5 aa ff 8e 36 ce 82 7b 39
       3.77269e-05 -8.107209e-07 4.261693e-06 0.00023985954
0001e0 d8 bc 20 39 3e 3b 08 b5 ec d1 29 32 68 5f 81 36
       0.00015329139 -5.0750157e-07 9.884825e-09 3.8556063e-06
0001f0 40 dc d1 ba e3 29 32 b9 0e e0 34 ae 4c 6a 9c b9
       -0.0016011074 -0.00016991007 -4.1126262e-11 -0.00029833836
000200 74 25 49 b2 42 f9 95 37 ee 94 79 aa db a6 f4 33
       -1.1708256e-08 1.7878254e-05 -2.2167313e-13 1.1392486e-07
000210 b6 a0 a8 b0 ee 56 73 30 91 05 9d ae 75 fa fd b4
       -1.2269286e-09 8.852642e-10 -7.140522e-11 -4.7307154e-07
000220 df 46 27 b1 fe 67 09 2d 11 fa 2b aa 03 7d 0f af
       -2.4341984e-09 7.810639e-12 -1.527461e-13 -1.3050187e-10
000230 ac 72 b5 b6 64 3f 7a b3 26 52 d8 a8 07 2c 70 b5
       -5.40757e-06 -5.8265314e-08 -2.4016444e-14 -8.9471035e-07
000240 4d 01 ed 2f 58 5f 85 b7 56 5e 16 2a f6 81 45 37
       4.3110973e-10 -1.5899233e-05 1.3355406e-13 1.1772374e-05
000250 3f 1f 52 b1 ef c0 68 b2 37 59 a8 2c e1 02 89 b6
       -3.0576783e-09 -1.3548045e-08 4.784752e-12 -4.0832533e-06
000260 2a df e4 30 78 94 b4 ac c3 61 e4 29 93 a6 ac b0
       1.665261e-09 -5.132391e-12 1.0142193e-13 -1.256199e-09
000270 ed 51 e2 b8 06 f9 2a b6 02 46 a3 29 5b 01 00 b8
       -0.0001079178 -2.5476925e-06 7.2507985e-14 -3.051884e-05
000280 48 4b 2a 34 2c 72 41 b9 8c b4 22 2c cd 3a 89 35
       1.5859871e-07 -0.00018448447 2.3121808e-12 1.0224409e-06
000290 2d cd f6 32 1e 97 2a 32 23 69 8e 30 7e 46 b2 36
       2.8731472e-08 9.929662e-09 1.0361741e-09 5.3130198e-06
0002a0 3a 05 00 33 5c 11 b8 ae 15 3b ec 2b 55 04 de 31
       2.9807076e-08 -8.370435e-11 1.6785207e-12 6.461543e-09
0002b0 34 e4 8d b7 1c 6f 1c 36 fd 9f 99 2a 86 31 90 37
       -1.6914775e-05 2.3310486e-06 2.7289274e-13 1.7189199e-05
0002c0 83 4c 45 35 e5 1f dc b9 12 6b 90 2d 62 bc 3c 38
       7.349956e-07 -0.00041985433 1.6418453e-11 4.4998138e-05
0002d0 ee c5 72 33 c6 f2 4d 33 93 73 b0 31 f8 4e 97 39
       5.652503e-08 4.7951083e-08 5.1354134e-09 0.000288598
0002e0 9d bf 3d 34 0a 90 2f b0 79 6d 51 2d 9d 81 84 31
       1.7671705e-07 -6.386932e-10 1.1904582e-11 3.856441e-09
0002f0 a4 15 83 38 4a 7c 00 b7 2d fe 89 2c 84 5e 53 b8
       6.250598e-05 -7.658333e-06 3.9219934e-12 -5.0394345e-05
000300 55 30 39 b4 87 9e 45 39 e0 4e 03 ac bd d7 3f b6
       -1.7247051e-07 0.0001884644 -1.8660004e-12 -2.8586794e-06
000310 90 95 88 b2 b0 d1 30 32 4e b7 8e b0 d8 28 d2 36
       -1.5900497e-08 1.0292226e-08 -1.0383958e-09 6.2632425e-06
000320 49 22 07 b3 25 fb 9d 2e f3 1a c7 ab 14 45 36 b1
       -3.146332e-08 7.1841456e-11 -1.414728e-12 -2.6523752e-09
000330 b3 0c ce b8 3b 42 d2 b5 37 29 c1 aa 5d 79 c9 36
       -9.825211e-05 -1.5665495e-06 -3.4312286e-13 6.0043953e-06
000340 01 bf aa b6 ca 08 ed 3a 02 46 24 ae f2 58 8b 39
       -5.0886306e-06 0.0018084284 -3.7351462e-11 0.00026578415
000350 55 12 ce b4 85 e8 3b b6 7f 26 33 b3 b9 89 6e ba
       -3.8383828e-07 -2.8000516e-06 -4.1711697e-08 -0.0009099502
000360 6c 62 52 b5 5e b7 b8 30 be fd 02 ae 72 68 fc 33
       -7.837432e-07 1.3439878e-09 -2.9783946e-11 1.1753663e-07
000370 05 6d d2 3a 31 a2 6d b8 27 02 29 b0 0b c0 6d b9
       0.0016054219 -5.6656256e-05 -6.14849e-10 -0.00022673623
000380 81 22 a4 b3 c6 81 b2 38 c3 b6 8a ab 67 eb 36 b6
       -7.643121e-08 8.5118736e-05 -9.856216e-13 -2.7257136e-06
000390 68 89 49 b2 36 b2 99 33 5c 81 04 b0 2a 68 24 38
       -1.1730982e-08 7.157034e-08 -4.820515e-10 3.9197657e-05
0003a0 07 9e 6c b2 9a e1 1c 2e 23 b4 4b ab 36 3b c5 b0
       -1.3772939e-08 3.5670668e-11 -7.237008e-13 -1.4350465e-09
0003b0 aa 6c 01 38 8e 67 1c 35 2b 19 08 aa 68 74 1f 37
       3.0857198e-05 5.826522e-07 -1.2087958e-13 9.5042415e-06
0003c0 25 51 82 39 98 e4 07 39 b5 5e 94 31 9e 20 7b b8
       0.0002485599 0.00012959761 4.318134e-09 -5.987344e-05
0003d0 c1 d0 a9 37 b9 ee 8d b6 fd 7c e8 35 0b 10 7f b7
       2.0243579e-05 -4.2299184e-06 1.7321723e-06 -1.520292e-05
0003e0 16 23 81 38 24 4d 55 b4 4d f8 84 31 c8 c7 21 36
       6.1577346e-05 -1.9865234e-07 3.869934e-09 2.4107158e-06
0003f0 5c dc d7 39 e1 13 80 38 c9 0c 92 2f f5 18 c6 b7
       0.00041172176 6.107218e-05 2.656633e-10 -2.361506e-05

sparse_weighted_adjacency_matrices.edge_inital.edge_embedding.bias f4 [16]
000000 0d b0 a2 3b ec 8d 3f 3c 9d ca 87 31 5d 4f 74 b8
       0.0049648345 0.011691552 3.9520516e-09 -5.8248046e-05
000010 04 41 15 b7 b9 23 bd bc 2c cc 23 b8 84 a3 8e 3d
       -8.89623e-06 -0.023088323 -3.905238e-05 0.06964782
000020 32 3c 10 b5 87 27 fd 34 73 c5 b4 36 2c 68 29 37
       -5.3731776e-07 4.7153682e-07 5.387404e-06 1.0097439e-05
000030 57 e9 cc b6 e4 cb 83 b8 5a 98 33 b6 b7 ce 35 3c
       -6.106838e-06 -6.284544e-05 -2.6761759e-06 0.011096648

sparse_weighted_adjacency_matrices.pair_attention.embedding.weight f4 [64, 2]
000000 c4 8d 00 80 ea 8b 00 00 1f 8b 00 00 8a 8a 00 00
       -5.0856e-41 5.0192e-41 4.9907e-41 4.9698e-41
000010 1e 90 00 00 0e 8c 00 80 ee 93 00 80 68 91 00 00
       5.17e-41 -5.0242e-41 -5.3067e-41 5.2162e-41
000020 8e a2 00 00 ab 8c 00 00 05 89 00 80 61 ab 00 00
       5.8314e-41 5.0462e-41 -4.9153e-41 6.1479e-41
000030 d4 89 00 00 1a 8e 00 80 64 8a 00 00 fa 8c 00 00
       4.9443e-41 -5.0976e-41 4.9645e-41 5.0573e-41
000040 d6 8b 00 00 cf 8e 00 80 77 ad 00 00 d1 a2 00 00
       5.0164e-41 -5.123e-41 6.2227e-41 5.8408e-41
000050 bb 88 00 80 2b 8f 00 00 d7 8a 00 00 de 88 00 00
       -4.905e-41 5.1359e-41 4.9806e-41 4.9099e-41
000060 fd 89 00 00 4c a1 00 00 ad 9c 00 80 ef 8e 00 80
       4.9501e-41 5.7862e-41 -5.6205e-41 -5.1275e-41
000070 f0 a2 00 00 75 95 00 00 7c 8a 00 80 00 77 00 00
       5.8451e-41 5.3615e-41 -4.9679e-41 4.2689e-41
000080 f9 8d 00 00 2a a7 00 00 a7 89 00 00 20 89 00 80
       5.093e-41 5.9967e-41 4.938e-41 -4.9191e-41
000090 aa 8f 00 80 44 8c 00 00 71 89 00 00 7a 8a 00 00
       -5.1537e-41 5.0318e-41 4.9305e-41 4.9676e-41
0000a0 2b 8e 00 80 5d a0 00 00 52 8b 00 80 0c 8b 00 00
       -5.1e-41 5.7528e-41 -4.9979e-41 4.988e-41
0000b0 0d 8b 00 00 63 95 00 00 b2 8b 00 80 37 8b 00 00
       4.9882e-41 5.359e-41 -5.0113e-41 4.9941e-41
0000c0 26 8f 00 00 bd 88 00 80 b9 89 00 00 f2 8a 00 80
       5.1352e-41 -4.9052e-41 4.9406e-41 -4.9844e-41
0000d0 67 94 00 00 bf aa 00 80 a9 8a 00 80 c1 8c 00 00
       5.3237e-41 -6.1252e-41 -4.9742e-41 5.0493e-41
0000e0 6d 8b 00 00 b0 8b 00 00 4e 8a 00 80 d9 9d 00 80
       5.0017e-41 5.011e-41 -4.9614e-41 -5.6625e-41
0000f0 2f 95 00 00 26 89 00 80 ed 8f 00 80 61 a8 00 00
       5.3517e-41 -4.92e-41 -5.1631e-41 6.0403e-41
000100 b3 90 00 80 5c 8b 00 80 f9 8b 00 00 aa 89 00 80
       -5.1908e-41 -4.9993e-41 5.0213e-41 -4.9385e-41
000110 66 a2 00 00 97 89 00 00 88 91 00 00 7c 8b 00 80
       5.8258e-41 4.9358e-41 5.2207e-41 -5.0038e-41
000120 de 13 00 00 f5 91 00 80 55 99 00 00 fa 89 00 80
       7.127e-42 -5.236e-41 5.5005e-41 -4.9497e-41
000130 52 89 00 80 fd a6 00 80 d1 90 00 00 17 89 00 80
       -4.9261e-41 -5.9904e-41 5.195e-41 -4.9179e-41
000140 c9 9d 00 80 37 8b 00 80 1d 90 00 80 fe 8d 00 00
       -5.6603e-41 -4.9941e-41 -5.1698e-41 5.0937e-41
000150 d9 8e 00 00 f6 8f 00 80 4f 8d 00 80 ba 88 00 80
       5.1244e-41 -5.1643e-41 -5.0692e-41 -4.9048e-41
000160 1a 9c 00 80 da 05 02 00 b1 8a 00 80 18 89 00 80
       -5.5999e-41 1.8577e-40 -4.9753e-41 -4.918e-41
000170 b5 96 00 00 f6 9b 00 80 4f 8e 00 00 0b 8e 00 00
       5.4063e-41 -5.5948e-41 5.1051e-41 5.0955e-41
000180 7d 8b 00 80 33 95 00 80 32 8d 00 00 03 96 00 00
       -5.0039e-41 -5.3523e-41 5.0651e-41 5.3814e-41
000190 28 8b 00 80 29 8d 00 00 3c 89 00 80 42 8c 00 80
       -4.992e-41 5.0639e-41 -4.923e-41 -5.0315e-41
0001a0 97 9c 00 80 62 8f 00 80 30 89 00 00 7f 8b 00 00
       -5.6174e-41 -5.1436e-41 4.9214e-41 5.0042e-41
0001b0 ee 8d 00 80 b8 8d 00 80 2f 94 00 80 32 92 00 80
       -5.0915e-41 -5.0839e-41 -5.3158e-41 -5.2445e-41
0001c0 98 a6 00 00 08 8d 00 80 a0 8d 00 00 54 1c 02 00
       5.9763e-41 -5.0592e-41 5.0805e-41 1.93833e-40
0001d0 70 8b 00 80 b6 8c 00 80 f8 88 00 00 01 91 00 80
       -5.0021e-41 -5.0478e-41 4.9135e-41 -5.2018e-41
0001e0 37 a8 00 00 4f a2 00 80 2f 8b 00 00 a7 99 00 00
       6.0344e-41 -5.8225e-41 4.993e-41 5.512e-41
0001f0 68 ab 00 80 25 a6 00 80 e6 88 00 00 f8 88 00 00
       -6.1489e-41 -5.9601e-41 4.911e-41 4.9135e-41

sparse_weighted_adjacency_matrices.pair_attention.embedding.bias f4 [64]
000000 cd 8c 00 80 f6 8d 00 80 73 8b 00 00 cf 88 00 80
       -5.051e-41 -5.0926e-41 5.0025e-41 -4.9078e-41
000010 b6 8e 00 00 49 a1 00 00 ad 8b 00 00 bd 8d 00 80
       5.1195e-41 5.7858e-41 5.0106e-41 -5.0846e-41
000020 cd 31 01 00 3c 89 00 80 7d 8a 00 00 6d 92 00 00
       1.097e-40 -4.923e-41 4.968e-41 5.2528e-41
000030 91 8a 00 00 c8 9b 00 00 3d 8c 00 00 37 89 00 80
       4.9708e-41 5.5884e-41 5.0308e-41 -4.9223e-41
000040 44 8c 00 80 f4 92 00 00 53 8a 00 00 13 12 00 80
       -5.0318e-41 5.2717e-41 4.9621e-41 -6.484e-42
000050 56 90 00 80 36 a2 00 00 72 8b 00 00 63 9e 00 00
       -5.1778e-41 5.819e-41 5.0024e-41 5.6818e-41
000060 2a 8d 00 80 7c 8c 00 80 0d 95 00 00 c9 99 00 80
       -5.064e-41 -5.0396e-41 5.347e-41 -5.5168e-41
000070 11 89 00 80 84 96 00 80 c4 8d 00 00 85 9f 00 80
       -4.917e-41 -5.3995e-41 5.0856e-41 -5.7225e-41
000080 07 a2 00 80 4e 8d 00 00 f8 88 00 80 27 8d 00 80
       -5.8124e-41 5.069e-41 -4.9135e-41 -5.0636e-41
000090 10 8b 00 80 e3 8b 00 80 01 89 00 80 48 a5 00 00
       -4.9886e-41 -5.0182e-41 -4.9148e-41 5.9292e-41
0000a0 a4 8b 00 80 e8 8f 00 00 d4 88 00 00 bd 9a 00 80
       -5.0094e-41 5.1624e-41 4.9085e-41 -5.551e-41
0000b0 24 95 00 80 ec 94 00 80 f1 8a 00 00 2c 8c 00 80
       -5.3502e-41 -5.3423e-41 4.9843e-41 -5.0284e-41
0000c0 ac 8c 00 00 c6 89 00 00 fb 8a 00 00 d1 8f 00 00
       5.0464e-41 4.9424e-41 4.9857e-41 5.1592e-41
0000d0 b2 95 00 80 e8 88 00 80 d2 8f 00 00 12 8e 00 00
       -5.37e-41 -4.9113e-41 5.1593e-41 5.0965e-41
0000e0 42 8c 00 80 a6 89 00 00 1c 9d 00 00 1a 92 00 00
       -5.0315e-41 4.9379e-41 5.636e-41 5.2411e-41
0000f0 be 8a 00 00 3a 9c 00 00 20 94 00 00 09 8b 00 80
       4.9771e-41 5.6044e-41 5.3137e-41 -4.9876e-41

sparse_weighted_adjacency_matrices.pair_attention.query.weight f4 [64, 64]
000000 f1 53 00 00 50 ad 00 00 fd 8e 00 80 92 89 00 00
       3.0113e-41 6.2173e-41 -5.1295e-41 4.9351e-41
000010 6f 99 00 80 49 ac 00 80 3d 89 00 00 57 89 00 80
       -5.5042e-41 -6.1804e-41 4.9232e-41 -4.9268e-41
000020 ce 9b 00 00 e0 88 00 00 29 9f 00 00 a0 9c 00 80
       5.5892e-41 4.9101e-41 5.7096e-41 -5.6186e-41
000030 e7 88 00 00 3c 89 00 00 39 af 00 00 48 9f 00 80
       4.9111e-41 4.923e-41 6.2858e-41 -5.714e-41
000040 6a 8d 00 80 62 8a 00 80 08 a6 00 80 0f 9c 00 80
       -5.073e-41 -4.9642e-41 -5.9561e-41 -5.5983e-41
000050 24 8a 00 80 9c 92 00 00 36 9d 00 80 56 97 00 80
       -4.9556e-41 5.2594e-41 -5.6397e-41 -5.4289e-41
000060 07 e4 01 00 9a ad 00 80 1a 95 01 80 a8 a6 00 80
       1.73636e-40 -6.2277e-41 -1.45323e-40 -5.9785e-41
000070 76 8c 00 00 ec 93 00 00 21 9d 00 00 58 a3 00 80
       5.0388e-41 5.3064e-41 5.6367e-41 -5.8597e-41
000080 01 89 00 80 de ad 00 80 21 99 00 80 e1 88 00 00
       -4.9148e-41 -6.2372e-41 -5.4932e-41 4.9103e-41
000090 13 89 00 80 ae 8c 00 00 98 66 00 80 4f a4 00 80
       -4.9173e-41 5.0466e-41 -3.6804e-41 -5.8943e-41
0000a0 97 90 00 80 fb a6 01 00 06 94 00 00 48 99 00 80
       -5.1869e-41 1.51737e-40 5.3101e-41 -5.4987e-41
0000b0 4f a8 00 00 49 8c 00 80 fc 89 00 80 c0 88 00 00
       6.0378e-41 -5.0325e-41 -4.95e-41 4.9057e-41
0000c0 0b 27 01 00 bf 88 00 80 17 a0 00 00 49 a5 00 80
       1.05841e-40 -4.9055e-41 5.743e-41 -5.9293e-41
0000d0 d4 64 01 80 30 9d 00 80 d7 a3 00 00 28 a3 00 00
       -1.28006e-40 -5.6388e-41 5.8775e-41 5.853e-41
0000e0 3b 89 00 80 aa 93 00 00 38 9d 00 80 7b 9b 00 00
       -4.9229e-41 5.2972e-41 -5.64e-41 5.5776e-41
0000f0 81 ac 00 00 ce 88 00 00 dd 22 01 00 3e 08 02 80
       6.1883e-41 4.9076e-41 1.04342e-40 -1.86628e-40
000100 4e af 00 80 29 89 00 80 cc 88 00 80 b4 ae 00 80
       -6.2887e-41 -4.9204e-41 -4.9073e-41 -6.2672e-41
000110 dc 9b 00 80 44 af 00 80 92 8e 00 00 0c 91 00 80
       -5.5912e-41 -6.2873e-41 5.1145e-41 -5.2033e-41
000120 c8 99 00 00 fb a0 00 80 bc a4 00 80 02 98 00 00
       5.5166e-41 -5.7749e-41 -5.9096e-41 5.453e-41
000130 7a 8b 00 00 0a ab 00 00 57 89 00 00 1a 89 00 00
       5.0035e-41 6.1357e-41 4.9268e-41 4.9183e-41
000140 7d a4 00 80 e6 66 01 80 83 28 01 00 33 af 00 80
       -5.9007e-41 -1.28749e-40 1.06368e-40 -6.285e-41
000150 0a 99 00 00 e9 88 00 80 17 a0 00 00 60 a2 00 00
       5.49e-41 -4.9114e-41 5.743e-41 5.8249e-41
000160 81 a3 00 80 a9 9b 00 80 e3 a3 00 00 75 9e 00 80
       -5.8654e-41 -5.584e-41 5.8791e-41 -5.6844e-41
000170 7f 90 00 80 75 90 00 00 74 97 00 80 c5 9e 00 80
       -5.1835e-41 5.1821e-41 -5.4331e-41 -5.6956e-41
000180 02 94 00 80 87 a7 00 80 65 91 00 00 de 9f 01 00
       -5.3095e-41 -6.0097e-41 5.2158e-41 1.49185e-40
000190 6b 97 00 80 da 9b 00 00 f4 8a 00 00 c4 93 00 80
       -5.4319e-41 5.5909e-41 4.9847e-41 -5.3008e-41
0001a0 0f 89 00 00 d3 8a 00 80 c5 88 00 80 52 94 00 00
       4.9167e-41 -4.9801e-41 -4.9064e-41 5.3207e-41
0001b0 de 99 00 00 8f a4 00 00 46 10 01 00 0d a3 00 80
       5.5197e-41 5.9033e-41 9.7673e-41 -5.8492e-41
0001c0 1f 8c 00 00 c7 8a 00 80 6f 00 00 00 ab a4 00 00
       5.0266e-41 -4.9784e-41 1.56e-43 5.9072e-41
0001d0 2c 9e 00 00 35 89 00 80 b4 af 00 00 17 fe 01 80
       5.6741e-41 -4.922e-41 6.303e-41 -1.82986e-40
0001e0 22 73 03 80 4e 96 00 00 ee c0 02 80 7b 96 00 00
       -3.16808e-40 5.3919e-41 -2.52881e-40 5.3982e-41
0001f0 67 98 00 00 a1 8a 00 80 dc 8e 00 80 dc cc 02 00
       5.4672e-41 -4.973e-41 -5.1248e-41 2.5716e-40
000200 6f 96 00 00 9c 93 00 80 2d 89 00 80 3c a3 00 80
       5.3965e-41 -5.2952e-41 -4.921e-41 -5.8557e-41
000210 89 ac 00 80 a3 ff 01 80 23 d7 01 80 a9 89 00 80
       -6.1894e-41 -1.8354e-40 -1.69012e-40 -4.9383e-41
000220 d2 88 00 80 c5 11 01 00 f2 aa 00 00 a5 96 00 00
       -4.9082e-41 9.821e-41 6.1324e-41 5.4041e-41
000230 63 94 00 00 e2 bb 02 00 da 91 00 00 86 9b 00 80
       5.3231e-41 2.5107e-40 5.2322e-41 -5.5791e-41
000240 95 8c 00 80 55 97 00 00 bf aa 00 80 eb 5c 01 80
       -5.0431e-41 5.4288e-41 -6.1252e-41 -1.25168e-40
000250 ac ad 00 80 9c 93 00 80 53 63 01 80 c0 a9 00 00
       -6.2302e-41 -5.2952e-41 -1.27466e-40 6.0895e-41
000260 c7 a6 00 80 19 89 00 80 87 89 00 80 8e aa 00 00
       -5.9828e-41 -4.9181e-41 -4.9336e-41 6.1183e-41
000270 15 a0 00 00 8d 91 00 80 9e 97 00 80 ed a7 00 00
       5.7427e-41 -5.2214e-41 -5.439e-41 6.024e-41
000280 e9 9c 00 00 1c 99 00 80 4a 77 00 80 e4 94 00 80
       5.6289e-41 -5.4925e-41 -4.2793e-41 -5.3412e-41
000290 d6 88 00 00 8b 90 00 80 7a 01 02 80 fd 88 00 00
       4.9087e-41 -5.1852e-41 -1.842e-40 4.9142e-41
0002a0 8c a4 00 80 24 a9 00 00 59 af 00 80 05 89 00 00
       -5.9028e-41 6.0676e-41 -6.2903e-41 4.9153e-41
0002b0 af ab 00 80 7f 9e 00 00 6e 35 00 80 c9 a6 00 80
       -6.1588e-41 5.6858e-41 -1.9167e-41 -5.9831e-41
0002c0 8e a4 00 00 f8 9c 00 80 30 23 00 00 ff 94 00 00
       5.9031e-41 -5.631e-41 1.2623e-41 5.345e-41
0002d0 79 96 00 00 ed a3 00 80 08 95 00 00 8d 29 00 80
       5.398e-41 -5.8805e-41 5.3462e-41 -1.4906e-41
0002e0 67 a0 00 80 d5 8b 00 00 d8 8d 00 00 7b 8e 00 80
       -5.7542e-41 5.0162e-41 5.0884e-41 -5.1112e-41
0002f0 93 9d 00 80 da 98 00 80 ee 88 00 80 35 9d 00 00
       -5.6527e-41 -5.4833e-41 -4.9121e-41 5.6395e-41
000300 a3 a2 00 80 2a 99 00 00 d6 ae 00 80 e8 6e 03 80
       -5.8343e-41 5.4945e-41 -6.272e-41 -3.15292e-40
000310 30 93 00 80 6a 89 00 00 a6 99 00 00 e5 96 00 00
       -5.2801e-41 4.9295e-41 5.5119e-41 5.4131e-41
000320 d8 ad 00 80 b4 59 01 80 f1 91 00 80 67 9c 00 80
       -6.2363e-41 -1.24015e-40 -5.2354e-41 -5.6107e-41
000330 f0 3f 01 80 44 a5 00 00 01 96 00 80 08 89 00 00
       -1.14772e-40 5.9286e-41 -5.3811e-41 4.9158e-41
000340 cd 88 00 00 55 89 00 80 bc 88 00 00 d9 ae 00 00
       4.9075e-41 -4.9265e-41 4.9051e-41 6.2724e-41
000350 46 a9 00 80 e4 88 00 80 cc 89 00 80 c2 8f 00 80
       -6.0724e-41 -4.9107e-41 -4.9432e-41 -5.157e-41
000360 b9 a9 00 00 1b a1 00 00 ca 88 00 00 b2 9a 00 80
       6.0885e-41 5.7794e-41 4.907e-41 -5.5494e-41
000370 83 90 00 80 2f ae 00 00 23 ac 00 80 23 89 00 80
       -5.1841e-41 6.2485e-41 -6.1751e-41 -4.9195e-41
000380 bb aa 00 80 d5 ad 00 00 9e 98 00 80 bd 9e 00 00
       -6.1247e-41 6.2359e-41 -5.4749e-41 5.6945e-41
000390 40 94 00 80 e7 a4 00 00 e4 ab 00 80 10 a7 00 80
       -5.3182e-41 5.9156e-41 -6.1663e-41 -5.9931e-41
0003a0 70 89 00 80 09 a7 00 00 79 ac 00 80 ed 8b 00 80
       -4.9303e-41 5.9921e-41 -6.1872e-41 -5.0196e-41
0003b0 66 f6 01 00 97 15 02 00 24 9e 00 80 09 9d 00 00
       1.80227e-40 1.91416e-40 -5.673e-41 5.6334e-41
0003c0 5a 8f 00 80 5d ac 00 00 ff 88 00 00 3b 9c 00 80
       -5.1425e-41 6.1832e-41 4.9145e-41 -5.6045e-41
0003d0 36 ad 00 80 cd 90 00 00 0d 91 00 00 81 9a 00 80
       -6.2136e-41 5.1945e-41 5.2034e-41 -5.5426e-41
0003e0 af a1 00 80 62 67 01 80 29 9b 00 00 4b 91 00 00
       -5.8001e-41 -1.28922e-40 5.5661e-41 5.2121e-41
0003f0 0b 8e 00 80 86 91 00 80 c7 a9 00 80 ba a0 00 00
       -5.0955e-41 -5.2204e-41 -6.0905e-41 5.7658e-41

sparse_weighted_adjacency_matrices.pair_attention.query.bias f4 [64]
000000 f3 ad 00 00 52 20 01 80 e9 88 00 80 fb 88 00 80
       6.2401e-41 -1.0343e-40 -4.9114e-41 -4.914e-41
000010 64 ad 00 80 1d 89 00 00 c4 a3 00 80 20 9c 00 00
       -6.2201e-41 4.9187e-41 -5.8748e-41 5.6007e-41
000020 87 aa 00 00 44 9d 00 80 15 90 00 80 7b 8a 00 80
       6.1174e-41 -5.6416e-41 -5.1687e-41 -4.9677e-41
000030 fa a0 00 80 3f 9c 00 00 78 a1 00 80 01 89 00 00
       -5.7748e-41 5.605e-41 -5.7924e-41 4.9148e-41
000040 1a ae 00 80 77 91 00 80 e2 88 00 80 d9 3e 01 00
       -6.2456e-41 -5.2183e-41 -4.9104e-41 1.14381e-40
000050 85 96 00 80 4b a5 00 00 bf f6 00 00 1a e5 01 80
       -5.3996e-41 5.9296e-41 8.8516e-41 -1.74022e-40
000060 58 8b 00 80 1b 89 00 80 4b a8 00 80 f2 53 00 00
       -4.9987e-41 -4.9184e-41 -6.0372e-41 3.0114e-41
000070 5b 95 00 00 e6 88 00 00 4d 89 00 00 73 9c 00 80
       5.3579e-41 4.911e-41 4.9254e-41 -5.6123e-41
000080 85 ad 00 00 05 a7 00 80 ff 93 00 80 4f 8b 00 80
       6.2247e-41 -5.9915e-41 -5.3091e-41 -4.9975e-41
000090 77 06 01 80 22 89 00 80 7a 9f 00 80 7c 8e 00 80
       -9.4155e-41 -4.9194e-41 -5.721e-41 -5.1114e-41
0000a0 a5 b0 01 00 c5 8e 00 00 12 89 00 80 61 89 00 00
       1.55204e-40 5.1216e-41 -4.9172e-41 4.9282e-41
0000b0 f0 97 00 00 0d 99 00 00 13 89 00 80 63 95 00 00
       5.4505e-41 5.4904e-41 -4.9173e-41 5.359e-41
0000c0 38 17 01 00 e2 ad 00 00 79 a4 00 00 27 98 00 00
       1.00165e-40 6.2377e-41 5.9002e-41 5.4582e-41
0000d0 0c 8a 00 80 a0 a6 00 80 eb 88 00 80 4a aa 00 00
       -4.9522e-41 -5.9774e-41 -4.9117e-41 6.1088e-41
0000e0 7d 96 00 00 b2 8f 00 00 b2 92 00 00 fc 8d 00 00
       5.3985e-41 5.1548e-41 5.2624e-41 5.0934e-41
0000f0 96 f8 01 00 e1 88 00 80 97 92 00 80 6a a0 00 80
       1.81011e-40 -4.9103e-41 -5.2587e-41 -5.7546e-41

sparse_weighted_adjacency_matrices.pair_attention.key.weight f4 [64, 64]
000000 9b 89 00 00 62 32 00 80 79 76 02 80 79 90 00 80
       4.9364e-41 -1.8074e-41 -2.26171e-40 -5.1827e-41
000010 f7 8d 00 00 d6 a5 00 00 2e 91 00 80 26 89 00 00
       5.0927e-41 5.9491e-41 -5.208e-41 4.92e-41
000020 3a 89 00 80 d5 a7 00 80 a7 8b 00 80 1f ab 00 80
       -4.9228e-41 -6.0207e-41 -5.0098e-41 -6.1387e-41
000030 73 95 00 80 93 89 00 00 bb 9d 00 00 d5 9d 00 80
       -5.3612e-41 4.9352e-41 5.6583e-41 -5.662e-41
000040 dc 90 00 00 e8 88 00 00 90 ae 00 80 9f 8a 00 80
       5.1966e-41 4.9113e-41 -6.2621e-41 -4.9728e-41
000050 ac aa 00 80 0e f6 01 80 44 a5 00 00 cd 88 00 80
       -6.1226e-41 -1.80103e-40 5.9286e-41 -4.9075e-41
000060 ec ce 01 00 c3 a4 00 80 ba 88 00 80 8d ad 00 80
       1.66065e-40 -5.9105e-41 -4.9048e-41 -6.2258e-41
000070 d3 99 00 80 58 a8 00 00 52 89 00 00 dd a1 00 80
       -5.5182e-41 6.039e-41 4.9261e-41 -5.8066e-41
000080 cb a9 00 00 e6 a3 00 00 81 89 00 80 65 89 00 80
       6.091e-41 5.8796e-41 -4.9327e-41 -4.9288e-41
000090 34 89 00 00 f7 a0 00 80 66 92 00 80 67 af 00 00
       4.9219e-41 -5.7743e-41 -5.2518e-41 6.2923e-41
0000a0 4b aa 00 80 cd a7 00 80 49 a8 00 80 1b 97 00 00
       -6.109e-41 -6.0196e-41 -6.037e-41 5.4206e-41
0000b0 d9 aa 00 80 75 a1 00 00 df a0 00 00 fa 88 00 80
       -6.1289e-41 5.792e-41 5.771e-41 -4.9138e-41
0000c0 73 9d 00 00 4e ae 00 00 1c a5 00 80 0e 8f 00 00
       5.6482e-41 6.2529e-41 -5.923e-41 5.1318e-41
0000d0 58 97 00 00 e8 88 00 00 fa 89 00 00 ee 88 00 80
       5.4292e-41 4.9113e-41 4.9497e-41 -4.9121e-41
0000e0 95 94 00 80 d6 8c 00 80 bf 92 00 80 d4 9e 00 00
       -5.3301e-41 -5.0522e-41 -5.2643e-41 5.6977e-41
0000f0 e4 91 00 00 ea 65 01 00 da 88 00 00 60 ae 00 80
       5.2336e-41 1.28395e-40 4.9093e-41 -6.2554e-41
000100 d2 1e 03 00 7e 8d 00 80 94 8d 00 80 2b 89 00 80
       2.86563e-40 -5.0758e-41 -5.0789e-41 -4.9207e-41
000110 22 a4 00 80 36 93 00 80 90 af 00 80 a7 08 01 80
       -5.888e-41 -5.281e-41 -6.298e-41 -9.494e-41
000120 83 24 01 00 05 9a 00 00 91 93 00 80 41 ae 00 80
       1.04933e-40 5.5252e-41 -5.2937e-41 -6.251e-41
000130 e6 4e 01 00 8d 8f 00 00 f8 aa 00 80 d2 aa 00 80
       1.20139e-40 5.1496e-41 -6.1332e-41 -6.1279e-41
000140 64 89 00 80 88 90 00 00 95 95 00 00 c5 88 00 80
       -4.9286e-41 5.1848e-41 5.366e-41 -4.9064e-41
000150 2d 9a 00 80 7c a0 00 00 fe 91 00 80 9a ad 00 00
       -5.5308e-41 5.7571e-41 -5.2372e-41 6.2277e-41
000160 32 89 00 80 f2 a0 00 80 0f 89 00 80 d7 88 00 80
       -4.9216e-41 -5.7736e-41 -4.9167e-41 -4.9089e-41
000170 bd 8f 00 80 e6 56 02 80 42 a1 00 80 15 93 00 00
       -5.1564e-41 -2.14844e-40 -5.7848e-41 5.2763e-41
000180 95 ac 00 00 b3 90 00 00 d7 49 00 00 d0 ab 00 80
       6.1911e-41 5.1908e-41 2.6489e-41 -6.1635e-41
000190 7a 95 00 00 06 90 00 00 41 a6 00 00 80 56 00 00
       5.3622e-41 5.1666e-41 5.964e-41 3.103e-41
0001a0 d6 9b 00 80 90 9f 00 00 fd a9 00 80 72 a6 00 80
       -5.5903e-41 5.724e-41 -6.098e-41 -5.971e-41
0001b0 13 a8 00 80 ff 9a 00 80 fb 95 00 80 ae 9d 00 80
       -6.0294e-41 -5.5602e-41 -5.3803e-41 -5.6565e-41
0001c0 a3 93 00 00 5f ef 00 80 08 93 00 80 c8 91 00 80
       5.2962e-41 -8.587e-41 -5.2745e-41 -5.2296e-41
0001d0 96 99 00 80 fd 92 00 00 0a 89 00 00 76 98 00 80
       -5.5096e-41 5.273e-41 4.916e-41 -5.4693e-41
0001e0 8d 9c 00 00 7a af 00 80 7b a6 00 80 fa a7 00 80
       5.616e-41 -6.2949e-41 -5.9722e-41 -6.0259e-41
0001f0 88 81 01 80 8d a0 00 80 b1 8a 00 00 c2 a9 00 00
       -1.38303e-40 -5.7595e-41 4.9753e-41 6.0898e-41
000200 30 65 01 00 f7 a7 00 00 ce 90 01 80 d6 ab 00 00
       1.28135e-40 6.0254e-41 -1.43782e-40 6.1643e-41
000210 6c a9 00 00 7b a1 00 80 ed a5 00 80 97 af 00 00
       6.0777e-41 -5.7928e-41 -5.9523e-41 6.299e-41
000220 69 92 00 80 56 5f 01 80 52 96 00 80 db a5 00 80
       -5.2522e-41 -1.26036e-40 -5.3925e-41 -5.9498e-41
000230 5c 94 00 80 eb 9d 00 00 3d a2 00 80 1a 89 00 80
       -5.3221e-41 5.665e-41 -5.82e-41 -4.9183e-41
000240 f8 88 00 00 2e a6 00 80 e0 ad 00 80 3b a6 00 80
       4.9135e-41 -5.9614e-41 -6.2375e-41 -5.9632e-41
000250 89 89 00 00 45 a8 00 80 23 89 00 00 5a 9e 00 80
       4.9338e-41 -6.0364e-41 4.9195e-41 -5.6806e-41
000260 f2 88 00 00 c0 1d 00 80 27 29 01 00 ac 90 00 00
       4.9127e-41 -1.0672e-41 1.06598e-40 5.1898e-41
000270 c7 9d 00 00 86 ab 00 80 f8 70 00 00 b2 a2 00 00
       5.66e-41 -6.1531e-41 4.0526e-41 5.8364e-41
000280 9a af 00 80 6c 8e 02 00 b4 fb 00 80 3f 99 00 00
       -6.2994e-41 2.34762e-40 -9.0294e-41 5.4974e-41
000290 a9 e2 01 00 4b 89 00 80 01 ae 00 80 38 6d 00 00
       1.73146e-40 -4.9251e-41 -6.2421e-41 3.918e-41
0002a0 eb 95 00 00 18 8e 02 00 dd 88 00 00 21 9a 00 80
       5.378e-41 2.34645e-40 4.9097e-41 -5.5291e-41
0002b0 b8 a4 00 80 21 8f 00 80 70 8b 00 00 b5 9e 00 00
       -5.909e-41 -5.1345e-41 5.0021e-41 5.6933e-41
0002c0 81 1b 00 80 fd 88 00 00 c4 3b 03 80 2a 8f 00 00
       -9.867e-42 4.9142e-41 -2.96946e-40 5.1358e-41
0002d0 be 88 00 00 c1 88 00 00 ed 92 00 80 89 8f 00 80
       4.9054e-41 4.9058e-41 -5.2707e-41 -5.1491e-41
0002e0 ea 42 01 00 3f 9e 00 00 33 af 00 00 a2 89 00 80
       1.1584e-40 5.6768e-41 6.285e-41 -4.9373e-41
0002f0 8b 3a 01 00 12 89 00 00 c3 88 00 80 6b a4 00 80
       1.12837e-40 4.9172e-41 -4.9061e-41 -5.8982e-41
000300 96 aa 00 80 64 89 00 00 04 91 00 00 17 89 00 00
       -6.1195e-41 4.9286e-41 5.2022e-41 4.9179e-41
000310 b8 95 00 80 d5 8b 00 80 38 a9 00 80 b0 93 00 00
       -5.3709e-41 -5.0162e-41 -6.0704e-41 5.298e-41
000320 b4 8d 00 00 81 89 00 80 1f 59 01 00 61 bd 00 80
       5.0834e-41 -4.9327e-41 1.23806e-40 -6.7936e-41
000330 1b 9b 00 80 45 97 00 00 33 94 00 00 92 9b 00 00
       -5.5641e-41 5.4265e-41 5.3164e-41 5.5808e-41
000340 c4 af 00 00 8c a3 00 00 d0 aa 00 00 a7 9b 00 80
       6.3053e-41 5.867e-41 6.1276e-41 -5.5838e-41
000350 e3 8a 00 00 57 47 01 80 ba 92 00 00 4a 9f 00 80
       4.9823e-41 -1.17427e-40 5.2636e-41 -5.7142e-41
000360 2c 89 00 80 d2 97 00 80 ad 9c 00 00 d8 9c 00 00
       -4.9208e-41 -5.4463e-41 5.6205e-41 5.6265e-41
000370 0d a4 00 80 0d 95 00 80 30 a6 00 00 2c 92 00 80
       -5.885e-41 -5.347e-41 5.9617e-41 -5.2437e-41
000380 ba af 00 80 32 89 00 80 8c a6 00 00 e6 8c 00 80
       -6.3039e-41 -4.9216e-41 5.9746e-41 -5.0545e-41
000390 e5 ec 01 00 e3 8f 00 80 60 94 00 80 16 98 00 00
       1.76817e-40 -5.1617e-41 -5.3227e-41 5.4558e-41
0003a0 33 44 00 00 c5 88 00 00 89 9b 00 00 ed 88 00 80
       2.4465e-41 4.9064e-41 5.5796e-41 -4.912e-41
0003b0 b0 a5 00 80 be 88 00 80 dd 88 00 00 85 9d 00 00
       -5.9437e-41 -4.9054e-41 4.9097e-41 5.6507e-41
0003c0 d2 ab 00 00 fa a4 00 00 18 89 00 00 ed 9c 00 00
       6.1638e-41 5.9182e-41 4.918e-41 5.6294e-41
0003d0 e7 4c 03 80 be 88 00 80 e3 a8 00 80 d7 6d 00 80
       -3.03094e-40 -4.9054e-41 -6.0585e-41 -3.9403e-41
0003e0 13 8d 00 00 81 a7 00 80 3f a0 00 80 f6 88 00 80
       5.0608e-41 -6.0089e-41 -5.7485e-41 -4.9132e-41
0003f0 df ee 01 80 9f 03 00 80 b7 71 00 80 9e 9d 00 80
       -1.77526e-40 -1.299e-42 -4.0793e-41 -5.6542e-41

sparse_weighted_adjacency_matrices.pair_attention.key.bias f4 [64]
000000 c2 ab 00 00 32 a9 00 80 00 aa 00 00 fb 98 00 00
       6.1615e-41 -6.0696e-41 6.0985e-41 5.4879e-41
000010 c3 a5 00 00 44 a9 00 80 26 9d 00 00 3f 89 00 00
       5.9464e-41 -6.0721e-41 5.6374e-41 4.9235e-41
000020 db 73 03 00 86 98 00 80 2c a1 00 00 f6 8f 00 00
       3.17068e-40 -5.4715e-41 5.7818e-41 5.1643e-41
000030 e3 8a 00 80 18 89 00 80 3c a9 00 00 b0 ae 00 00
       -4.9823e-41 -4.918e-41 6.071e-41 6.2666e-41
000040 38 89 00 80 e5 a8 00 80 a7 8c 00 80 1a 46 00 00
       -4.9225e-41 -6.0588e-41 -5.0457e-41 2.5148e-41
000050 6c 95 00 80 f9 8e 00 80 48 6f 00 00 4a 1a 00 00
       -5.3602e-41 -5.1289e-41 3.992e-41 9.431e-42
000060 77 8f 00 00 05 91 00 80 ba ad 00 80 8e 92 00 00
       5.1465e-41 -5.2023e-41 -6.2321e-41 5.2574e-41
000070 51 89 00 00 ec a7 00 00 9c ae 00 80 82 a5 00 00
       4.926e-41 6.0239e-41 -6.2638e-41 5.9373e-41
000080 ae 94 00 80 77 99 00 80 bc 8b 00 00 78 97 00 00
       -5.3336e-41 -5.5053e-41 5.0127e-41 5.4337e-41
000090 d4 88 00 80 86 a4 00 80 16 0a 02 80 6e 8d 00 00
       -4.9085e-41 -5.902e-41 -1.87289e-40 5.0735e-41
0000a0 98 a3 00 00 e4 8c 00 00 15 43 01 00 b2 90 00 00
       5.8686e-41 5.0542e-41 1.159e-40 5.1907e-41
0000b0 19 89 00 00 f7 a4 00 00 3f 9f 00 80 4c 97 00 00
       4.9181e-41 5.9178e-41 -5.7127e-41 5.4275e-41
0000c0 32 91 00 80 7d 92 00 80 a4 ac 00 80 f6 9f 00 00
       -5.2086e-41 -5.255e-41 -6.1932e-41 5.7383e-41
0000d0 7c 8e 00 00 22 9c 00 00 93 37 00 00 1c a9 00 80
       5.1114e-41 5.601e-41 1.9936e-41 -6.0665e-41
0000e0 bd 88 00 80 09 a2 00 80 3c af 00 00 5c ac 00 00
       -4.9052e-41 -5.8127e-41 6.2862e-41 6.1831e-41
0000f0 e5 a5 00 80 e2 ad 00 00 a1 8c 00 00 34 9f 00 00
       -5.9512e-41 6.2377e-41 5.0448e-41 5.7111e-41

sparse_weighted_adjacency_matrices.pair_attention.edge_query.weight f4 [16, 16]
000000 f8 6f ca bd 74 e7 0b 3e 28 2f 91 bd 14 fe fe bd
       -0.098846376 0.13662511 -0.070890725 -0.12450805
000010 a8 a0 13 bd 2a ef 3d 3e 38 2c 76 bd 7c b1 32 3e
       -0.036041886 0.18548265 -0.060100764 0.17450517
000020 80 12 e8 bd f8 89 69 3d 90 f1 c9 bd bc 7b 55 be
       -0.113316536 0.057016343 -0.098605275 -0.20847982
000030 90 6d 03 be cc 2f da bd ea a4 62 3e a6 d0 37 be
       -0.12834764 -0.10653648 0.22133222 -0.17950687
000040 f4 7d f8 bd 34 c3 d5 bd 64 af fc bd 82 0f 0d 3e
       -0.12133399 -0.10437623 -0.123381406 0.13775447
000050 c0 db 0c bc de dc 26 3e 62 45 4c be 1a 22 40 3e
       -0.008597314 0.16295192 -0.19948342 0.18763009
000060 5e d7 21 3e f0 19 89 3c 74 a7 b8 bd 62 75 04 3e
       0.15804812 0.016736 -0.09016314 0.12935403
000070 e8 b6 1f bd 78 41 06 3e 6a fa 01 be 98 b3 a1 bd
       -0.038992792 0.13110912 -0.12693182 -0.07895583
000080 c8 b3 63 3e 7a 08 3c 3e 84 88 6c 3e 34 fa 8a bd
       0.2223655 0.18362609 0.23098952 -0.06786004
000090 64 91 9d bd 84 5b 95 bd a0 e4 00 3d a0 9b a8 3c
       -0.07693747 -0.07292846 0.031468034 0.02058202
0000a0 50 e6 33 be 48 a3 d6 bd c0 5d 41 bc cc d3 d9 3d
       -0.17568326 -0.10480362 -0.011802137 0.106361
0000b0 10 8c ce bd d6 5b 0b 3e 06 d5 6e be b6 5a 33 be
       -0.100853086 0.13609251 -0.2332345 -0.17515072
0000c0 c8 55 c4 bd 66 f7 12 3e d8 f3 40 3d ec 58 dc 3d
       -0.09586674 0.14352188 0.047107548 0.10759148
0000d0 5c 62 e3 bd ac 2c 16 3e 94 0d 2b 3e 00 13 43 3e
       -0.11102745 0.14665478 0.16704398 0.19050217
0000e0 74 6b 7e 3e c4 f2 17 be d8 4f 53 3e 92 f8 7b 3e
       0.24845678 -0.14838701 0.20635927 0.24606541
0000f0 72 9a 1e be 24 32 94 3d 60 6b 0b 3d b0 09 ba 3d
       -0.15488604 0.07236126 0.034037948 0.09083879
000100 98 25 55 3e c8 99 a2 3d 4a 3f 22 be 00 5a a7 3b
       0.20815122 0.07939488 -0.15844455 0.0051071644
000110 a8 6b c0 3d dc ee 1a 3e a4 25 90 bd 80 7c 11 bd
       0.09395534 0.1513018 -0.070384294 -0.035519123
000120 58 23 3c bd 04 ab 2c 3e ec 1c 85 3d 1c ef bf 3d
       -0.045932144 0.16862112 0.06499657 0.09371778
000130 34 31 09 3e 70 3e b4 bd 18 88 4e bd 74 ae 92 bd
       0.13397676 -0.088009715 -0.050422758 -0.071621805
000140 f2 8b 51 be d0 35 27 3e f0 3d 40 3e d0 49 87 bd
       -0.20463541 0.16329122 0.18773627 -0.066058755
000150 38 e3 c3 3d ea f4 3a be 2c b7 08 be 6c 57 c7 bd
       0.09564823 -0.1825749 -0.13351125 -0.09733471
000160 40 cb 65 3d 2e cf 56 be c0 dd 81 bd 44 6a 06 3e
       0.056102037 -0.2097747 -0.063411236 0.13126475
000170 60 65 10 be c4 bf 26 be b0 e4 11 3d 44 3e 7d be
       -0.14101171 -0.1628409 0.035618484 -0.24730784
000180 76 54 52 be 38 1c 34 3d 82 a6 2e 3e 34 2d ab 3d
       -0.20540032 0.043972224 0.17055705 0.08358231
000190 6e 8c 6b be e0 4e 07 be c0 42 52 3e e0 68 78 3c
       -0.23002788 -0.13213682 0.20533276 0.015161723
0001a0 7a fc 47 be 00 2a 31 3d 2e c4 68 3e 80 86 18 bb
       -0.19529906 0.043252945 0.22731087 -0.0023273528
0001b0 9c 19 b8 bd 46 87 60 be b0 cc 59 3e e4 ff 85 3d
       -0.089892596 -0.21926603 0.21269488 0.06542948
0001c0 dc 39 29 3e 18 36 04 bd 30 ea 7c be 34 6a a3 bd
       0.16525978 -0.03227815 -0.2469871 -0.07979241
0001d0 0c 75 5c be 60 ba 35 3e e4 7c c9 3d 1e 9f 7b 3e
       -0.21529025 0.17746878 0.09838274 0.24572417
0001e0 1e 0f 05 3e 80 f8 63 bb c8 3a 1a be 10 eb 8e 3c
       0.12994048 -0.0034785569 -0.15061486 0.01744607
0001f0 a0 d7 85 bd 30 5d 64 3e 14 f7 2d be 74 34 cf bd
       -0.06535268 0.22301173 -0.16988784 -0.101174265
000200 98 73 57 3e 00 83 1c 3c 58 95 72 be a8 6c 15 3d
       0.2104019 0.009552717 -0.23689783 0.036480576
000210 00 c9 5a 3e 2c 52 b1 3d 04 15 a3 bd f8 19 79 be
       0.21365738 0.08658251 -0.07962993 -0.24326313
000220 d0 2b 4a 3d 54 b5 4a 3e 2a 50 29 be 7a 30 3c 3e
       0.04935819 0.19795734 -0.16534486 0.18377867
000230 44 53 e1 3d c4 5f 94 bd a0 ff e5 bc b0 c1 40 3d
       0.1100221 -0.07244828 -0.028075993 0.047059715
000240 5a a5 1d 3e 68 68 4a be 68 e3 0f 3d 80 2c 16 be
       0.15395108 -0.1976639 0.03512898 -0.14665413
000250 7c e1 89 bd 7e 6d 3d 3e a6 89 52 3e f4 5f 0a be
       -0.06732461 0.18498799 0.20560321 -0.13513166
000260 08 c6 4d 3e f4 fd d7 3d 2c 85 c9 3d 20 39 f9 3c
       0.20095074 0.105464846 0.09839854 0.030422747
000270 4c 1a 31 be 84 dd b2 3d 58 d1 28 3d 4a 6e 6c be
       -0.17295188 0.08733657 0.04121527 -0.23088947
000280 60 ad 55 3e 54 fc ee 3d 98 6d 44 3e a8 2e 5b be
       0.20866919 0.116692215 0.19182432 -0.21404517
000290 7e 9d 76 3e 08 b7 65 3e ee 37 2e be 20 60 2e bd
       0.24083516 0.22433102 -0.17013523 -0.04257214
0002a0 aa 7c 1a 3e da d1 08 be 5e 9f 4b 3e d4 d9 35 3e
       0.15086618 -0.13361302 0.19885013 0.17758876
0002b0 f4 e7 5c 3e c8 f0 77 3e 90 69 c4 3c a8 06 fe 3d
       0.21572858 0.24212945 0.023976117 0.12403613
0002c0 54 0c 77 3e e0 c3 4a 3d 22 b6 0c be 06 9b 72 be
       0.24125797 0.049503207 -0.13741353 -0.23691949
0002d0 be db 46 be c0 56 ea 3d f8 0b 62 3d d0 ed 75 be
       -0.19419762 0.114423275 0.055187196 -0.240165
0002e0 ae 9b 47 3e 4a 1f 06 3e f0 2c e0 3c 50 09 7f 3e
       0.19492981 0.13097873 0.027365178 0.24905896
0002f0 76 55 62 3e 86 4c 12 3e 38 46 e2 bd 26 ef 29 be
       0.22102913 0.14287004 -0.110485494 -0.16595134
000300 58 32 47 bd ec 10 d2 bd 48 38 15 bd e4 08 a7 bd
       -0.048631996 -0.10257134 -0.036430627 -0.081559926
000310 00 80 a8 39 04 ca 5e be e0 c8 48 bc 64 07 e8 bd
       0.00032138824 -0.2175675 -0.012254924 -0.11329535
000320 04 93 94 3d 94 76 ae 3d e8 41 12 3d f2 46 30 be
       0.072546035 0.08518711 0.035707384 -0.17214563
000330 a4 37 71 be a0 c5 32 be 34 d2 db 3d 48 19 7d 3d
       -0.23556381 -0.174582 0.107334524 0.06179169
000340 58 d4 17 3e 70 e9 7e be 20 6f e0 bd e0 37 e5 3d
       0.14827096 -0.24893737 -0.109586954 0.11192298
000350 38 87 a2 3d 68 ff 16 bd 1c 22 41 3e 00 8c 44 bc
       0.07935947 -0.036864668 0.18860668 -0.011996269
000360 60 d9 08 3e b8 83 7a 3d 9e 92 48 3e 36 08 59 3e
       0.13364172 0.061160773 0.1958718 0.21194538
000370 b4 67 da 3d 20 53 18 3d 72 8b 40 3e 4e 75 3c 3e
       0.10664311 0.03718865 0.18803194 0.18404123
000380 cc 12 bd 3d 00 32 52 ba 9c 3e b2 3d 00 93 cc 3d
       0.09232101 -0.0008018315 0.08703348 0.099889755
000390 c4 b3 13 be 40 e6 e3 3c 40 98 9a bd 9e 88 56 3e
       -0.14424044 0.027819753 -0.07548571 0.20950553
0003a0 4c 52 41 be 18 84 de 3d c4 19 81 bd 98 bc d6 3d
       -0.1887905 0.10865039 -0.063037425 0.1048519
0003b0 bc 64 10 3e a4 b9 55 be 74 df 7e 3e 68 64 15 bd
       0.14100927 -0.20871598 0.24889928 -0.036472708
0003c0 e2 4c 22 be b4 2c 15 be 36 e1 5d 3e 90 a8 22 bd
       -0.15849641 -0.14567834 0.21667942 -0.039711535
0003d0 0e 16 69 be d8 a2 42 be b0 57 f0 3c c0 06 8a bd
       -0.2276232 -0.19007432 0.029338688 -0.06739569
0003e0 38 31 7c be 80 1e 5e 3b e0 e0 ca bd 26 e4 28 3e
       -0.2462815 0.003389269 -0.09906173 0.16493282
0003f0 fc 95 39 be 40 51 a2 bc 50 17 59 3e fa 65 58 3e
       -0.18123621 -0.019814134 0.212003 0.21132651

sparse_weighted_adjacency_matrices.pair_attention.edge_query.bias f4 [16]
000000 f8 3a 49 bd 08 f1 0b bd e6 ec 06 be 00 4d 3c be
       -0.049128503 -0.034165412 -0.13176307 -0.18388748
000010 8c 93 ef bd f0 03 7f be fe 14 0e 3e 0c 11 90 bd
       -0.11698064 -0.24903846 0.13875195 -0.070345014
000020 68 45 4d 3d fe 71 39 be c4 9e 1c 3e ec e1 bb bd
       0.05011502 -0.18109891 0.1529494 -0.091739506
000030 dc 80 20 be 50 0e 74 3d d2 6f 4c 3e 0e d7 69 3e
       -0.15674156 0.059583962 0.19964531 0.22835943

sparse_weighted_adjacency_matrices.pair_attention.edge_key.weight f4 [16, 16]
000000 74 d4 ae 3d 78 34 d0 3d 5e 43 10 3e b8 6b 40 3e
       0.08536616 0.101662576 0.14088199 0.18791091
000010 50 bf 66 bd 08 9a 0a 3d 40 cb 4f 3c 0a ea 3c 3e
       -0.056334794 0.033838302 0.012682736 0.18448654
000020 70 13 27 3e 94 0f 85 bd 24 a9 b1 3d 78 46 3b 3d
       0.16316009 -0.06497112 0.08674839 0.0457215
000030 d6 91 1a 3e 16 ca 1f 3e 88 9d c6 bd 80 8d 32 bd
       0.15094694 0.15604433 -0.096980155 -0.043591976
000040 70 c6 bb 3d e8 59 43 3e ac 55 35 be 90 07 88 bd
       0.09168708 0.19077265 -0.17708462 -0.066420674
000050 4c 6e 6b 3e ba d7 31 3e e8 2a 09 be 60 96 87 bc
       0.22991294 0.1736745 -0.13395274 -0.016551197
000060 30 4c 9e bd 0c 81 35 3e de 38 1d be b4 56 96 3d
       -0.07729375 0.17725009 -0.15353724 0.07340756
000070 90 11 a3 bc 92 4a 00 3e 0e 84 0a be 86 1a 35 3e
       -0.019905835 0.12528446 -0.13526937 0.17685899
000080 a0 af d7 bd 74 08 f0 3d c6 36 0f 3e 7e 3d 19 be
       -0.10531545 0.11720362 0.13985738 -0.14964864
000090 ac de 40 be b4 9a 5f be 14 1b 2c 3e 20 f7 39 3e
       -0.18834943 -0.21836358 0.16807204 0.18160677
0000a0 0c f6 2b be 90 f3 f6 3d d0 01 9b 3d f6 23 0a 3e
       -0.16793078 0.120581746 0.07568705 0.1349028
0000b0 f0 1f a5 3d 54 3a 29 be 3c 69 19 3e 88 35 28 be
       0.08062732 -0.16526157 0.1498155 -0.1642667
0000c0 6c 07 6c be ba f5 04 be 60 b8 27 bd 80 8f ac 3b
       -0.23049706 -0.12984362 -0.040947318 0.00526613
0000d0 2c 7e ad bd b4 bb b4 3d 90 14 24 bd 90 7f af bd
       -0.08471331 0.08824864 -0.040058672 -0.085692525
0000e0 98 d4 2e 3e 72 2b 58 be 58 08 18 bd ba ee 7c 3e
       0.17073286 -0.21110323 -0.037117332 0.24700442
0000f0 b0 eb f5 bc 00 93 a7 bb 70 c4 5c 3d d8 99 90 bd
       -0.030019611 -0.0051139593 0.053898275 -0.07060593
000100 f8 6b 90 3d 50 f0 34 3e 4c c7 9a 3d 22 81 09 be
       0.070518434 0.17669797 0.07557544 -0.13428167
000110 08 f4 6f 3e 3c b1 c7 bd b8 af 28 be a2 56 4d 3e
       0.23432934 -0.09750602 -0.16473281 0.20052579
000120 b8 0f 53 3d 02 b1 06 3e de 80 68 be 40 60 d0 bc
       0.051528662 0.1315346 -0.22705409 -0.02543652
000130 64 0b 05 3e ba 75 21 be ee b4 0a 3e 20 34 c6 bd
       0.12992626 -0.15767565 0.13545582 -0.09677911
000140 70 f6 de 3c d4 04 32 3e bc 7b 77 3e a0 7e 7b be
       0.02721712 0.17384654 0.24168295 -0.24560022
000150 70 15 b2 3c e2 6a 6e 3e 72 90 1d 3e c0 f7 13 3e
       0.021738738 0.2328296 0.15387133 0.14449978
000160 56 29 69 3e f8 d9 73 be 6c 04 0e 3e d8 da 84 3d
       0.22769675 -0.23813617 0.13868874 0.06487054
000170 34 bb 6b be 46 99 5a 3e 6c 4f e2 bd 2a 14 4c 3e
       -0.23020631 0.21347532 -0.11050305 0.19929567
000180 ba 02 2d be cc 35 2a 3e b0 83 d9 bc ce e5 6f 3e
       -0.16895571 0.16622084 -0.026552051 0.23427507
000190 2e bc 28 be 20 1c 1b bc 30 a9 0d bd 60 b6 b6 3d
       -0.16478035 -0.009467155 -0.034585178 0.08921504
0001a0 28 c7 34 be d6 c6 2a 3e d0 8d 08 3d 30 e8 64 3d
       -0.17654097 0.16677412 0.033338368 0.055885494
0001b0 58 6f 32 bd 10 00 f7 bd 12 e6 0c be 38 a8 04 3e
       -0.043563217 -0.12060559 -0.1375964 0.12954795
0001c0 38 d4 0d 3e a4 3e e8 3d 40 94 3b 3d 40 75 06 bc
       0.13850486 0.11340073 0.04579568 -0.0082066655
0001d0 00 80 51 39 68 43 b3 3d f0 ae 07 3d 9a b9 11 3e
       0.00019979477 0.08753091 0.033125818 0.14230958
0001e0 1c 73 ad 3d 98 62 29 3e 84 84 ac bd 78 73 38 3e
       0.08469221 0.16541517 -0.08423713 0.18012798
0001f0 38 d4 e9 3d dc 73 5b be 8a 0c 4b be 26 70 0a be
       0.11417431 -0.21430916 -0.19829002 -0.13519344
000200 b0 6c 3b bd 78 3c 27 be d8 5a 1b 3e a0 d6 60 3c
       -0.04575795 -0.16331661 0.15171373 0.013723046
000210 78 25 aa 3d 40 0b 5a be 36 a3 68 3e 60 91 4c bd
       0.08307928 -0.21293354 0.2271851 -0.049943328
000220 70 c2 e4 bd a6 af 0a be 5a 3f 20 3e 00 34 eb b9
       -0.111698985 -0.13543567 0.15649167 -0.00044861436
000230 e0 d5 18 bc d0 dd 5d bd a8 81 20 3d 00 d5 64 bd
       -0.0093283355 -0.054166615 0.03918615 -0.055867195
000240 d6 81 14 be ba 49 3c 3e 5e 39 64 3e 16 ff 2c 3e
       -0.14502653 0.183875 0.22287509 0.16894183
000250 cc 9b 2e 3e 38 06 bc bd 60 ad 95 bd 94 bb 68 be
       0.1705162 -0.09180874 -0.07308459 -0.22727805
000260 d8 8d 0b be 94 71 a1 3d a4 1f 25 3e 2c 3f 44 3e
       -0.13628328 0.078829914 0.16125351 0.19164723
000270 7a 11 10 3e 78 83 5f 3e a0 78 02 3d ce 4f 0b 3e
       0.14069167 0.21827495 0.03185332 0.13604662
000280 86 ad 2a be 20 99 e4 bd e8 c9 12 bd 20 2a 0f bc
       -0.16667756 -0.11162019 -0.035837084 -0.008738071
000290 aa 78 7e be 08 77 d3 3d ec 65 a0 3d bc 95 8e bd
       -0.24850717 0.10325438 0.0783194 -0.06962153
0002a0 80 a4 3c 3c 62 46 45 3e 00 e4 8d bd e8 6c 5b 3d
       0.011513829 0.1926513 -0.06928253 0.053570658
0002b0 98 51 65 3e 00 cd 33 bc 8c 33 2a 3e 00 fa 69 bb
       0.22394407 -0.010974169 0.16621226 -0.003570199
0002c0 d0 07 ec 3c 9a d3 7e 3e 68 41 a7 bd f0 38 5b bd
       0.028812319 0.24885407 -0.08166772 -0.053521097
0002d0 b4 65 4b be 00 8c 2c 3c 2a f5 08 be 10 a3 dd 3d
       -0.19863015 0.0105314255 -0.13374773 0.10822117
0002e0 22 81 66 be 38 ad 04 3e 7c ea 2e be 00 bf e8 3b
       -0.22510198 0.12956703 -0.17081636 0.007102847
0002f0 80 36 d5 3c 40 1c 32 be 2e 9e 3f be 3a dc 4f be
       0.026026964 -0.17393589 -0.18712685 -0.20298854
000300 a0 1a 4d 3d 8c e4 53 be fe 34 5c be f0 ed c3 3d
       0.05007422 -0.20692652 -0.2150459 0.09566867
000310 88 d2 f3 bd 88 52 be 3d 6e bd 2f 3e 1e fb 5d 3e
       -0.1190539 0.09293085 0.17162105 0.21677825
000320 06 c0 25 3e 5e cb 12 be 00 0e 99 ba 30 13 12 3d
       0.16186532 -0.14335391 -0.0011677146 0.03566283
000330 fa 6f 22 be aa 12 33 be 70 7e 36 3e 88 9d 32 be
       -0.15863028 -0.17487589 0.1782167 -0.17442906
000340 fc cb cc 3d c0 e9 f7 bb 70 4d 6a 3e 78 00 12 be
       0.099998444 -0.007565707 0.22881103 -0.14257991
000350 50 a2 42 bd 84 0c 17 3e 00 32 b8 bb d8 7a 47 3e
       -0.047518075 0.14750868 -0.005621195 0.19480455
000360 60 4c 62 bd 60 11 18 be ae 5f 52 3e 04 6e 1c be
       -0.055248618 -0.14850378 0.20544311 -0.15276343
000370 f0 82 0d bd b8 2d 18 bd 14 12 bd bd 88 8b 69 be
       -0.0345487 -0.037152976 -0.09231964 -0.22807133
000380 6a c8 2d 3e 74 76 41 3e a0 6e f1 3c 02 94 25 be
       0.16970983 0.18892843 0.029471695 -0.16169742
000390 10 03 b9 bc 30 2f 94 3d 50 b7 81 3d c0 02 21 3e
       -0.022584468 0.07235563 0.06333792 0.15723705
0003a0 a8 55 cc bd c2 04 57 3e 30 0a e2 bc 56 e3 3c 3e
       -0.09977275 0.20997909 -0.027592748 0.18446097
0003b0 50 45 bc bd 88 12 4f 3d f8 7c 36 bd c0 89 30 bd
       -0.09192908 0.050554782 -0.044552773 -0.04310012
0003c0 b8 0a af bd 08 a3 9e bd a4 db bd bd 1e f2 44 3e
       -0.08546966 -0.077459395 -0.09270409 0.19232985
0003d0 3a 7b 27 be ac 37 07 be 88 8a f1 3d 26 fc 26 be
       -0.16355601 -0.13204831 0.11794001 -0.16307124
0003e0 10 6c 87 bd f0 11 05 bd 7a aa 75 be e4 ee 08 3e
       -0.06612408 -0.03248781 -0.23990813 0.1337238
0003f0 70 db 6a 3e 6a 6c 42 be e2 57 6b 3e e0 d1 46 bc
       0.22935271 -0.18986669 0.22982743 -0.012134999

sparse_weighted_adjacency_matrices.pair_attention.edge_key.bias f4 [16]
000000 66 b7 5f be d0 a3 6a bd 74 a1 d7 3d 30 3c ff bc
       -0.21847305 -0.05728513 0.105288416 -0.03115663
000010 e0 d2 46 be 60 be 41 be 58 0d 50 3d a4 11 31 be
       -0.1941638 -0.18920279 0.050793976 -0.17291886
000020 f4 1a a1 3d e0 aa c3 bc 28 ef 04 be d8 11 15 3e
       0.07866469 -0.02388519 -0.12981856 0.14557588
000030 34 3a e1 bd 40 73 bf bc 08 d3 a2 bd 56 e9 35 be
       -0.109974295 -0.023370385 -0.07950407 -0.17764792
