checkpoints/GHGNN/univ/train_best.pth (torch, 128930 bytes, 58 tensors)

sparse_weighted_adjacency_matrices.edge_inital.x_embedding.weight f4 [16, 2]
0	0x1dd2fc0c	5.5847148e-21
1	0x9c037637	-4.3497053e-22
2	0x33324450	4.1505984e-08
3	0x3108d9c2	1.9914386e-09
4	0xaf81975c	-2.357251e-10
5	0xaf3d852b	-1.723676e-10
6	0xaebda192	-8.6234256e-11
7	0x2ad241ab	3.734906e-13
8	0x2e2fa876	3.9940017e-11
9	0x2e3ee050	4.3400228e-11
10	0xb0d0c08c	-1.5188717e-09
11	0x2fc522d4	3.5858838e-10
12	0x32c5f896	2.3046862e-08
13	0x32a70ea5	1.9448018e-08
14	0x3094a645	1.0815674e-09
15	0x2c8db95e	4.028041e-12
16	0xadfe987d	-2.8944175e-11
17	0xacbff9af	-5.456267e-12
18	0xb33eb0e3	-4.43987e-08
19	0x321eb7df	9.238618e-09
20	0xb1cb1625	-5.910595e-09
21	0x3101375a	1.8803434e-09
22	0x33790acd	5.7984654e-08
23	0x31b0ff86	5.151324e-09
24	0xb347e222	-4.6538965e-08
25	0xade74472	-2.6292055e-11
26	0xa9b89cb4	-8.198425e-14
27	0x2757d8b1	2.9954712e-15
28	0x32bfac8f	2.2313797e-08
29	0x3288a079	1.5905458e-08
30	0xb1c9884f	-5.8653664e-09
31	0x3079a534	9.082044e-10

sparse_weighted_adjacency_matrices.edge_inital.x_embedding.bias f4 [16]
0	0xa098f884	-2.5914255e-19
1	0xb72a8af4	-1.0165142e-05
2	0x355647c5	7.982565e-07
3	0x2f44a3a9	1.788424e-10
4	0xb3561e7d	-4.9853487e-08
5	0x3082a32e	9.505123e-10
6	0xb7542a3e	-1.264602e-05
7	0xb4021560	-1.211497e-07
8	0x2eca0f47	9.18861e-11
9	0xb4e5630f	-4.2726649e-07
10	0xb175916e	-3.573486e-09
11	0xb3ad0a18	-8.057776e-08
12	0x37bc2925	2.2430506e-05
13	0x2d42a31d	1.1063842e-11
14	0xb782708e	-1.554962e-05
15	0xaf75246c	-2.229556e-10

sparse_weighted_adjacency_matrices.edge_inital.edge_embedding.weight f4 [16, 16]
0	0x9a78fb88	-5.1488383e-23
1	0xb6488553	-2.9879927e-06
2	0x35166a01	5.603361e-07
3	0xb17ba9a6	-3.6621741e-09
4	0x35f5a820	1.8302853e-06
5	0xb502705f	-4.8592295e-07
6	0xb7bb2b72	-2.2312368e-05
7	0xb1de9779	-6.478271e-09
8	0xb3005191	-2.9876507e-08
9	0xb80759a1	-3.226998e-05
10	0xb54872b0	-7.46727e-07
11	0xb8833839	-6.257039e-05
12	0xb55d1f20	-8.237421e-07
13	0xa37327ec	-1.318151e-17
14	0xb6fc7308	-7.5235766e-06
15	0xb4ddd076	-4.1316133e-07
16	0x0d1ddeb4	4.864743e-31
17	0x2b448f52	6.9832085e-13
18	0xa89537a7	-1.6566458e-14
19	0x27fed2e1	7.0727797e-15
20	0x2c7eb123	3.6193902e-12
21	0x2c92aff3	4.169104e-12
22	0x317bb0f9	3.6625905e-09
23	0x24760ded	5.3354542e-17
24	0xa9268e62	-3.6982902e-14
25	0x305f3d9f	8.1214496e-10
26	0x2f4fb0a2	1.8889293e-10
27	0xb1960a51	-4.3667474e-09
28	0xad705608	-1.3661523e-11
29	0x9a1d0daa	-3.2477877e-23
30	0x309330f3	1.070957e-09
31	0x2c9be42b	4.4306967e-12
32	0x8c103281	-1.1108554e-31
33	0x2b0df79b	5.0436884e-13
34	0x25994fc7	2.6595328e-16
35	0x1e2078dc	8.495323e-21
36	0x2845a3e7	1.09712374e-14
37	0xa7a99ddf	-4.7078087e-15
38	0x2f1e8329	1.4416614e-10
39	0xa38760fb	-1.4677802e-17
40	0xa1b4b0d1	-1.2244077e-18
41	0x2d1e4c5f	8.998218e-12
42	0x2a17dd71	1.3488322e-13
43	0xaf00770b	-1.1683825e-10
44	0xaba33281	-1.1595864e-12
45	0x9cb78852	-1.2145162e-21
46	0x2fad9406	3.1573694e-10
47	0x274ba948	2.8263677e-15
48	0x9715e63f	-4.843511e-25
49	0x310f89f5	2.0887658e-09
50	0xad7f88e6	-1.4525469e-11
51	0xae966175	-6.838522e-11
52	0x2ef86172	1.1295044e-10
53	0xb1db0968	-6.3748082e-09
54	0x3310129f	3.354455e-08
55	0x2f34f571	1.6458103e-10
56	0xad15486c	-8.48575e-12
57	0xb1f4c04e	-7.123197e-09
58	0xb24e0c2c	-1.1993546e-08
59	0xb50ee1ee	-5.3227893e-07
60	0xb1107b0a	-2.1024698e-09
61	0x1d1aef8c	2.0505573e-21
62	0xb3814eeb	-6.021386e-08
63	0xb2a64702	-1.9357234e-08
64	0x125fd126	7.062419e-28
65	0x28528e31	1.1688175e-14
66	0xa69c2790	-1.0835398e-15
67	0x22b4994e	4.8951415e-18
68	0x2487839a	5.876986e-17
69	0x2861c21d	1.2532101e-14
70	0x2b23b20f	5.815634e-13
71	0x252650f7	1.4425637e-16
72	0x9f926987	-6.2007985e-20
73	0x2c007a93	1.8257936e-12
74	0x2a383cf4	1.636363e-13
75	0xad8b0202	-1.5803362e-11
76	0xa8d63a40	-2.3784035e-14
77	0x9fae65b9	-7.386015e-20
78	0x2bc956cb	1.4305999e-12
79	0x298ab4f1	6.1598194e-14
80	0x109c27d1	6.15925e-29
81	0x31452957	2.8690772e-09
82	0xafa02ddb	-2.9136413e-10
83	0xaf6c1601	-2.1471892e-10
84	0x32bf4682	2.226739e-08
85	0xb3247cbf	-3.829768e-08
86	0x3402f16e	1.2195025e-07
87	0x29831318	5.820881e-14
88	0xaf9747e7	-2.751783e-10
89	0xb47b039c	-2.337751e-07
90	0xb5f7cebc	-1.8463102e-06
91	0x360945d6	2.045524e-06
92	0xb0707dc1	-8.74902e-10
93	0x9ed4f046	-2.2545748e-20
94	0x34e7400c	4.3073703e-07
95	0xb1c181b6	-5.6317857e-09
96	0x1fadcf84	7.3611656e-20
97	0x34cdef41	3.8358306e-07
98	0x2e9a98af	7.030231e-11
99	0x33287937	3.9225792e-08
100	0xb40d602d	-1.3166637e-07
101	0xb55f4db0	-8.3187024e-07
102	0x375a05bd	1.2995149e-05
103	0xb1825254	-3.7928576e-09
104	0xb27ea3ca	-1.4821987e-08
105	0xb6c501c8	-5.871265e-06
106	0xb530d468	-6.58742e-07
107	0x382fe907	4.1940275e-05
108	0x360658bc	2.0019206e-06
109	0xa0b199fb	-3.0086862e-19
110	0x378b23e6	1.6586808e-05
111	0xb5e339c3	-1.6929629e-06
112	0x153dd9a7	3.8339943e-26
113	0xb106a220	-1.9591724e-09
114	0x2f0aec99	1.2635083e-10
115	0x2a83b4cb	2.3395725e-13
116	0xaf89642e	-2.4991337e-10
117	0x2f92d743	2.6710198e-10
118	0xb388d760	-6.37217e-08
119	0xaa375bc5	-1.6285504e-13
120	0x2c5fe54e	3.1817496e-12
121	0xb0a3aab2	-1.1908325e-09
122	0x31e4a205	6.654093e-09
123	0x323d94ba	1.1035064e-08
124	0x327f72e2	1.4869075e-08
125	0xa246ccce	-2.6942426e-18
126	0xb3475a6b	-4.6415533e-08
127	0x2e9947b8	6.970374e-11
128	0x1999deae	1.5909769e-23
129	0xb23aa607	-1.0864375e-08
130	0x2ece6fdc	9.3876656e-11
131	0xb0cad345	-1.4757481e-09
132	0xaeb620fc	-8.282261e-11
133	0x33954ff7	6.952899e-08
134	0xb4860f01	-2.4970362e-07
135	0xaf9bc220	-2.833227e-10
136	0xaea7ae41	-7.6252345e-11
137	0x34957a28	2.7842293e-07
138	0xb3bc6814	-8.773364e-08
139	0x35d805c9	1.6094938e-06
140	0x3277b19a	1.4417674e-08
141	0x9cf3a5ba	-1.612323e-21
142	0x34754744	2.284333e-07
143	0xb400a874	-1.1982212e-07
144	0x1d00deb6	1.7055798e-21
145	0x33227d34	3.7832436e-08
146	0xb15ba2fc	-3.196134e-09
147	0xada84a1a	-1.9132296e-11
148	0x2ec53ec5	8.969673e-11
149	0x32eba743	2.7433662e-08
150	0x34cc80fa	3.8091804e-07
151	0x300d9c75	5.151784e-10
152	0x2f8631c3	2.4409816e-10
153	0x3399778d	7.146364e-08
154	0x34a71900	3.1124364e-07
155	0x353131c6	6.601007e-07
156	0xb3b57502	-8.449753e-08
157	0xa9ba76dc	-8.280678e-14
158	0x3425fbfb	1.5458492e-07
159	0x30d9b4c1	1.5840201e-09
160	0x988e6caf	-3.6815882e-24
161	0x32bec1da	2.2207065e-08
162	0xb05ba6b2	-7.9908624e-10
163	0xb194b1aa	-4.327565e-09
164	0xb346c1cd	-4.627673e-08
165	0x3431097f	1.6487864e-07
166	0x35e904de	1.7361269e-06
167	0xaacfd058	-3.6915154e-13
168	0xb0bfe26a	-1.396143e-09
169	0xb52998b4	-6.317962e-07
170	0x362c8d83	2.5712368e-06
171	0x35cbf575	1.5196116e-06
172	0x32140124	8.614993e-09
173	0x9fa16017	-6.834512e-20
174	0xb4b7d383	-3.42403e-07
175	0xb2cd0495	-2.3867225e-08
176	0x9c682cd2	-7.682029e-22
177	0xb2614991	-1.3113451e-08
178	0x30981566	1.1065537e-09
179	0xacb1d1fc	-5.0539555e-12
180	0x30212b02	5.8632577e-10
181	0x32923c7e	1.7024146e-08
182	0x331cdf75	3.6524813e-08
183	0xaf691e17	-2.1201917e-10
184	0xae622c96	-5.142605e-11
185	0xb2868566	-1.5660316e-08
186	0xb50cf208	-5.2506266e-07
187	0xb3cd5d76	-9.563057e-08
188	0x32c3198f	2.271261e-08
189	0x2908ea94	3.040153e-14
190	0xb2cad11d	-2.3610989e-08
191	0xaee40b01	-1.0370194e-10
192	0x19f6191a	2.5445942e-23
193	0xb42dcdbc	-1.6186726e-07
194	0x322857ec	9.798878e-09
195	0xb0145652	-5.3964755e-10
196	0xb2cf5fdc	-2.4141563e-08
197	0xb1fc91bd	-7.350734e-09
198	0xb648db88	-2.9930106e-06
199	0xad9cb220	-1.781425e-11
200	0x2f57799f	1.9597345e-10
201	0xb5252eba	-6.1535286e-07
202	0xb4b7e0ca	-3.4249962e-07
203	0x3688220b	4.057079e-06
204	0x34bd7600	3.528985e-07
205	0xa58cdfc8	-2.443777e-16
206	0xb65a33e5	-3.2514738e-06
207	0xb28daed1	-1.6494058e-08
208	0x116ea24c	1.8824901e-28
209	0x26f5f708	1.7067248e-15
210	0xa52aaed7	-1.4804388e-16
211	0x9fb7a314	-7.7773305e-20
212	0x250d5f93	1.2262182e-16
213	0x26cbc46e	1.4139197e-15
214	0x2c09e132	1.959388e-12
215	0x241d2a40	3.4079735e-17
216	0x9f83f809	-5.5891e-20
217	0x29ac6408	7.655687e-14
218	0x2b298429	6.022427e-13
219	0xad53dcee	-1.2043018e-11
220	0xa75c947d	-3.0611629e-15
221	0x9e1d322d	-8.321887e-21
222	0x29cefce4	9.192107e-14
223	0xa3637871	-1.2331199e-17
224	0x9dc447a5	-5.1954847e-21
225	0xb39717b6	-7.0357984e-08
226	0x31d68e8b	6.244425e-09
227	0x2c782bd0	3.526724e-12
228	0xafa9a05b	-3.085486e-10
229	0x2e368c20	4.1506465e-11
230	0xb377aac6	-5.7664487e-08
231	0xb0880eff	-9.899565e-10
232	0x2bc8fdf0	1.4281337e-12
233	0xb09bca5e	-1.133525e-09
234	0x2ed1bbe7	9.537598e-11
235	0xb0be9f50	-1.3869599e-09
236	0x341424a4	1.3796904e-07
237	0x2ac6b471	3.5297072e-13
238	0xb39c93ba	-7.2911874e-08
239	0x2f3f17ea	1.7379845e-10
240	0x22715914	3.2708748e-18
241	0xb6ee3d03	-7.1000554e-06
242	0x353ab4ca	6.955348e-07
243	0xb36f64b5	-5.5738116e-08
244	0xb402eb7a	-1.219286e-07
245	0xb58ed237	-1.0641005e-06
246	0xb84cc91e	-4.8824695e-05
247	0xb39ae516	-7.212854e-08
248	0xb29bb13b	-1.812497e-08
249	0xb829e749	-4.050814e-05
250	0xb63db89e	-2.8270656e-06
251	0x382a13ee	4.054972e-05
252	0x363b7256	2.7931724e-06
253	0x27d5ee8e	5.9378018e-15
254	0xb83c46e9	-4.4888733e-05
255	0xb67c1771	-3.756457e-06

sparse_weighted_adjacency_matrices.edge_inital.edge_embedding.bias f4 [16]
0	0xb4daca2d	-4.0752766e-07
1	0xa8120471	-8.105591e-15
2	0x2c2c9c5a	2.4529463e-12
3	0x2d93a206	1.6783918e-11
4	0xaf25ed50	-1.5090973e-10
5	0xaf929879	-2.6665584e-10
6	0xb27d4255	-1.474162e-08
7	0xb12e69a0	-2.5380373e-09
8	0xad58f371	-1.2332233e-11
9	0xba1c0134	-0.0005951107
10	0xb04c1392	-7.424258e-10
11	0x396a9b25	0.00022373775
12	0xb5e5715b	-1.709482e-06
13	0xadb0a1ad	-2.0080682e-11
14	0x3a97bb15	0.001157614
15	0x3808a455	3.2577973e-05

sparse_weighted_adjacency_matrices.pair_attention.embedding.weight f4 [64, 2]
0	0x0000a44e	5.8941e-41
1	0x0000898b	4.9341e-41
2	0x00008ad1	4.9798e-41
3	0x800088c7	-4.9066e-41
4	0x80008b0a	-4.9878e-41
5	0x000088df	4.91e-41
6	0x00008bba	5.0124e-41
7	0x000089c5	4.9422e-41
8	0x0000893b	4.9229e-41
9	0x800089ed	-4.9478e-41
10	0x00008c5c	5.0351e-41
11	0x00008904	4.9152e-41
12	0x8000933d	-5.2819e-41
13	0x00008900	4.9146e-41
14	0x80008a3a	-4.9586e-41
15	0x80008a94	-4.9712e-41
16	0x00008cdc	5.0531e-41
17	0x8000a808	-6.0278e-41
18	0x00009f70	5.7195e-41
19	0x8000a275	-5.8279e-41
20	0x80008eac	-5.1181e-41
21	0x8000897b	-4.9319e-41
22	0x0000af29	6.2836e-41
23	0x0000a9e1	6.0941e-41
24	0x8000a082	-5.758e-41
25	0x80008a2b	-4.9565e-41
26	0x80008a0f	-4.9526e-41
27	0x80005f5a	-3.4206e-41
28	0x00008a5b	4.9633e-41
29	0x000089d3	4.9442e-41
30	0x80008bef	-5.0199e-41
31	0x00008b63	5.0003e-41
32	0x8000890b	-4.9162e-41
33	0x00008af9	4.9854e-41
34	0x80008c18	-5.0256e-41
35	0x00008a96	4.9715e-41
36	0x000089a9	4.9383e-41
37	0x00008a81	4.9686e-41
38	0x00008920	4.9191e-41
39	0x80008c7d	-5.0398e-41
40	0x00009dd9	5.6625e-41
41	0x80008b1d	-4.9904e-41
42	0x00008a48	4.9606e-41
43	0x800089df	-4.9459e-41
44	0x00009112	5.2041e-41
45	0x00008aba	4.9766e-41
46	0x000208e7	1.86865e-40
47	0x00008ae2	4.9822e-41
48	0x80008f21	-5.1345e-41
49	0x80008af2	-4.9844e-41
50	0x80008924	-4.9197e-41
51	0x000089b1	4.9394e-41
52	0x80008a5a	-4.9631e-41
53	0x00008970	4.9303e-41
54	0x00008b10	4.9886e-41
55	0x8000896d	-4.9299e-41
56	0x00008b31	4.9932e-41
57	0x00008c5d	5.0353e-41
58	0x80008b49	-4.9966e-41
59	0x80008cab	-5.0462e-41
60	0x00008a8f	4.9705e-41
61	0x0000890c	4.9163e-41
62	0x000089c7	4.9425e-41
63	0x80008911	-4.917e-41
64	0x80008942	-4.9239e-41
65	0x80008a3e	-4.9592e-41
66	0x000089e1	4.9462e-41
67	0x00011be2	1.01838e-40
68	0x00009b73	5.5765e-41
69	0x80008934	-4.9219e-41
70	0x800089e7	-4.947e-41
71	0x000089f6	4.9491e-41
72	0x00008d5d	5.0712e-41
73	0x00008bc2	5.0136e-41
74	0x800088c4	-4.9062e-41
75	0x80008ea3	-5.1168e-41
76	0x000089ee	4.948e-41
77	0x800093dc	-5.3042e-41
78	0x80009449	-5.3195e-41
79	0x000179d2	1.35536e-40
80	0x000098c7	5.4806e-41
81	0x80008a41	-4.9596e-41
82	0x80008cee	-5.0556e-41
83	0x80008a62	-4.9642e-41
84	0x80008933	-4.9218e-41
85	0x80008e6f	-5.1096e-41
86	0x800088d7	-4.9089e-41
87	0x8000899f	-4.9369e-41
88	0x80008c7c	-5.0396e-41
89	0x80017f79	-1.37564e-40
90	0x80008979	-4.9316e-41
91	0x00008eef	5.1275e-41
92	0x80008902	-4.9149e-41
93	0x00009076	5.1823e-41
94	0x00009ba0	5.5828e-41
95	0x80008a30	-4.9572e-41
96	0x80008b6b	-5.0014e-41
97	0x80008970	-4.9303e-41
98	0x000089a3	4.9375e-41
99	0x00009210	5.2397e-41
100	0x80009a65	-5.5386e-41
101	0x00008919	4.9181e-41
102	0x00008c04	5.0228e-41
103	0x00008ae6	4.9827e-41
104	0x00008add	4.9815e-41
105	0x80008955	-4.9265e-41
106	0x80009cb2	-5.6212e-41
107	0x00008a9f	4.9728e-41
108	0x80008cd0	-5.0514e-41
109	0x00008917	4.9179e-41
110	0x00008af3	4.9846e-41
111	0x00008bfa	5.0214e-41
112	0x00008970	4.9303e-41
113	0x0000a2e5	5.8436e-41
114	0x00008920	4.9191e-41
115	0x000089e3	4.9464e-41
116	0x80008b82	-5.0046e-41
117	0x80008b00	-4.9864e-41
118	0x0000a3e6	5.8796e-41
119	0x00009928	5.4942e-41
120	0x00008a72	4.9665e-41
121	0x00008a86	4.9693e-41
122	0x00007a82	4.3948e-41
123	0x8000a006	-5.7406e-41
124	0x0000910d	5.2034e-41
125	0x80008b4d	-4.9972e-41
126	0x80008a91	-4.9708e-41
127	0x00008af6	4.985e-41

sparse_weighted_adjacency_matrices.pair_attention.embedding.bias f4 [64]
0	0x800093fe	-5.309e-41
1	0x80009124	-5.2067e-41
2	0x80008a0d	-4.9523e-41
3	0x000088ed	4.912e-41
4	0x00008bdc	5.0172e-41
5	0x800089a7	-4.938e-41
6	0x00008e68	5.1086e-41
7	0x00009daa	5.6559e-41
8	0x80008aa3	-4.9733e-41
9	0x80008b78	-5.0032e-41
10	0x80009002	-5.166e-41
11	0x80008af4	-4.9847e-41
12	0x80008a60	-4.964e-41
13	0x80008a26	-4.9558e-41
14	0x00008a4c	4.9612e-41
15	0x000088bc	4.9051e-41
16	0x00008918	4.918e-41
17	0x80009260	-5.251e-41
18	0x000088ca	4.907e-41
19	0x80008a1d	-4.9546e-41
20	0x80008d44	-5.0677e-41
21	0x80009203	-5.2379e-41
22	0x0000a9d9	6.093e-41
23	0x0000895f	4.928e-41
24	0x000089a3	4.9375e-41
25	0x00008a0a	4.9519e-41
26	0x0000897d	4.9322e-41
27	0x0000893f	4.9235e-41
28	0x00009d7c	5.6495e-41
29	0x800088e7	-4.9111e-41
30	0x00008a4b	4.961e-41
31	0x80008a1e	-4.9547e-41
32	0x00008aae	4.9749e-41
33	0x0000895a	4.9272e-41
34	0x80008cc6	-5.05e-41
35	0x000088ec	4.9118e-41
36	0x80008eb4	-5.1192e-41
37	0x00009aea	5.5573e-41
38	0x80008ca9	-5.046e-41
39	0x00008947	4.9246e-41
40	0x00008f10	5.1321e-41
41	0x00008ab2	4.9755e-41
42	0x000089c3	4.942e-41
43	0x80008bdf	-5.0176e-41
44	0x00008e0c	5.0957e-41
45	0x80008b6c	-5.0015e-41
46	0x800089b1	-4.9394e-41
47	0x00008bfd	5.0218e-41
48	0x00008963	4.9285e-41
49	0x80008912	-4.9172e-41
50	0x80008e34	-5.1013e-41
51	0x000088f9	4.9137e-41
52	0x00008c8a	5.0416e-41
53	0x80008ad7	-4.9806e-41
54	0x000089ff	4.9504e-41
55	0x8000a759	-6.0033e-41
56	0x800089df	-4.9459e-41
57	0x00008941	4.9237e-41
58	0x800094e3	-5.341e-41
59	0x00008962	4.9284e-41
60	0x00008fbc	5.1562e-41
61	0x80008b76	-5.0029e-41
62	0x000129b6	1.06799e-40
63	0x00008c41	5.0314e-41

sparse_weighted_adjacency_matrices.pair_attention.query.weight f4 [64, 64]
0	0x0000a46c	5.8983e-41
1	0x800088c5	-4.9064e-41
2	0x8000a7a0	-6.0133e-41
3	0x000099f1	5.5224e-41
4	0x00009db5	5.6575e-41
5	0x0000ab58	6.1467e-41
6	0x80009638	-5.3888e-41
7	0x800088bb	-4.905e-41
8	0x0000891e	4.9188e-41
9	0x80008917	-4.9179e-41
10	0x000097cb	5.4453e-41
11	0x0000a25b	5.8242e-41
12	0x80009d1d	-5.6362e-41
13	0x00009f6e	5.7193e-41
14	0x00008ff1	5.1636e-41
15	0x00012b43	1.07355e-40
16	0x000088fc	4.9141e-41
17	0x8000a9ca	-6.0909e-41
18	0x80001de4	-1.0723e-41
19	0x0000abef	6.1678e-41
20	0x00016ed2	1.3159e-40
21	0x0000a2ee	5.8448e-41
22	0x800097fa	-5.4519e-41
23	0x00018956	1.41102e-40
24	0x0000a92b	6.0686e-41
25	0x80008b21	-4.991e-41
26	0x000092da	5.268e-41
27	0x8000af78	-6.2946e-41
28	0x00001505	7.54e-42
29	0x8000a916	-6.0657e-41
30	0x00009e81	5.686e-41
31	0x80008932	-4.9216e-41
32	0x0000a4b7	5.9089e-41
33	0x000088f1	4.9125e-41
34	0x80009cd9	-5.6266e-41
35	0x8000aaef	-6.132e-41
36	0x00021dea	1.94402e-40
37	0x80009abd	-5.551e-41
38	0x80009c08	-5.5973e-41
39	0x8000187a	-8.78e-42
40	0x8000aa62	-6.1122e-41
41	0x00016657	1.28548e-40
42	0x80008b7b	-5.0036e-41
43	0x800088e8	-4.9113e-41
44	0x8000acde	-6.2013e-41
45	0x80009619	-5.3845e-41
46	0x00009e7a	5.685e-41
47	0x00008fa5	5.153e-41
48	0x00009afe	5.5601e-41
49	0x80008de0	-5.0895e-41
50	0x8002943c	-2.36847e-40
51	0x0000a18b	5.795e-41
52	0x0000a05d	5.7528e-41
53	0x000092dc	5.2683e-41
54	0x00009d24	5.6371e-41
55	0x8000917b	-5.2189e-41
56	0x0000978d	5.4366e-41
57	0x8000974d	-5.4276e-41
58	0x0000a5e9	5.9517e-41
59	0x800089da	-4.9452e-41
60	0x000094fd	5.3447e-41
61	0x0000a414	5.886e-41
62	0x000081f8	4.6624e-41
63	0x80009aa8	-5.548e-41
64	0x0000af3b	6.2861e-41
65	0x800097e2	-5.4485e-41
66	0x80009a07	-5.5255e-41
67	0x8000a818	-6.03e-41
68	0x0000a00b	5.7413e-41
69	0x80009eea	-5.7008e-41
70	0x0000922b	5.2435e-41
71	0x8000890f	-4.9167e-41
72	0x0000ac25	6.1754e-41
73	0x80009268	-5.252e-41
74	0x8000a034	-5.747e-41
75	0x0000a8a9	6.0504e-41
76	0x00009fe3	5.7357e-41
77	0x000090ff	5.2015e-41
78	0x00009468	5.3238e-41
79	0x00009d89	5.6513e-41
80	0x8000892c	-4.9208e-41
81	0x0000abdf	6.1656e-41
82	0x0000a4f0	5.9168e-41
83	0x800092d0	-5.2666e-41
84	0x8000892c	-4.9208e-41
85	0x8000a41f	-5.8876e-41
86	0x00008f4b	5.1404e-41
87	0x80009344	-5.2829e-41
88	0x8000a396	-5.8684e-41
89	0x800089fb	-4.9498e-41
90	0x000093a9	5.297e-41
91	0x0000a1df	5.8068e-41
92	0x80009611	-5.3834e-41
93	0x80009ee6	-5.7002e-41
94	0x000089aa	4.9385e-41
95	0x000093ae	5.2977e-41
96	0x800092a3	-5.2603e-41
97	0x000096df	5.4122e-41
98	0x800090fc	-5.201e-41
99	0x80014f8d	-1.20373e-40
100	0x8000acfc	-6.2055e-41
101	0x0000a523	5.924e-41
102	0x000097bf	5.4436e-41
103	0x00008914	4.9174e-41
104	0x8000895a	-4.9272e-41
105	0x80008985	-4.9333e-41
106	0x00015d2d	1.2526e-40
107	0x000088c3	4.9061e-41
108	0x80015a35	-1.24196e-40
109	0x0000a203	5.8119e-41
110	0x80009151	-5.213e-41
111	0x000098a2	5.4754e-41
112	0x8000895b	-4.9274e-41
113	0x00008a7f	4.9683e-41
114	0x80008f82	-5.1481e-41
115	0x800088d3	-4.9083e-41
116	0x0000790e	4.3426e-41
117	0x00008bea	5.0192e-41
118	0x800088df	-4.91e-41
119	0x0000a268	5.826e-41
120	0x00009c0e	5.5982e-41
121	0x800088c4	-4.9062e-41
122	0x8000a169	-5.7903e-41
123	0x80008d0c	-5.0598e-41
124	0x0001a687	1.51574e-40
125	0x80008cd2	-5.0517e-41
126	0x000088f5	4.9131e-41
127	0x00020bfd	1.87972e-40
128	0x80008b5e	-4.9996e-41
129	0x00009565	5.3593e-41
130	0x80009c15	-5.5992e-41
131	0x0000a53d	5.9276e-41
132	0x0000a77d	6.0083e-41
133	0x80009b9f	-5.5826e-41
134	0x800009d7	-3.53e-42
135	0x80009bbc	-5.5867e-41
136	0x80009aa1	-5.547e-41
137	0x80013393	-1.10337e-40
138	0x0001cc4d	1.65125e-40
139	0x00008bbc	5.0127e-41
140	0x8000922a	-5.2434e-41
141	0x800088e1	-4.9103e-41
142	0x00009e64	5.682e-41
143	0x000052bf	2.9684e-41
144	0x8000a707	-5.9918e-41
145	0x00009eb2	5.6929e-41
146	0x00009dc8	5.6601e-41
147	0x0000a1b6	5.8011e-41
148	0x0000a3d8	5.8776e-41
149	0x00009278	5.2543e-41
150	0x0000a158	5.7879e-41
151	0x80009ca6	-5.6195e-41
152	0x80004d58	-2.7746e-41
153	0x80008921	-4.9193e-41
154	0x80009462	-5.323e-41
155	0x80008f3b	-5.1381e-41
156	0x0000895b	4.9274e-41
157	0x80009ed7	-5.6981e-41
158	0x0001548d	1.22167e-40
159	0x00009b5d	5.5734e-41
160	0x00009d68	5.6467e-41
161	0x8000a3b8	-5.8731e-41
162	0x80009fc0	-5.7308e-41
163	0x00008fa5	5.153e-41
164	0x0002072e	1.86247e-40
165	0x0000a68e	5.9749e-41
166	0x8000a10e	-5.7776e-41
167	0x0000a2a1	5.834e-41
168	0x00009ef3	5.702e-41
169	0x80009923	-5.4935e-41
170	0x800089a9	-4.9383e-41
171	0x80009959	-5.5011e-41
172	0x0000a538	5.927e-41
173	0x0000ae18	6.2453e-41
174	0x80009985	-5.5072e-41
175	0x8000a077	-5.7564e-41
176	0x80009a37	-5.5322e-41
177	0x00008cac	5.0464e-41
178	0x000090e8	5.1983e-41
179	0x800092be	-5.2641e-41
180	0x0000a58c	5.9387e-41
181	0x00009e8a	5.6873e-41
182	0x80008ff0	-5.1635e-41
183	0x80009826	-5.458e-41
184	0x00009cfc	5.6315e-41
185	0x80008a84	-4.969e-41
186	0x8000a8c4	-6.0542e-41
187	0x80009149	-5.2118e-41
188	0x8000910c	-5.2033e-41
189	0x80009f75	-5.7202e-41
190	0x800201f3	-1.8437e-40
191	0x0000ac09	6.1715e-41
192	0x8000a5a5	-5.9422e-41
193	0x0000895b	4.9274e-41
194	0x80008b33	-4.9935e-41
195	0x00008e8f	5.114e-41
196	0x8000a995	-6.0835e-41
197	0x8000a4b9	-5.9091e-41
198	0x800088e4	-4.9107e-41
199	0x80008a88	-4.9696e-41
200	0x800089e4	-4.9466e-41
201	0x00009b3c	5.5688e-41
202	0x0000993f	5.4974e-41
203	0x80009ed1	-5.6973e-41
204	0x00008ca2	5.045e-41
205	0x80009475	-5.3256e-41
206	0x80008b1e	-4.9906e-41
207	0x8000962b	-5.387e-41
208	0x8000895e	-4.9278e-41
209	0x8000a0d6	-5.7697e-41
210	0x00009dab	5.656e-41
211	0x00009c70	5.6119e-41
212	0x8001159a	-9.9585e-41
213	0x8000a4d0	-5.9124e-41
214	0x8000a56d	-5.9344e-41
215	0x80009e94	-5.6887e-41
216	0x80009a49	-5.5347e-41
217	0x8000a321	-5.852e-41
218	0x8000aace	-6.1273e-41
219	0x800098c2	-5.4799e-41
220	0x0000ae34	6.2492e-41
221	0x00000a13	3.614e-42
222	0x00008918	4.918e-41
223	0x800091fe	-5.2372e-41
224	0x00009388	5.2924e-41
225	0x00009274	5.2537e-41
226	0x0000a067	5.7542e-41
227	0x0000986b	5.4677e-41
228	0x000092a7	5.2609e-41
229	0x00009694	5.4017e-41
230	0x8000a9de	-6.0937e-41
231	0x80008924	-4.9197e-41
232	0x8000924b	-5.248e-41
233	0x80009d46	-5.6419e-41
234	0x00008dcf	5.0871e-41
235	0x00012cce	1.07908e-40
236	0x80008a1c	-4.9544e-41
237	0x00008664	4.821e-41
238	0x000137ec	1.11896e-40
239	0x000088e1	4.9103e-41
240	0x80008956	-4.9267e-41
241	0x00009daf	5.6566e-41
242	0x80009175	-5.218e-41
243	0x800089d2	-4.944e-41
244	0x800096bc	-5.4073e-41
245	0x00013b57	1.13123e-40
246	0x0000a4a7	5.9066e-41
247	0x80009402	-5.3095e-41
248	0x80009845	-5.4624e-41
249	0x8000ac03	-6.1706e-41
250	0x80009901	-5.4887e-41
251	0x0000ac13	6.1729e-41
252	0x000091e3	5.2334e-41
253	0x000001c9	6.4e-43
254	0x80014789	-1.17497e-40
255	0x80009933	-5.4958e-41

sparse_weighted_adjacency_matrices.pair_attention.query.bias f4 [64]
0	0x00009747	5.4268e-41
1	0x0000adbf	6.2328e-41
2	0x000089d2	4.944e-41
3	0x80009eec	-5.701e-41
4	0x0000a881	6.0448e-41
5	0x8000a215	-5.8144e-41
6	0x80008f26	-5.1352e-41
7	0x8000913f	-5.2104e-41
8	0x80008bf4	-5.0206e-41
9	0x000097b4	5.4421e-41
10	0x00009e30	5.6747e-41
11	0x00009f84	5.7223e-41
12	0x80009d05	-5.6328e-41
13	0x0000aaec	6.1315e-41
14	0x80008971	-4.9305e-41
15	0x80008dd6	-5.0881e-41
16	0x000031fd	1.7932e-41
17	0x8000a8b2	-6.0516e-41
18	0x800097b0	-5.4415e-41
19	0x8000a30c	-5.849e-41
20	0x00009098	5.187e-41
21	0x00009cca	5.6245e-41
22	0x0000a339	5.8553e-41
23	0x80008ba8	-5.0099e-41
24	0x0000a5d0	5.9482e-41
25	0x80000240	-8.07e-43
26	0x00009cfe	5.6318e-41
27	0x00009e21	5.6726e-41
28	0x8000897f	-4.9324e-41
29	0x000088ba	4.9048e-41
30	0x80009db1	-5.6569e-41
31	0x0000a91e	6.0668e-41
32	0x80008bde	-5.0175e-41
33	0x8000986b	-5.4677e-41
34	0x80009359	-5.2858e-41
35	0x0001228f	1.04233e-40
36	0x0000893b	4.9229e-41
37	0x80008df8	-5.0929e-41
38	0x0000ac36	6.1778e-41
39	0x8000908c	-5.1854e-41
40	0x800088f6	-4.9132e-41
41	0x8000890b	-4.9162e-41
42	0x000090fc	5.201e-41
43	0x0000890d	4.9165e-41
44	0x00008d81	5.0762e-41
45	0x0000111e	6.14e-42
46	0x8000a2f0	-5.8451e-41
47	0x0000a3b5	5.8727e-41
48	0x8000a335	-5.8548e-41
49	0x00008c13	5.0249e-41
50	0x80009a4c	-5.5351e-41
51	0x0000960e	5.383e-41
52	0x0000a108	5.7767e-41
53	0x0000985c	5.4656e-41
54	0x0000a60a	5.9564e-41
55	0x8000939d	-5.2954e-41
56	0x800053b5	-3.0028e-41
57	0x000088fd	4.9142e-41
58	0x8000ad8c	-6.2257e-41
59	0x8001dd0e	-1.71135e-40
60	0x000099ba	5.5147e-41
61	0x8000a8be	-6.0533e-41
62	0x0000a594	5.9398e-41
63	0x80008b92	-5.0068e-41

sparse_weighted_adjacency_matrices.pair_attention.key.weight f4 [64, 64]
0	0x8000902d	-5.172e-41
1	0x80009b0f	-5.5625e-41
2	0x000000e3	3.18e-43
3	0x000095a6	5.3684e-41
4	0x00008d43	5.0675e-41
5	0x0000916f	5.2172e-41
6	0x0000a7ee	6.0242e-41
7	0x0000a0c1	5.7668e-41
8	0x00009881	5.4708e-41
9	0x80008e18	-5.0974e-41
10	0x0000a932	6.0696e-41
11	0x0000a6e7	5.9873e-41
12	0x000092e7	5.2699e-41
13	0x80009021	-5.1704e-41
14	0x8000936b	-5.2884e-41
15	0x00009135	5.209e-41
16	0x000098a7	5.4761e-41
17	0x00009254	5.2493e-41
18	0x80008913	-4.9173e-41
19	0x0000a4c7	5.9111e-41
20	0x00009fcc	5.7324e-41
21	0x80008a8b	-4.97e-41
22	0x00009337	5.2811e-41
23	0x0000ad6c	6.2212e-41
24	0x00019748	1.46105e-40
25	0x80009701	-5.417e-41
26	0x00009155	5.2135e-41
27	0x00008dae	5.0825e-41
28	0x00009216	5.2406e-41
29	0x00008a12	4.953e-41
30	0x00009a1f	5.5288e-41
31	0x0003558d	3.06196e-40
32	0x8000a49d	-5.9052e-41
33	0x00009f4b	5.7144e-41
34	0x8001b388	-1.56239e-40
35	0x8000929a	-5.2591e-41
36	0x00008d1c	5.062e-41
37	0x800011ff	-6.456e-42
38	0x00008aca	4.9788e-41
39	0x80008b7a	-5.0035e-41
40	0x80008d32	-5.0651e-41
41	0x80009fc7	-5.7317e-41
42	0x00009e81	5.686e-41
43	0x8000992e	-5.495e-41
44	0x00009f25	5.709e-41
45	0x00017c35	1.36393e-40
46	0x800091fb	-5.2368e-41
47	0x00008ea0	5.1164e-41
48	0x0000a5ad	5.9433e-41
49	0x800088e9	-4.9114e-41
50	0x80009a62	-5.5382e-41
51	0x8000a780	-6.0088e-41
52	0x80008e4c	-5.1047e-41
53	0x80008951	-4.926e-41
54	0x0000a9c5	6.0902e-41
55	0x8000af55	-6.2897e-41
56	0x800095d6	-5.3751e-41
57	0x80008f7d	-5.1474e-41
58	0x0000983c	5.4611e-41
59	0x80009628	-5.3866e-41
60	0x80009792	-5.4373e-41
61	0x8000a432	-5.8902e-41
62	0x8000a0ad	-5.764e-41
63	0x80010cc8	-9.642e-41
64	0x0000aa48	6.1085e-41
65	0x000091c5	5.2292e-41
66	0x80008a2e	-4.957e-41
67	0x00005d89	3.3554e-41
68	0x00009c9f	5.6185e-41
69	0x80008b69	-5.0011e-41
70	0x00012279	1.04202e-40
71	0x0000a5f0	5.9527e-41
72	0x00008a7e	4.9682e-41
73	0x00009be3	5.5922e-41
74	0x8000adf5	-6.2404e-41
75	0x0000a915	6.0655e-41
76	0x0000906c	5.1809e-41
77	0x000088ed	4.912e-41
78	0x80009530	-5.3518e-41
79	0x00008ba5	5.0095e-41
80	0x80020cd0	-1.88267e-40
81	0x800088cb	-4.9072e-41
82	0x80009fd6	-5.7338e-41
83	0x00019a33	1.47152e-40
84	0x00008f15	5.1328e-41
85	0x8001c169	-1.61218e-40
86	0x00015923	1.23812e-40
87	0x80013b9d	-1.13221e-40
88	0x00008fab	5.1538e-41
89	0x80008a34	-4.9578e-41
90	0x80009778	-5.4337e-41
91	0x0000adc4	6.2335e-41
92	0x8000ac43	-6.1796e-41
93	0x0000894e	4.9256e-41
94	0x00009509	5.3464e-41
95	0x8000a447	-5.8932e-41
96	0x00009212	5.24e-41
97	0x00009ef7	5.7026e-41
98	0x8000aa78	-6.1153e-41
99	0x80009e0d	-5.6698e-41
100	0x80009e62	-5.6817e-41
101	0x00008a25	4.9557e-41
102	0x000096fb	5.4162e-41
103	0x000092d3	5.267e-41
104	0x80009ca7	-5.6196e-41
105	0x8000904b	-5.1763e-41
106	0x000097ef	5.4504e-41
107	0x00009347	5.2833e-41
108	0x80013d20	-1.13763e-40
109	0x000092c3	5.2648e-41
110	0x800088f6	-4.9132e-41
111	0x000001c4	6.33e-43
112	0x0000a707	5.9918e-41
113	0x80009f56	-5.7159e-41
114	0x0000a445	5.8929e-41
115	0x8000a558	-5.9314e-41
116	0x0000a25e	5.8246e-41
117	0x8000a6aa	-5.9788e-41
118	0x000004ee	1.768e-42
119	0x80009355	-5.2853e-41
120	0x00009555	5.357e-41
121	0x800093c0	-5.3003e-41
122	0x800098c9	-5.4809e-41
123	0x00009cf3	5.6303e-41
124	0x8000a1c6	-5.8033e-41
125	0x0000a664	5.969e-41
126	0x80009e36	-5.6755e-41
127	0x0000aa26	6.1038e-41
128	0x0000aeba	6.268e-41
129	0x8000a2b2	-5.8364e-41
130	0x80019b88	-1.4763e-40
131	0x00009993	5.5092e-41
132	0x0000922c	5.2437e-41
133	0x8000989a	-5.4743e-41
134	0x8000ac85	-6.1888e-41
135	0x80008a1d	-4.9546e-41
136	0x000088f2	4.9127e-41
137	0x00008905	4.9153e-41
138	0x0000ad41	6.2152e-41
139	0x8000a336	-5.8549e-41
140	0x0000ab81	6.1524e-41
141	0x80008ca0	-5.0447e-41
142	0x00018a60	1.41475e-40
143	0x0000a14b	5.7861e-41
144	0x0000a439	5.8912e-41
145	0x80009f1a	-5.7075e-41
146	0x00008a6e	4.9659e-41
147	0x80008eb9	-5.1199e-41
148	0x8000a829	-6.0324e-41
149	0x8000af30	-6.2845e-41
150	0x8000a4b3	-5.9083e-41
151	0x0000a039	5.7477e-41
152	0x800089ca	-4.943e-41
153	0x0000a5e8	5.9516e-41
154	0x0000acb1	6.195e-41
155	0x80009c07	-5.5972e-41
156	0x00009575	5.3615e-41
157	0x80009bb6	-5.5859e-41
158	0x0000a305	5.848e-41
159	0x8000acc2	-6.1974e-41
160	0x00008992	4.9351e-41
161	0x00008b09	4.9876e-41
162	0x80008c3b	-5.0305e-41
163	0x8000890a	-4.916e-41
164	0x00008d6a	5.073e-41
165	0x00008d57	5.0703e-41
166	0x00008bc8	5.0144e-41
167	0x0000aba8	6.1579e-41
168	0x000095d7	5.3752e-41
169	0x80009e6a	-5.6828e-41
170	0x800088e8	-4.9113e-41
171	0x80009e95	-5.6889e-41
172	0x00009795	5.4377e-41
173	0x80008ea3	-5.1168e-41
174	0x00015a61	1.24257e-40
175	0x8000a2d3	-5.841e-41
176	0x00009a57	5.5367e-41
177	0x00008956	4.9267e-41
178	0x80011286	-9.848e-41
179	0x80009c29	-5.602e-41
180	0x00008906	4.9155e-41
181	0x80010a6d	-9.5576e-41
182	0x80009e20	-5.6725e-41
183	0x00009eb5	5.6933e-41
184	0x000088d5	4.9086e-41
185	0x800089ab	-4.9386e-41
186	0x00009fd1	5.7331e-41
187	0x00008ae9	4.9832e-41
188	0x8000a38c	-5.867e-41
189	0x8000984f	-5.4638e-41
190	0x800093ee	-5.3067e-41
191	0x00008d12	5.0606e-41
192	0x00009a27	5.53e-41
193	0x80009c27	-5.6017e-41
194	0x000088ee	4.9121e-41
195	0x0000ac21	6.1748e-41
196	0x80009327	-5.2788e-41
197	0x8000a4bb	-5.9094e-41
198	0x8000a4c7	-5.9111e-41
199	0x000088e5	4.9109e-41
200	0x0000a48a	5.9025e-41
201	0x0000a357	5.8595e-41
202	0x0000abf7	6.169e-41
203	0x80008bdf	-5.0176e-41
204	0x0000ad2d	6.2124e-41
205	0x800088c2	-4.906e-41
206	0x80008337	-4.7071e-41
207	0x8002d29c	-2.59223e-40
208	0x00009394	5.2941e-41
209	0x80013ada	-1.12947e-40
210	0x0001b1ef	1.55666e-40
211	0x8000af46	-6.2876e-41
212	0x0000966d	5.3963e-41
213	0x80009318	-5.2767e-41
214	0x8000a645	-5.9646e-41
215	0x80009caa	-5.62e-41
216	0x80009e5c	-5.6809e-41
217	0x0000900f	5.1678e-41
218	0x8000a570	-5.9348e-41
219	0x8000ab8f	-6.1544e-41
220	0x00009b86	5.5791e-41
221	0x0000a06e	5.7551e-41
222	0x8000a870	-6.0424e-41
223	0x8000a50b	-5.9206e-41
224	0x00009fb3	5.7289e-41
225	0x800097f2	-5.4508e-41
226	0x8000a9a1	-6.0851e-41
227	0x0001295a	1.0667e-40
228	0x00009290	5.2577e-41
229	0x80009de9	-5.6647e-41
230	0x80009559	-5.3576e-41
231	0x000098e9	5.4854e-41
232	0x800091b5	-5.227e-41
233	0x80008d21	-5.0628e-41
234	0x0000a3ba	5.8734e-41
235	0x8000892e	-4.9211e-41
236	0x80009638	-5.3888e-41
237	0x0002008e	1.8387e-40
238	0x800088f7	-4.9134e-41
239	0x00008919	4.9181e-41
240	0x80009194	-5.2224e-41
241	0x0000ae3b	6.2502e-41
242	0x80009e5c	-5.6809e-41
243	0x8000ae83	-6.2603e-41
244	0x000096bf	5.4078e-41
245	0x00008f00	5.1299e-41
246	0x80009f9e	-5.726e-41
247	0x00023f23	2.0632e-40
248	0x00008d99	5.0796e-41
249	0x0000981c	5.4567e-41
250	0x800088c6	-4.9065e-41
251	0x00009d90	5.6523e-41
252	0x00008b9a	5.008e-41
253	0x8000899f	-4.9369e-41
254	0x80009dbc	-5.6584e-41
255	0x8000a513	-5.9217e-41

sparse_weighted_adjacency_matrices.pair_attention.key.bias f4 [64]
0	0x8000a294	-5.8322e-41
1	0x8000893b	-4.9229e-41
2	0x00009512	5.3476e-41
3	0x00009491	5.3296e-41
4	0x0000984c	5.4634e-41
5	0x8001c030	-1.6078e-40
6	0x00008b9e	5.0085e-41
7	0x800088cf	-4.9078e-41
8	0x00009f14	5.7066e-41
9	0x80003f01	-2.2602e-41
10	0x8000a659	-5.9674e-41
11	0x80009d71	-5.648e-41
12	0x00009b70	5.576e-41
13	0x00008c50	5.0335e-41
14	0x800161fa	-1.26983e-40
15	0x00008909	4.9159e-41
16	0x00009e6a	5.6828e-41
17	0x80009f1c	-5.7078e-41
18	0x8000aeea	-6.2747e-41
19	0x80018132	-1.38182e-40
20	0x8000a4a5	-5.9063e-41
21	0x00009361	5.287e-41
22	0x80009239	-5.2455e-41
23	0x80009856	-5.4648e-41
24	0x8000a1a0	-5.798e-41
25	0x00008d0b	5.0597e-41
26	0x0000ae96	6.263e-41
27	0x000095ed	5.3783e-41
28	0x8000a9b5	-6.088e-41
29	0x8000992b	-5.4946e-41
30	0x800088db	-4.9094e-41
31	0x80008c23	-5.0272e-41
32	0x0000a444	5.8927e-41
33	0x80013e67	-1.14221e-40
34	0x80009dbe	-5.6587e-41
35	0x8000a005	-5.7404e-41
36	0x8000a63e	-5.9636e-41
37	0x00009a43	5.5339e-41
38	0x8000aac2	-6.1256e-41
39	0x0002c455	2.54102e-40
40	0x80009d75	-5.6485e-41
41	0x800095b7	-5.3708e-41
42	0x0000955f	5.3584e-41
43	0x80007841	-4.3139e-41
44	0x000022f4	1.2539e-41
45	0x00008915	4.9176e-41
46	0x00008f8c	5.1495e-41
47	0x80008a17	-4.9537e-41
48	0x00009d7e	5.6498e-41
49	0x80009da4	-5.6551e-41
50	0x8000a0e6	-5.772e-41
51	0x0000a014	5.7425e-41
52	0x00009ffc	5.7392e-41
53	0x00005ea8	3.3956e-41
54	0x00009a0c	5.5262e-41
55	0x00009dbf	5.6589e-41
56	0x800088f5	-4.9131e-41
57	0x80008f39	-5.1379e-41
58	0x00008e90	5.1142e-41
59	0x000089bc	4.941e-41
60	0x800093fe	-5.309e-41
61	0x8000a458	-5.8955e-41
62	0x80013406	-1.10498e-40
63	0x0000ad47	6.216e-41

sparse_weighted_adjacency_matrices.pair_attention.edge_query.weight f4 [16, 16]
0	0xbde0aa30	-0.10969961
1	0xbe3b49a6	-0.18289813
2	0x3e4ce6b8	0.20009887
3	0xbd949260	-0.07254481
4	0xbdae4d70	-0.08510864
5	0xbe1a2824	-0.15054375
6	0x3d073f20	0.033019185
7	0xbe46f99c	-0.19431156
8	0x3db91834	0.090378195
9	0x3e61fd64	0.22069317
10	0x3e468c10	0.19389367
11	0xbe7ac500	-0.24489212
12	0xbe3c4e02	-0.18389133
13	0x3ceb56e0	0.028727949
14	0x3e35efb0	0.17767215
15	0x3d0dcb80	0.0346179
16	0xbdb426b4	-0.087964445
17	0xbe23a8c8	-0.15982354
18	0xbe395f2e	-0.18102714
19	0x3ae7b100	0.0017676651
20	0xbe56d194	-0.20978385
21	0xbe6591bc	-0.22418875
22	0xbdf2681c	-0.118362635
23	0x3cc4ccf0	0.024023503
24	0xbd5d23e8	-0.05398932
25	0xbe3fe7c6	-0.18740758
26	0xbdbde1d0	-0.09271586
27	0x3e75298e	0.23941633
28	0x3d29b470	0.041431844
29	0x3e0c94e2	0.1372867
30	0x3d1808e0	0.03711784
31	0xbc25b480	-0.010113835
32	0xbe048de8	-0.12944758
33	0x3b85d840	0.004084617
34	0x3e638fa4	0.22222763
35	0x3d24dbb0	0.040248573
36	0x3e10b1ce	0.14130327
37	0xbe0cf9cc	-0.13767165
38	0xbd41f178	-0.047349423
39	0xbd84eb2c	-0.06490168
40	0xbe7f6f26	-0.24944744
41	0xbdbd03cc	-0.0922924
42	0x3dc7e180	0.097598076
43	0xbe47dd4a	-0.19518009
44	0xbe66bace	-0.22532198
45	0xbd0c9ee8	-0.034331232
46	0x3e3d79d4	0.18503505
47	0x3dc9e528	0.09858161
48	0xbc732cc0	-0.014842212
49	0x3e4fddb4	0.20299417
50	0x3c7b6620	0.015344173
51	0x3e7c1f3e	0.24621293
52	0x3e482892	0.19546726
53	0xbe3ebfc0	-0.18627834
54	0xbe75e50e	-0.24013159
55	0xbb626e80	-0.0034550726
56	0xbe59ff32	-0.21288756
57	0x3dc79958	0.09746045
58	0x3e13ba0c	0.1442644
59	0xbde3ca9c	-0.11122629
60	0x3e223b18	0.15842855
61	0xbe42217e	-0.18958089
62	0x3e69ef28	0.22845137
63	0x3e486f9c	0.19573826
64	0x3e553072	0.20819262
65	0x3c838d40	0.016058564
66	0x3e72c886	0.23709306
67	0x3e201894	0.15634376
68	0xbe08d894	-0.13363868
69	0x3c198220	0.009369403
70	0xbd8980c0	-0.0671401
71	0x3e6a91ec	0.22907227
72	0xbe6ed2e6	-0.23322639
73	0xbe3ffbd0	-0.18748403
74	0x3ce16de0	0.027518213
75	0x3dee2a94	0.11629215
76	0x3e6622b0	0.2247417
77	0x3e628f36	0.22124943
78	0xbca6d1f0	-0.020363778
79	0xbe28e3ea	-0.16493192
80	0x3e119796	0.14217982
81	0x3cf882f0	0.030335873
82	0xbe19fba8	-0.15037405
83	0x3c9e1010	0.019294769
84	0xbe015990	-0.12631822
85	0x3ddf5818	0.109054744
86	0xbdd66140	-0.10467768
87	0x3e61f624	0.22066551
88	0xbd0946a8	-0.03351465
89	0x3d8f8ccc	0.07009277
90	0xbc22fa80	-0.009947419
91	0xbcbc3ca0	-0.022978127
92	0xbddb297c	-0.10701272
93	0x3d963c34	0.073357016
94	0xbe56d302	-0.2097893
95	0x3ade2f00	0.0016951263
96	0x3de28a8c	0.11061582
97	0x3e398cee	0.18120167
98	0x3e3c609c	0.18396229
99	0xbe65028a	-0.2236425
100	0xbb9a7740	-0.0047139227
101	0x3e11ffaa	0.14257684
102	0x3e5f4e30	0.2180717
103	0xbe25d6a6	-0.16195163
104	0x3e505784	0.20345885
105	0x3dab06ac	0.08350882
106	0x3e11d4e4	0.14241368
107	0xbd4d50c8	-0.050125867
108	0x3e6ddf80	0.2322979
109	0x3d867f80	0.065672874
110	0xbe1a3870	-0.15060592
111	0x3d8691d8	0.06570786
112	0xbbd68740	-0.006546885
113	0x3c8ddb40	0.01731646
114	0xbdd498c8	-0.10380703
115	0xbdfa8000	-0.12231445
116	0xbe6f7e04	-0.23387915
117	0xbe345040	-0.17608738
118	0xbe2066dc	-0.15664238
119	0x3e0062a0	0.12537622
120	0x3e4cbb5a	0.19993344
121	0x3c901e10	0.01759246
122	0x3dbdd244	0.092686206
123	0x3e5e4392	0.21705464
124	0x3e42e35c	0.19032043
125	0x3e25ca4c	0.16190451
126	0xbce9ceb0	-0.02854094
127	0x3df68fe0	0.12039161
128	0x3e72af10	0.23699594
129	0x3e74b26a	0.23896185
130	0xbd6db630	-0.058035076
131	0x3e1e582a	0.1546332
132	0xbdd48c38	-0.10378307
133	0xbe44773a	-0.19186106
134	0xbe01edec	-0.12688416
135	0xbe7a32d4	-0.24433452
136	0x3c758420	0.014985114
137	0xbe6c0216	-0.2304767
138	0x3e418e2c	0.1890189
139	0xbe2216e2	-0.15829042
140	0xbe4d757a	-0.20064345
141	0x3ce39050	0.027778774
142	0xbc758f40	-0.014987767
143	0x3e265c62	0.16246179
144	0x3e54123a	0.20710078
145	0x3e521680	0.20516396
146	0xbe0b2c58	-0.13591135
147	0xbca37330	-0.019952387
148	0xbe283866	-0.16427764
149	0x3e6384f8	0.22218692
150	0x3e4572e4	0.19282109
151	0xbe6fae32	-0.23406294
152	0x3e794760	0.24343634
153	0xbd54aed0	-0.051924527
154	0x3c82bb20	0.015958369
155	0x3e1dccd0	0.15410161
156	0x3d89d2d0	0.067296624
157	0xbe65be7e	-0.22435948
158	0x3e0f9320	0.14020967
159	0x3e71cc00	0.23612976
160	0xbe7a0bb0	-0.24418521
161	0x3d3a6d48	0.045514375
162	0xbe4b586a	-0.19857946
163	0xbdf0188c	-0.11723432
164	0xbe12b61c	-0.14327282
165	0x3e77a7de	0.2418513
166	0xbd8b48e8	-0.06801015
167	0xbdb8d6c8	-0.09025341
168	0xbd380680	-0.044928074
169	0x3e2f0446	0.17091474
170	0x3e129a72	0.14316729
171	0x3da8ea00	0.08247757
172	0x3d544cc0	0.051831007
173	0x3ca6e460	0.02037257
174	0x3e536d5e	0.20647189
175	0x3d93fb94	0.07225719
176	0x3d465400	0.048419952
177	0x3e575f5a	0.21032467
178	0x3e03c144	0.12866694
179	0x3dc5f2fc	0.09665486
180	0xbd9e2448	-0.07721764
181	0xbe10da8e	-0.14145872
182	0x3d7cb108	0.061692268
183	0xbe407a1a	-0.18796578
184	0x3cc2a740	0.023761392
185	0xbe712576	-0.23549446
186	0x3d2420a0	0.040070176
187	0x3e20c414	0.15699798
188	0x3e59600e	0.21228048
189	0xbe22345e	-0.15840289
190	0x3d7d1f68	0.06179753
191	0x3e58cc06	0.21171579
192	0xbdb7c820	-0.08973718
193	0x3e171408	0.14753735
194	0x3e38ed82	0.18059352
195	0x3e25f6f6	0.1620749
196	0x3d31f8b8	0.043450087
197	0xbd5ad2d8	-0.053423733
198	0x3e0b10a8	0.13580573
199	0xbdc9457c	-0.09827706
200	0xbc862880	-0.016376734
201	0xbd2781a0	-0.040895104
202	0x3e74e102	0.23913959
203	0xbe152c1c	-0.14567608
204	0x3e17bb76	0.14817604
205	0xbbfdf4c0	-0.0077501237
206	0x3e7c8746	0.24660978
207	0x3d856a78	0.06514448
208	0x3ca92970	0.020649642
209	0x3e5e52b2	0.21711233
210	0x3e79bf7e	0.24389455
211	0x3dba774c	0.09104785
212	0x3e5ac6a8	0.21364844
213	0x3e171d9e	0.14757392
214	0x3dae9bfc	0.085258454
215	0xbe286f2c	-0.16448659
216	0x3e4336c8	0.19063866
217	0x3e54db16	0.207867
218	0xbd9e3d5c	-0.07726547
219	0xbdff1384	-0.12454894
220	0x3ccbefa0	0.024894536
221	0x3db838bc	0.08995196
222	0xbe20058c	-0.15627116
223	0x3d750e68	0.059828192
224	0x3e0a05ec	0.13478822
225	0xbe0a865e	-0.1352782
226	0x3e4908f8	0.19632328
227	0x3e6664b0	0.22499347
228	0x3e131dbc	0.14366812
229	0x3e1966b4	0.14980584
230	0xbe483e86	-0.19555101
231	0xbe58fabe	-0.211894
232	0x3cd1cf20	0.02561146
233	0x3e45db94	0.19322044
234	0xbe65c01c	-0.22436565
235	0xbdd2fe8c	-0.10302457
236	0xbe371012	-0.17877224
237	0xbe22b4d8	-0.15889299
238	0x3e128daa	0.14311853
239	0xbc0edee0	-0.00872013
240	0x3e322aac	0.1739909
241	0xbe4201d8	-0.18946016
242	0xbdd161dc	-0.10223743
243	0x3cce73c0	0.025201678
244	0x3e0ed60e	0.13948843
245	0x3d8febac	0.07027373
246	0xbcad4770	-0.021152228
247	0xbe103e38	-0.14086235
248	0xbe394f98	-0.18096769
249	0xbd26d3b0	-0.040729225
250	0x3d26da38	0.040735453
251	0xbe5e0302	-0.21680835
252	0xbe14c95c	-0.14529938
253	0x3e5d3190	0.21600938
254	0x3dcc3c44	0.09972432
255	0xbd07a8b8	-0.033119887

sparse_weighted_adjacency_matrices.pair_attention.edge_query.bias f4 [16]
0	0x3e337d00	0.17528152
1	0xbda34838	-0.07972759
2	0xbde0582c	-0.109543175
3	0x3e7adf2c	0.24499196
4	0x3ce94300	0.02847433
5	0xbe70c066	-0.23510894
6	0xbe6c3fb0	-0.2307117
7	0xbe4fb2fc	-0.20283121
8	0x3e757660	0.23970938
9	0xbe534680	-0.20632362
10	0xbd91a094	-0.07110706
11	0x3d17e9d0	0.037088215
12	0x3b8c0380	0.004272878
13	0xbc77d640	-0.015126765
14	0x3e76fc3c	0.24119657
15	0x3ded51b8	0.11587852

sparse_weighted_adjacency_matrices.pair_attention.edge_key.weight f4 [16, 16]
0	0x3cc5e310	0.024156123
1	0xbe70a6e8	-0.2350117
2	0x3e20835e	0.15675113
3	0xbe2d19ac	-0.16904324
4	0x3c07cca0	0.0082885325
5	0xbe75d8fa	-0.24008551
6	0xbb0bb980	-0.0021320283
7	0xbd71af10	-0.059004843
8	0x3e7de7e4	0.2479549
9	0x3e1428be	0.14468667
10	0xbe3d2e32	-0.18474653
11	0x3e5e55f0	0.2171247
12	0x3dcd1fd4	0.10015836
13	0x3e3d2804	0.18472296
14	0x3e7a9506	0.2447091
15	0xbe292332	-0.16517332
16	0x3e64fef8	0.22362888
17	0xbdf934a4	-0.121682435
18	0xbe4fdb8c	-0.20298594
19	0xbb268180	-0.0025406778
20	0xbe4d7632	-0.20064619
21	0x3d5438a0	0.051811814
22	0x3e7c3312	0.24628857
23	0xbe385f24	-0.18005043
24	0xbe629f14	-0.22130996
25	0x3dca7338	0.098852575
26	0x3e2d6f24	0.16936928
27	0x3e7511e2	0.23932603
28	0xbd1bdbf8	-0.038051575
29	0xbe072304	-0.13196951
30	0xbb811700	-0.0039395094
31	0xbdceb578	-0.10093206
32	0x3d83aa30	0.06428945
33	0x3d0a2380	0.03372526
34	0xbe7b0410	-0.24513268
35	0x3bc426c0	0.0059860647
36	0xbcecd2f0	-0.028909177
37	0x3d97fa1c	0.074207515
38	0x3e364fd0	0.17803884
39	0xbe293fda	-0.16528264
40	0xbdfa7294	-0.12228885
41	0x3e793e34	0.24340135
42	0xbde83dbc	-0.113399
43	0x3dda7c50	0.10668242
44	0xbe5d0c2e	-0.21586677
45	0xbe4139ca	-0.18869701
46	0x3ca65c10	0.02030757
47	0xbd9947f0	-0.07484424
48	0xbcdefce0	-0.02722019
49	0x3e0493ca	0.12947002
50	0x3e165cbe	0.14683816
51	0xbd41b648	-0.047292978
52	0x3d17fa30	0.03710383
53	0x3e6606b6	0.22463498
54	0x3d1fb648	0.038992196
55	0x3dfe41d4	0.124148995
56	0x3de7bafc	0.11314961
57	0x3e0a96f2	0.13534144
58	0x3e3247a6	0.17410144
59	0x3cd77cd0	0.026304632
60	0x3db3f274	0.08786479
61	0xbe17cc50	-0.14824033
62	0x3e6d7a8e	0.23191282
63	0x3e542ea0	0.20720911
64	0x3cd4a170	0.025955886
65	0xbe652314	-0.22376662
66	0xbe367dda	-0.17821446
67	0xbe456b2c	-0.19279164
68	0x3dc06db4	0.09395924
69	0xbe77d224	-0.24201256
70	0xbe012678	-0.12612331
71	0x3e7d5790	0.24740434
72	0xbd39da90	-0.045374453
73	0x3afc0300	0.0019226968
74	0xbe46dd32	-0.19420317
75	0x3de4b140	0.1116662
76	0x3df6aaa4	0.12044266
77	0x3dd840e8	0.10559255
78	0xbdc5ccf8	-0.09658235
79	0xbd8132b8	-0.06308502
80	0x3ddc4504	0.10755351
81	0xbe722bec	-0.23649567
82	0xbe2eb474	-0.17061025
83	0xbc2b8840	-0.010469496
84	0xbe3d78a4	-0.18503052
85	0xbd3a7780	-0.04552412
86	0xbe0c6ee6	-0.1371418
87	0x3dff0ef4	0.12454024
88	0x3d5d4348	0.054019243
89	0xbdc34980	-0.095355034
90	0xbd5aa910	-0.053383887
91	0xbe3e4cc2	-0.18583968
92	0x3e59cc2e	0.21269295
93	0x3dd971d4	0.10617414
94	0xbda76d60	-0.081751585
95	0x3dba8748	0.09107834
96	0xbdefe40c	-0.11713418
97	0xbe545630	-0.20736003
98	0xbe6ea224	-0.23304039
99	0x3d8a9f30	0.06768644
100	0x3e5386ce	0.20656893
101	0xbd98b618	-0.074566066
102	0xbd37ab90	-0.04484135
103	0xbe2f9420	-0.17146349
104	0xbe4f9bb6	-0.20274243
105	0x3d82add4	0.06380811
106	0xbe354eca	-0.17705837
107	0xbe3fa3a4	-0.18714768
108	0xbe78d728	-0.24300826
109	0xbe3f72ce	-0.18696138
110	0xbe7d2024	-0.24719292
111	0xbdaffe78	-0.08593458
112	0xbc5fa9c0	-0.013651311
113	0xbd0258e0	-0.03182304
114	0x3d79eb58	0.061015457
115	0xbdeb6534	-0.11493912
116	0x3e4762fe	0.19471356
117	0xbe5b6d54	-0.21428424
118	0x3e76cb14	0.24100906
119	0xbd828758	-0.06373471
120	0x3d88c294	0.06677738
121	0x3ddc9cd4	0.107721
122	0xbe32796c	-0.17429131
123	0xbe093c92	-0.13402012
124	0x3e3d34b8	0.18477142
125	0xbde87c68	-0.113518536
126	0x3e1296e0	0.14315367
127	0xbe01c85e	-0.1267409
128	0xbe0344e0	-0.12819242
129	0xbe563ba8	-0.20921195
130	0xbd769020	-0.060196042
131	0xbd8939f4	-0.06700507
132	0x3e7b1bd0	0.24522328
133	0x3dd744d8	0.10511178
134	0x3e49bec6	0.1970168
135	0x3e4f4afe	0.20243451
136	0xbca7dcf0	-0.020491093
137	0x3d4c8fb8	0.04994175
138	0xbe558ef0	-0.20855308
139	0x3e0e8944	0.1391955
140	0x3d7fe0b8	0.062470168
141	0xbe2f28b8	-0.17105377
142	0xbd0dc3a0	-0.03461039
143	0x3cf72a70	0.030171603
144	0xbe027306	-0.1273919
145	0x3d8789f4	0.06618109
146	0xbe5cc84c	-0.21560782
147	0x3db9df54	0.090757996
148	0xbd851468	-0.06498033
149	0xbe7f8844	-0.24954325
150	0x3e42d014	0.19024688
151	0x3dac2b6c	0.084067196
152	0xbe5c40aa	-0.21509042
153	0xbdacac0c	-0.08431253
154	0xbe41230c	-0.18861026
155	0xbdf119c0	-0.117724895
156	0xbe276ea6	-0.16350803
157	0x3bc65ec0	0.0060537755
158	0xbb939e00	-0.004504919
159	0xbdbab500	-0.09116554
160	0x3e65e69e	0.22451255
161	0x3d180178	0.037110776
162	0xbe73797e	-0.23776814
163	0x3c17ff40	0.009277165
164	0xbd695df8	-0.05697438
165	0x3e0afb3e	0.13572404
166	0x3c9abfe0	0.018890321
167	0xbe3056ea	-0.17220655
168	0x3d78e398	0.060763925
169	0xbe2772ba	-0.16352358
170	0x3e359a84	0.17734724
171	0x3d2a73c8	0.041614324
172	0x3e215a32	0.15757063
173	0x3c98e210	0.018662483
174	0xbda85bfc	-0.082206696
175	0xbe6a2410	-0.22865319
176	0x3b224980	0.0024763048
177	0x3e2efee8	0.17089427
178	0x3e5b0be8	0.2139126
179	0xbd9cf69c	-0.076642245
180	0xbd0650c0	-0.032791853
181	0x3e5c96d6	0.21541914
182	0x3e48c78c	0.19607371
183	0x3e30e5b2	0.17275122
184	0xbb13d980	-0.002256006
185	0x3e3ee314	0.18641311
186	0x3dde66ec	0.108594745
187	0x3e1fc3fc	0.15602106
188	0xbde5380c	-0.11192331
189	0xbd7d8fc8	-0.0619047
190	0x3dc53038	0.096283376
191	0x3d31da10	0.04342085
192	0xbe6dc3d4	-0.23219234
193	0x3e2ceca0	0.1688714
194	0xbe4704d4	-0.19435436
195	0xbe19f4f4	-0.15034848
196	0x3e249aca	0.16074672
197	0x3e5124a0	0.20424128
198	0xbc983680	-0.018580675
199	0x3e167336	0.14692387
200	0x3df6ec30	0.12056768
201	0x3e281848	0.16415513
202	0x3d289568	0.04115811
203	0xbb3b2f80	-0.0028562248
204	0xbe42223c	-0.18958372
205	0x3e0260dc	0.12732261
206	0xbe081cdc	-0.13292259
207	0x3e4f64ea	0.2025334
208	0xbe4dfe68	-0.2011658
209	0x3e2d519e	0.16925666
210	0x3e0a5e82	0.13512614
211	0xbd2cafa8	-0.042159706
212	0x3c194b40	0.00935632
213	0x3e0e1b5c	0.13877624
214	0x3e01f822	0.12692311
215	0xbd45f830	-0.048332393
216	0x3e4f582c	0.20248479
217	0xbe3bd9b0	-0.1834476
218	0x3e33479a	0.17507783
219	0x3b9bd980	0.0047561526
220	0xbd74ee28	-0.059797436
221	0xbd246330	-0.040133655
222	0x3e42f6f2	0.19039515
223	0x3e6024b6	0.21889004
224	0xbe49dea0	-0.19713831
225	0x3df46660	0.11933589
226	0xbd0a1210	-0.033708632
227	0xbc132e20	-0.008983165
228	0xbdf40208	-0.1191445
229	0xbcc6f350	-0.024285942
230	0x3e7cd3c6	0.2469016
231	0x3e3c410a	0.18384185
232	0x3e566fa6	0.20941028
233	0xbe0573dc	-0.13032478
234	0xbe01d526	-0.12678966
235	0x3e703b42	0.23460105
236	0x3e22e4c0	0.15907574
237	0x3deb997c	0.11503884
238	0xbb2ae080	-0.0026073754
239	0xbdd47600	-0.10374069
240	0xbb83f700	-0.0040272474
241	0xbd46a950	-0.048501313
242	0x3e22d80e	0.15902731
243	0xbe56ffa2	-0.20995954
244	0x3ca52ad0	0.020162016
245	0xbd853834	-0.065048605
246	0x3bf26a00	0.00739789
247	0x3e6f29fa	0.23355857
248	0x3ca43350	0.020043999
249	0x3e6dd4d2	0.23225716
250	0x3dfc6ffc	0.12326047
251	0x3c2d47a0	0.010576159
252	0xbe453226	-0.19257411
253	0x3e23dc94	0.16002113
254	0x3df9384c	0.12168941
255	0x3e160a72	0.14652422

sparse_weighted_adjacency_matrices.pair_attention.edge_key.bias f4 [16]
0	0x3cf86e60	0.030326068
1	0xbdf37a08	-0.1188851
2	0xbc0542c0	-0.00813359
3	0x3e689cb8	0.22716033
4	0xbe410eac	-0.18853253
5	0xbe57eee2	-0.2108722
6	0x3e102878	0.14077938
7	0x3dc70d98	0.0971939
8	0xbe44c6aa	-0.1921641
9	0x3b29a580	0.0025886
10	0xbe37ca42	-0.17948249
11	0x3d7bac88	0.061443835
12	0x3d0c0d40	0.034192324
13	0x3e715abe	0.23569772
14	0x3dfbaec4	0.12289193
15	0x3e392cee	0.18083546

sparse_weighted_adjacency_matrices.group_attention.embedding.weight f4 [64, 2]
0	0x800091f5	-5.236e-41
1	0x00008915	4.9176e-41
2	0x0000a824	6.0317e-41
3	0x00008970	4.9303e-41
4	0x80008961	-4.9282e-41
5	0x800088f8	-4.9135e-41
6	0x000088db	4.9094e-41
7	0x80008a96	-4.9715e-41
8	0x00009ebd	5.6945e-41
9	0x000088bc	4.9051e-41
10	0x80008b22	-4.9911e-41
11	0x00008a3a	4.9586e-41
12	0x80008a16	-4.9536e-41
13	0x8000a37b	-5.8646e-41
14	0x800089a5	-4.9378e-41
15	0x80008ac2	-4.9777e-41
16	0x80008e61	-5.1076e-41
17	0x00008939	4.9226e-41
18	0x00008956	4.9267e-41
19	0x80008be0	-5.0178e-41
20	0x80008b92	-5.0068e-41
21	0x80008bcf	-5.0154e-41
22	0x00008c31	5.0291e-41
23	0x00008b26	4.9917e-41
24	0x800088e8	-4.9113e-41
25	0x00008df3	5.0922e-41
26	0x0000891e	4.9188e-41
27	0x00008a30	4.9572e-41
28	0x80008acb	-4.979e-41
29	0x00008d79	5.0751e-41
30	0x80008a37	-4.9582e-41
31	0x00008acf	4.9795e-41
32	0x00008957	4.9268e-41
33	0x0000a783	6.0092e-41
34	0x8000910b	-5.2032e-41
35	0x80008c13	-5.0249e-41
36	0x80008ad3	-4.9801e-41
37	0x80008b32	-4.9934e-41
38	0x8000898d	-4.9344e-41
39	0x80008a0b	-4.952e-41
40	0x0000ac99	6.1916e-41
41	0x800088dd	-4.9097e-41
42	0x80008996	-4.9357e-41
43	0x00008a6f	4.966e-41
44	0x800097c8	-5.4449e-41
45	0x00008aca	4.9788e-41
46	0x00008925	4.9198e-41
47	0x80008c4e	-5.0332e-41
48	0x80009177	-5.2183e-41
49	0x80009a13	-5.5271e-41
50	0x80008c5c	-5.0351e-41
51	0x8000896e	-4.93e-41
52	0x000088d8	4.909e-41
53	0x00008b47	4.9963e-41
54	0x80008a0a	-4.9519e-41
55	0x80008978	-4.9314e-41
56	0x0000ac2d	6.1765e-41
57	0x80009cf1	-5.63e-41
58	0x00008cef	5.0557e-41
59	0x80008bce	-5.0152e-41
60	0x00008b00	4.9864e-41
61	0x000088f8	4.9135e-41
62	0x0000a442	5.8925e-41
63	0x00008b52	4.9979e-41
64	0x80008c37	-5.03e-41
65	0x00008d45	5.0678e-41
66	0x00008966	4.9289e-41
67	0x80008b22	-4.9911e-41
68	0x00008a37	4.9582e-41
69	0x800088f4	-4.913e-41
70	0x8000899a	-4.9362e-41
71	0x80008f8e	-5.1498e-41
72	0x00008c23	5.0272e-41
73	0x800088df	-4.91e-41
74	0x00008f2f	5.1365e-41
75	0x00008a04	4.951e-41
76	0x80009bad	-5.5846e-41
77	0x80008e40	-5.103e-41
78	0x80008c60	-5.0357e-41
79	0x00009d8e	5.652e-41
80	0x0000896d	4.9299e-41
81	0x00008a53	4.9621e-41
82	0x00008d56	5.0702e-41
83	0x0000949f	5.3315e-41
84	0x0000899b	4.9364e-41
85	0x00008d2b	5.0642e-41
86	0x80009a24	-5.5295e-41
87	0x80008aa4	-4.9735e-41
88	0x00008c28	5.0279e-41
89	0x80008b1f	-4.9907e-41
90	0x00008ad7	4.9806e-41
91	0x8000898a	-4.934e-41
92	0x80008937	-4.9223e-41
93	0x000089c0	4.9415e-41
94	0x80008d6a	-5.073e-41
95	0x800088f8	-4.9135e-41
96	0x0000902a	5.1716e-41
97	0x0000894f	4.9257e-41
98	0x800088e6	-4.911e-41
99	0x800089a2	-4.9373e-41
100	0x00008ae8	4.983e-41
101	0x80008b62	-5.0001e-41
102	0x800099f0	-5.5222e-41
103	0x00008b6a	5.0012e-41
104	0x8000a090	-5.7599e-41
105	0x80008b01	-4.9865e-41
106	0x80008984	-4.9331e-41
107	0x000089fc	4.95e-41
108	0x0000906f	5.1813e-41
109	0x80008e48	-5.1041e-41
110	0x00009123	5.2065e-41
111	0x000088be	4.9054e-41
112	0x8000896c	-4.9298e-41
113	0x000091fe	5.2372e-41
114	0x00008960	4.9281e-41
115	0x80009fe5	-5.736e-41
116	0x80008a55	-4.9624e-41
117	0x80008aae	-4.9749e-41
118	0x00020ade	1.8757e-40
119	0x00008c7c	5.0396e-41
120	0x00008b05	4.9871e-41
121	0x00008fa0	5.1523e-41
122	0x800088bd	-4.9052e-41
123	0x00008c35	5.0297e-41
124	0x00008985	4.9333e-41
125	0x00008acf	4.9795e-41
126	0x80008d48	-5.0682e-41
127	0x0000955f	5.3584e-41

sparse_weighted_adjacency_matrices.group_attention.embedding.bias f4 [64]
0	0x800088f1	-4.9125e-41
1	0x00009ce6	5.6285e-41
2	0x80008a1c	-4.9544e-41
3	0x00008b08	4.9875e-41
4	0x00009bda	5.5909e-41
5	0x00008cae	5.0466e-41
6	0x80009511	-5.3475e-41
7	0x80008ba5	-5.0095e-41
8	0x000089c2	4.9418e-41
9	0x80008aa6	-4.9738e-41
10	0x80008a13	-4.9532e-41
11	0x00008e3b	5.1023e-41
12	0x00008a71	4.9663e-41
13	0x00008a27	4.956e-41
14	0x00008fe4	5.1618e-41
15	0x8000a0a1	-5.7623e-41
16	0x80008907	-4.9156e-41
17	0x8000a90c	-6.0643e-41
18	0x8000907c	-5.1831e-41
19	0x000089ad	4.9389e-41
20	0x00008b2b	4.9924e-41
21	0x80008baf	-5.0109e-41
22	0x80008be9	-5.019e-41
23	0x0000aaf4	6.1326e-41
24	0x8000899c	-4.9365e-41
25	0x00008934	4.9219e-41
26	0x0000900d	5.1676e-41
27	0x0000a62e	5.9614e-41
28	0x00008b2c	4.9925e-41
29	0x000096f0	5.4146e-41
30	0x00003340	1.8385e-41
31	0x000089e3	4.9464e-41
32	0x00008a61	4.9641e-41
33	0x00008a7f	4.9683e-41
34	0x00008a37	4.9582e-41
35	0x80008b3b	-4.9946e-41
36	0x8000894f	-4.9257e-41
37	0x8000978d	-5.4366e-41
38	0x80008971	-4.9305e-41
39	0x80008a1c	-4.9544e-41
40	0x80008b0e	-4.9883e-41
41	0x800088c5	-4.9064e-41
42	0x00008d5f	5.0714e-41
43	0x00008933	4.9218e-41
44	0x00008e11	5.0964e-41
45	0x8000aab3	-6.1235e-41
46	0x80008917	-4.9179e-41
47	0x800089ed	-4.9478e-41
48	0x00008da9	5.0818e-41
49	0x80008b34	-4.9937e-41
50	0x0000951a	5.3488e-41
51	0x80008b50	-4.9976e-41
52	0x000088f7	4.9134e-41
53	0x80008b0f	-4.9885e-41
54	0x800094c4	-5.3367e-41
55	0x00008a68	4.9651e-41
56	0x80008d07	-5.0591e-41
57	0x8000948c	-5.3289e-41
58	0x800089a3	-4.9375e-41
59	0x8000ae8b	-6.2614e-41
60	0x80008bab	-5.0103e-41
61	0x0000897c	4.932e-41
62	0x000094c0	5.3361e-41
63	0x80009a0f	-5.5266e-41
