checkpoints/GHGNN/univ/val_best.pth (torch, 128786 bytes, 58 tensors)

sparse_weighted_adjacency_matrices.edge_inital.x_embedding.weight f4 [16, 2]
0	0x30d6729c	1.5603123e-09
1	0x30d294db	1.5321818e-09
2	0x3a6496fd	0.0008720009
3	0x39a13261	0.00030745848
4	0xb9601d0f	-0.0002137313
5	0xb918a56a	-0.00014557471
6	0xb6bf383f	-5.6987915e-06
7	0x357aa0ff	9.336654e-07
8	0x3874de9c	5.8381454e-05
9	0xb65e315a	-3.3109304e-06
10	0xb7f6c802	-2.9418621e-05
11	0x37b260c2	2.126431e-05
12	0x3a654cb4	0.00087470864
13	0x3a1b2eb6	0.0005919741
14	0x39481cce	0.00019084217
15	0x38526c7c	5.0168936e-05
16	0x36130320	2.1906526e-06
17	0x37a0ac70	1.9153784e-05
18	0x39f34aa2	0.00046404178
19	0x39b8ea5e	0.00035269832
20	0xb7ea09cb	-2.7899534e-05
21	0x390ed212	0.00013620433
22	0x39ca92ec	0.00038637908
23	0x3935d38e	0.00017340315
24	0xba66e33b	-0.00088076637
25	0xb9ab7a9b	-0.0003270701
26	0x3375465f	5.710751e-08
27	0xb2acd78e	-2.0121458e-08
28	0x3a59a3f3	0.00083023234
29	0x39b5eb3c	0.00034698274
30	0xb8c54fca	-9.408554e-05
31	0x38b79df9	8.755545e-05

sparse_weighted_adjacency_matrices.edge_inital.x_embedding.bias f4 [16]
0	0xb2245e42	-9.567488e-09
1	0xbb64f2bb	-0.0034934718
2	0x3a76efae	0.00094198703
3	0xb6c2be40	-5.8037986e-06
4	0xb94b5958	-0.00019392872
5	0xb7c68188	-2.3663757e-05
6	0xbb8d86f2	-0.0043190653
7	0xb9a1ac30	-0.00030836603
8	0xb75918a2	-1.2939943e-05
9	0xbb00a38b	-0.001962873
10	0xb86fa043	-5.7131296e-05
11	0x388d37f6	6.7338275e-05
12	0x3bac374e	0.0052556163
13	0x33fc8f88	1.17607726e-07
14	0xbbace59b	-0.0052763945
15	0xb8da83a6	-0.000104195715

sparse_weighted_adjacency_matrices.edge_inital.edge_embedding.weight f4 [16, 16]
0	0xb1a007df	-4.6575077e-09
1	0xbb6cd9b5	-0.0036140506
2	0x3b34f37f	0.0027610955
3	0xb8427f53	-4.6371784e-05
4	0x3b066391	0.0020506124
5	0xba37ffa5	-0.000701899
6	0xbb907646	-0.0044086305
7	0xba26f47c	-0.00063688285
8	0xba267ed0	-0.0006351294
9	0xbc3b2f27	-0.011424816
10	0xba554669	-0.0008135797
11	0xbc26ed20	-0.010188371
12	0xba09c423	-0.0005255362
13	0x337b6e9c	5.854109e-08
14	0xbabd5fd0	-0.001444811
15	0xbb04072c	-0.0020145876
16	0x30859d0a	9.721657e-10
17	0x3aab4f57	0.001306991
18	0xb9d2a9a0	-0.00040180702
19	0x3705f2a0	7.983908e-06
20	0x391484a8	0.00014163798
21	0x36958d39	4.4569865e-06
22	0x3ad3793e	0.0016134155
23	0x392600be	0.0001583127
24	0xb732ed24	-1.066484e-05
25	0x3a373dca	0.0006990103
26	0x37f8c3b0	2.9655028e-05
27	0xb967aaa3	-0.00022093444
28	0xbacc395f	-0.0015581063
29	0x324872fe	1.1667678e-08
30	0x3ac7ecd5	0.0015253077
31	0x39058a43	0.00012735375
32	0xaf0697d7	-1.2241173e-10
33	0x391ebadc	0.00015137665
34	0xb7ba5a4d	-2.2214977e-05
35	0x364fed33	3.0983472e-06
36	0x38016d90	3.0858035e-05
37	0xb786c1bb	-1.6064258e-05
38	0x3a09dddc	0.0005259195
39	0xb60bac77	-2.0813002e-06
40	0xb33a92d4	-4.344004e-08
41	0x38a39623	7.800411e-05
42	0x389e5e91	7.5516415e-05
43	0xb9b3c437	-0.00034287732
44	0xb8cf8379	-9.895018e-05
45	0x303c2ce3	6.845779e-10
46	0x3a10399c	0.00055017485
47	0x388c7587	6.6976114e-05
48	0xb0f9c656	-1.8173505e-09
49	0x3a14e8a3	0.00056804175
50	0xb89cd8a4	-7.479012e-05
51	0xb7b49ab3	-2.152971e-05
52	0x39281669	0.00016030077
53	0xb9ab13e2	-0.00032630475
54	0x3a3f7a54	0.00073043
55	0x3908cfcc	0.00013047381
56	0xb80e15a6	-3.38756e-05
57	0xb848453a	-4.7748188e-05
58	0xba31f79f	-0.00067889126
59	0xbb38cd23	-0.0028198443
60	0xb99a3b09	-0.00029417154
61	0xadbf0102	-2.1714634e-11
62	0xb9d89061	-0.000413063
63	0xba2ee3fe	-0.0006671547
64	0xb005a10d	-4.8613985e-10
65	0x393918aa	0.00017652163
66	0xb86dfd10	-5.6740886e-05
67	0x36654e50	3.4169243e-06
68	0x380ae795	3.311744e-05
69	0x380acab9	3.3090564e-05
70	0x39c5df43	0.0003774111
71	0x37e01224	2.6711328e-05
72	0x36c69f68	5.919417e-06
73	0x395cf966	0.00021073743
74	0x38499ab7	4.8066224e-05
75	0xb9c39655	-0.00037305304
76	0xb93ad385	-0.0001781714
77	0x331d8e25	3.668369e-08
78	0x39b12a2a	0.00033791485
79	0x391f59c3	0.0001519686
80	0xac331388	-2.5448272e-12
81	0x3a24c18f	0.0006284946
82	0xb9923596	-0.00027887215
83	0xb91eaf7a	-0.00015133424
84	0x3a55c451	0.00081545586
85	0xba17785c	-0.0005778128
86	0x39b39ee2	0.00034259917
87	0x35d621c4	1.595407e-06
88	0xb8ab39cc	-8.164681e-05
89	0xba8fbbbc	-0.0010965983
90	0xbbacd2ce	-0.0052741533
91	0x3b2597b5	0.0025267426
92	0xb81947cd	-3.6544912e-05
93	0x2eff0306	1.15965945e-10
94	0x3b03ce0d	0.002011183
95	0xb9b9ca70	-0.00035436777
96	0x332de4c4	4.0487762e-08
97	0x3a81cd7a	0.0009903156
98	0xb6ae76da	-5.1994402e-06
99	0x3a0a114b	0.0005266859
100	0xba46e8da	-0.0007587798
101	0xbad76199	-0.0016432285
102	0x3bc02d14	0.0058647487
103	0xb8f5ef69	-0.00011727104
104	0xb9e35001	-0.00043356422
105	0xbb1ce112	-0.0023937863
106	0xba307e6c	-0.00067327055
107	0x3c46916c	0.012119632
108	0x3b4c2a3b	0.00311531
109	0x31a25e20	4.7255213e-09
110	0x3bad43af	0.0052876095
111	0xbb901aaa	-0.00439771
112	0x2dce4792	2.3451272e-11
113	0x3713aeae	8.802554e-06
114	0xb6f94ba2	-7.429583e-06
115	0xb6e3664b	-6.7770357e-06
116	0xb6d698e1	-6.3954944e-06
117	0x39029cf6	0.00012456239
118	0x37cd6717	2.448591e-05
119	0xb4daef10	-4.0779605e-07
120	0x3703a3bc	7.846331e-06
121	0x39c31513	0.00037209
122	0x39fbf1a5	0.0004805449
123	0x399c263e	0.0002978313
124	0xb8d49313	-0.000101363425
125	0xb04c7b2e	-7.4389817e-10
126	0x398b44ed	0.000265635
127	0xb784a03e	-1.5810245e-05
128	0x3131fe4b	2.5901439e-09
129	0xba94b4d4	-0.0011345395
130	0x391b98f5	0.00014838933
131	0xb93d6394	-0.0001806154
132	0xb847ddd2	-4.7651884e-05
133	0x3aadd9f8	0.0013263812
134	0xbb2f52a6	-0.0026752143
135	0xb88596ee	-6.370047e-05
136	0xb8a0902d	-7.656249e-05
137	0x3a66287c	0.00087798364
138	0xbaa2932c	-0.001240348
139	0x3b9b1e9e	0.0047338745
140	0x3a8f6b23	0.0010941963
141	0x2faeb31f	3.177769e-10
142	0x3a61e634	0.0008617372
143	0xbae10e75	-0.0017170446
144	0x2d503a98	1.18364415e-11
145	0x38a8dbb1	8.051785e-05
146	0xb8e7ad1f	-0.00011047185
147	0xb880f33c	-6.1488216e-05
148	0xb78b009e	-1.6570379e-05
149	0x3a4eabfd	0.00078839046
150	0x3b04b084	0.0020246813
151	0x36f5ccb4	7.3253996e-06
152	0x39390b53	0.00017647193
153	0x3a50344e	0.00079423643
154	0x3abc23fa	0.0014353984
155	0x3ad202e6	0.0016022592
156	0xba1a3f8e	-0.0005884104
157	0x2d5db1df	1.2601891e-11
158	0x3aaa3a15	0.001298728
159	0x39bff173	0.00036610253
160	0xb0c21b95	-1.4123197e-09
161	0x3a591b4a	0.00082819595
162	0xb9177b2a	-0.00014446364
163	0xb9bf34bc	-0.0003646965
164	0xba3041b2	-0.00067236566
165	0x3a48023e	0.00076297286
166	0x3b0e118f	0.0021677946
167	0xb4bec545	-3.553379e-07
168	0xb8c0dc3c	-9.196295e-05
169	0xba7695be	-0.00094064686
170	0x3b51f209	0.0032035133
171	0x3a6ad08a	0.00089574663
172	0x38e1a46c	0.00010759462
173	0xae026d01	-2.9655393e-11
174	0xba0907c0	-0.000522729
175	0xb98e6ca2	-0.00027165288
176	0xadca7a39	-2.3019019e-11
177	0x390d1594	0.00013454846
178	0x350f5009	5.338812e-07
179	0xb817ca4e	-3.6189616e-05
180	0x38450ea4	4.6982095e-05
181	0x3a3a3f18	0.00071047386
182	0x3982037a	0.00024798122
183	0x35354f9c	6.75436e-07
184	0xb897cee1	-7.238775e-05
185	0xb98c8723	-0.00026803566
186	0xbb4b595d	-0.0031028606
187	0xb98f9cae	-0.0002739182
188	0xb98a2c10	-0.0002635424
189	0x2bc59a07	1.4040443e-12
190	0xb9285822	-0.0001605456
191	0xb8a2a9db	-7.7564e-05
192	0x2fd6fceb	3.9106082e-10
193	0xbae7b5f5	-0.0017678129
194	0x3a978795	0.0011560792
195	0xb99f8f36	-0.00030433544
196	0xba1a39ff	-0.0005883276
197	0xb90aa426	-0.00013221856
198	0xbb79f3c5	-0.0038139683
199	0xb827d7ba	-4.0016814e-05
200	0x391718b0	0.00014409679
201	0xbaa35ed4	-0.0012464174
202	0xbb2520e1	-0.00251966
203	0x3b943383	0.0045227422
204	0x3aff1a02	0.0019462707
205	0x32c22392	2.2600748e-08
206	0xbb62a7bd	-0.0034584843
207	0xba90b133	-0.0011039138
208	0xb1431325	-2.8387117e-09
209	0x3925890a	0.00015786677
210	0xb85270db	-5.0173006e-05
211	0x3625e299	2.4718813e-06
212	0x3828239a	4.0087478e-05
213	0x3800b629	3.0687228e-05
214	0x39f9851f	0.00047592164
215	0x34af01a2	3.2597478e-07
216	0x36bd5bab	5.6433105e-06
217	0x396438c5	0.00021764923
218	0x385a2f86	5.201951e-05
219	0xb9c83288	-0.0003818462
220	0xb94b827f	-0.00019408202
221	0x32f3c3b1	2.8377913e-08
222	0x39c40a2f	0.0003739162
223	0x38d5f3c4	0.00010202036
224	0x2f851b1b	2.421182e-10
225	0x38a6f6b9	7.9614525e-05
226	0xb7ea1452	-2.7904436e-05
227	0x366b4c80	3.5062258e-06
228	0x379637cb	1.7907374e-05
229	0x36dcf277	6.5847375e-06
230	0x39ca97ab	0.00038641444
231	0x36fb28b8	7.485123e-06
232	0x36badbc8	5.568818e-06
233	0x3983b111	0.00025118192
234	0x38d7de0b	0.000102933576
235	0xb9d1b7b8	-0.00040000468
236	0xb89c206d	-7.4446994e-05
237	0x315beb61	3.2002492e-09
238	0x39a2e7ef	0.00031071852
239	0x3918e14a	0.00014579776
240	0x323afbc2	1.0883868e-08
241	0xbb333333	-0.002734375
242	0x3ad16148	0.0015974427
243	0xb90922be	-0.0001307828
244	0xb98fee57	-0.00027452662
245	0xba2f5386	-0.0006688166
246	0xbbf5b008	-0.007497791
247	0xb94cddd6	-0.00019537596
248	0xb91547ca	-0.00014236491
249	0xbb98394f	-0.0046455036
250	0xbad32e49	-0.0016111817
251	0x3baa8099	0.0052033183
252	0x3aaea2de	0.0013323685
253	0xb3962842	-6.992242e-08
254	0xbb879fe9	-0.004138936
255	0xbb2c25e2	-0.0026267697

sparse_weighted_adjacency_matrices.edge_inital.edge_embedding.bias f4 [16]
0	0xbb0f5f8d	-0.002187702
1	0xbb6655ff	-0.0035146473
2	0x39250cf5	0.00015740453
3	0x3713c86c	8.808547e-06
4	0x3a8d5fdf	0.0010786018
5	0xb6cf166e	-6.171692e-06
6	0xba42d6b7	-0.00074325077
7	0xb9d58fc7	-0.00040733648
8	0xb8002509	-3.055207e-05
9	0x3924e904	0.00015727064
10	0x37ae5dc9	2.0786088e-05
11	0xb8f894c3	-0.000118532706
12	0xbb9932d0	-0.004675247
13	0x3a3be7a2	0.0007168
14	0x39f93b62	0.00047537225
15	0x3c7f60f7	0.015587083

sparse_weighted_adjacency_matrices.pair_attention.embedding.weight f4 [64, 2]
0	0x1ae9a1d1	9.662797e-23
1	0x9b80be8d	-2.1298964e-22
2	0x9d596f09	-2.8777115e-21
3	0x1c9d9fa7	1.0430658e-21
4	0x1c006be2	4.2491083e-22
5	0x1e214153	8.536778e-21
6	0x1c4c998b	6.769639e-22
7	0x1c95c94c	9.912027e-22
8	0x9dc16961	-5.1195634e-21
9	0x9bc10bf0	-3.1936886e-22
10	0x1c8463a7	8.760787e-22
11	0x9c016545	-4.2813407e-22
12	0x98d40268	-5.4803145e-24
13	0x9b97e41f	-2.5128274e-22
14	0x1deae1e6	6.2172858e-21
15	0x1c9fcfc7	1.0575447e-21
16	0x1c172c26	5.001877e-22
17	0x1b1cf74a	1.2983921e-22
18	0x1a54db36	4.401765e-23
19	0x1b24a1d0	1.3618046e-22
20	0x1b156f07	1.2360866e-22
21	0x1d7db731	3.3578979e-21
22	0x9a369d49	-3.7763772e-23
23	0x1ae0e8a5	9.3020086e-23
24	0x99ce9403	-2.1359682e-23
25	0x9ac882f8	-8.292965e-23
26	0x1bad83af	2.8705548e-22
27	0x9a06bcda	-2.7863104e-23
28	0x1c9d9482	1.0427777e-21
29	0x1bbcb12e	3.121649e-22
30	0x1c4ead6b	6.838382e-22
31	0x1caf1023	1.15847e-21
32	0x9dacae8d	-4.5708502e-21
33	0x9d154bf4	-1.9759253e-21
34	0x9be74d54	-3.8265716e-22
35	0x9d75642e	-3.2477272e-21
36	0x9b555f33	-1.7649708e-22
37	0x9cfc47c9	-1.6694517e-21
38	0x9c88f3de	-9.062763e-22
39	0x1afe26b0	1.0511444e-22
40	0x19a95526	1.7508582e-23
41	0x9c038c97	-4.352597e-22
42	0x9d9b5d9e	-4.1124956e-21
43	0x1c591102	7.182126e-22
44	0x1abd8a11	7.8391626e-23
45	0x9999ce5e	-1.590318e-23
46	0x99ffc9c6	-2.6447878e-23
47	0x9cd149ae	-1.3849506e-21
48	0x1b8b76de	2.3072437e-22
49	0x1b49babf	1.6686671e-22
50	0x9cc98629	-1.3335744e-21
51	0x9c8bc3f3	-9.2489e-22
52	0x9b4674a3	-1.6415863e-22
53	0x9d49307a	-2.662719e-21
54	0x1d9c0e55	4.1307675e-21
55	0x9bec4b25	-3.9091486e-22
56	0x1c7b1158	8.307135e-22
57	0x9c91816f	-9.628753e-22
58	0x9bd871c2	-3.5807717e-22
59	0x1c493a33	6.658054e-22
60	0x1dc99e85	5.3368162e-21
61	0x196bd956	1.2193106e-23
62	0x9bd911e1	-3.5911193e-22
63	0x1c5d0c93	7.313902e-22
64	0x1a4c1bf0	4.220878e-23
65	0x9b6a19b4	-1.9364331e-22
66	0x98c92293	-5.1992193e-24
67	0x19e0873f	2.3215683e-23
68	0x9b255a89	-1.3677734e-22
69	0x1c8f7295	9.492565e-22
70	0x9ba3cd7e	-2.7098884e-22
71	0x1ccd412e	1.3582611e-21
72	0x1b080ad0	1.125315e-22
73	0x1b715500	1.9962518e-22
74	0x9cb00a14	-1.1649308e-21
75	0x1a2c0eec	3.558082e-23
76	0x1bdcf013	3.6551091e-22
77	0x9b86d7bd	-2.2307858e-22
78	0x9b959bd1	-2.4750676e-22
79	0x98b55ec4	-4.6883092e-24
80	0x1b58f4c1	1.7946185e-22
81	0x1c5d04b0	7.3128825e-22
82	0x9b172dbe	-1.2505207e-22
83	0x1c35bf11	6.0134824e-22
84	0x9d388324	-2.4419995e-21
85	0x1b76c00d	2.0410698e-22
86	0x1dfb9fe3	6.6604466e-21
87	0x1c36d907	6.049925e-22
88	0x9bca8dce	-3.3509736e-22
89	0x17cbe975	1.31775e-24
90	0x1d59d36d	2.8829015e-21
91	0x1b184a8f	1.2597236e-22
92	0x9d364c59	-2.412697e-21
93	0x1b0bccc6	1.1563976e-22
94	0x9a1246f7	-3.0249417e-23
95	0x1c9cdf7a	1.0380981e-21
96	0x1c54265b	7.019449e-22
97	0x1b693fc1	1.9293908e-22
98	0x1ca888a2	1.1152626e-21
99	0x1b80558f	2.1231115e-22
100	0x9ab10642	-7.3215594e-23
101	0x1c8fed1d	9.524239e-22
102	0x199f8a9b	1.6496197e-23
103	0x1b3147fa	1.4664354e-22
104	0x1c9b2e0c	1.0268942e-21
105	0x1b699fb5	1.9324912e-22
106	0x9a3d6fd8	-3.917463e-23
107	0x9d727b73	-3.2092255e-21
108	0x1b4451f0	1.6239215e-22
109	0x1b97c944	2.511092e-22
110	0x9a933b42	-6.089351e-23
111	0x9b8a74e7	-2.2905731e-22
112	0x9d27ff7e	-2.2234352e-21
113	0x9afbee1c	-1.04195853e-22
114	0x1a85d453	5.535054e-23
115	0x1a95dfc9	6.19865e-23
116	0x1abb2fe6	7.741877e-23
117	0x9be956ac	-3.8602627e-22
118	0x1ab915e0	7.654955e-23
119	0x1aff4387	1.05574624e-22
120	0x1bba9e51	3.0873428e-22
121	0x9b25fe5b	-1.3730667e-22
122	0x97eb7edf	-1.5218546e-24
123	0x1acce363	8.4739786e-23
124	0x9b647a49	-1.889923e-22
125	0x9cf3268c	-1.6090355e-21
126	0x1dc9a333	5.3373e-21
127	0x9c7cb7da	-8.361743e-22

sparse_weighted_adjacency_matrices.pair_attention.embedding.bias f4 [64]
0	0x1a608024	4.6425625e-23
1	0x9a012e94	-2.67142e-23
2	0x1cfed284	1.6862727e-21
3	0x19138132	7.625813e-24
4	0x9bed89d0	-3.929742e-22
5	0x9b2b9fca	-1.4196419e-22
6	0x9bf4aebf	-4.047934e-22
7	0x1ae21f5e	9.3522086e-23
8	0x1bcd8107	3.3997787e-22
9	0x9a3da857	-3.9220268e-23
10	0x9b944874	-2.4531368e-22
11	0x9ca8d03f	-1.1171138e-21
12	0x9bfc153e	-4.170363e-22
13	0x9e2103de	-8.524069e-21
14	0x1cd2f1a1	1.3959094e-21
15	0x1c815d56	8.560631e-22
16	0x1cc52371	1.3045528e-21
17	0x1b8ade23	2.2973737e-22
18	0x1c583c28	7.1546155e-22
19	0x9becb2a3	-3.9158366e-22
20	0x1b37b68e	1.5196392e-22
21	0x1b8b4c33	2.3044864e-22
22	0x181279d2	1.8931561e-24
23	0x9dd52002	-5.6413726e-21
24	0x9d2bc5f7	-2.2734007e-21
25	0x1d86ebe6	3.5713418e-21
26	0x9cce4a8c	-1.3651206e-21
27	0x9a1abcea	-3.1999057e-23
28	0x99b352fe	-1.8541686e-23
29	0x1bb3c268	2.9738698e-22
30	0x1babf8a7	2.8450265e-22
31	0x9e0673fd	-7.117887e-21
32	0x1b27eacc	1.3889783e-22
33	0x1cd2ec75	1.3957757e-21
34	0x9b8af6fe	-2.29898e-22
35	0x1c54cb67	7.0407807e-22
36	0x1a98f3c1	6.325953e-23
37	0x1b3bad6e	1.5524316e-22
38	0x1c37d0f8	6.0819707e-22
39	0x9b727f25	-2.0058853e-22
40	0x9b520c4f	-1.737477e-22
41	0x9d83b7dc	-3.4865517e-21
42	0x9c442b15	-6.490664e-22
43	0x1adb5ae7	9.072314e-23
44	0x9ba908b9	-2.7964342e-22
45	0x1b95fe65	2.481438e-22
46	0x1c98fe9f	1.0124334e-21
47	0x9c0268cc	-4.314884e-22
48	0x9c9a1aae	-1.0197762e-21
49	0x9be684cc	-3.8136126e-22
50	0x9b5fd7f3	-1.8515905e-22
51	0x9e567357	-1.1352917e-20
52	0x1b1e80ce	1.3111073e-22
53	0x9b86bf26	-2.2291967e-22
54	0x1cdbe3aa	1.4551054e-21
55	0x19fcbb55	2.6131852e-23
56	0x1ca1c4d2	1.0704963e-21
57	0x999e18e4	-1.634687e-23
58	0x1ac8edbc	8.310214e-23
59	0x1e1f97ab	8.448754e-21
60	0x1add4baf	9.152573e-23
61	0x1c2dd627	5.7517684e-22
62	0x191cd2ff	8.107621e-24
63	0x1b14798b	1.2281546e-22

sparse_weighted_adjacency_matrices.pair_attention.query.weight f4 [64, 64]
0	0x1a213779	3.333883e-23
1	0x19cdc6d9	2.1276817e-23
2	0x9ac7372c	-8.2393606e-23
3	0x1a00a138	2.660001e-23
4	0x1b1f8f8f	1.3198558e-22
5	0x199d58ad	1.6269235e-23
6	0x1b07fb47	1.124813e-22
7	0x96932811	-2.3774416e-25
8	0x9a283800	-3.4786822e-23
9	0x170d88da	4.573229e-25
10	0x1a4dae25	4.253368e-23
11	0x9a90086c	-5.957061e-23
12	0x9b15bd20	-1.2386101e-22
13	0x1a667ba4	4.766276e-23
14	0x1946f390	1.0285547e-23
15	0x197b35b2	1.29872395e-23
16	0x16fb325d	4.058302e-25
17	0x19032ae0	6.7812e-24
18	0x99102cec	-7.4536974e-24
19	0x9aea6655	-9.694546e-23
20	0x18ddc2ea	5.7323974e-24
21	0x9a87aad3	-5.611067e-23
22	0x9aa19deb	-6.684317e-23
23	0x99536539	-1.0928886e-23
24	0x9a4994ac	-4.1685922e-23
25	0x19c7a600	2.0643165e-23
26	0x1aaead6c	7.224489e-23
27	0x1a75cd90	5.0830865e-23
28	0x995c535f	-1.139057e-23
29	0x99891b86	-1.4176585e-23
30	0x1b1c5305	1.2930843e-22
31	0x99fc7659	-2.610399e-23
32	0x1aa7df46	6.94303e-23
33	0x99aa5dc4	-1.761546e-23
34	0x183567fe	2.3446204e-24
35	0x9a47c883	-4.1314208e-23
36	0x9889f046	-3.5656284e-24
37	0x9ac0ce80	-7.974296e-23
38	0x1b242894	1.3578874e-22
39	0x19571eb3	1.1121439e-23
40	0x9a93e87a	-6.117336e-23
41	0x98e2537b	-5.8503924e-24
42	0x19d2c6c9	2.179378e-23
43	0x19a9a7a0	1.7541894e-23
44	0x9ac539a9	-8.1570445e-23
45	0x9a3e3c37	-3.933972e-23
46	0x99ee0c20	-2.461352e-23
47	0x1a5999b8	4.499872e-23
48	0x9b236f65	-1.3519037e-22
49	0x9902781c	-6.745098e-24
50	0x193b1919	9.672742e-24
51	0x9a6c7246	-4.8895965e-23
52	0x9ab7f7d9	-7.6087446e-23
53	0x1b036313	1.0868079e-22
54	0x9ab2e807	-7.3993935e-23
55	0x1a6563fe	4.7436863e-23
56	0x9a709ca4	-4.975737e-23
57	0x1aa2ad67	6.7281776e-23
58	0x9ad17d52	-8.664284e-23
59	0x99d27197	-2.175937e-23
60	0x9ac4cf4d	-8.139861e-23
61	0x9a39f570	-3.8455366e-23
62	0x18e7e5eb	5.994426e-24
63	0x983a19c7	-2.405295e-24
64	0x1a872b1c	5.590434e-23
65	0x1a877a25	5.6032026e-23
66	0x9929df86	-8.7822354e-24
67	0x9a93182e	-6.083684e-23
68	0x9b0a27fb	-1.1428011e-22
69	0x9a49b7b4	-4.171422e-23
70	0x19b749f5	1.8951628e-23
71	0x193f8939	9.9021805e-24
72	0x1ae7b3e9	9.583002e-23
73	0x1a2ef8bb	3.618328e-23
74	0x9ac9ca6d	-8.345869e-23
75	0x1ae06658	9.2809574e-23
76	0x9a0164ed	-2.6758102e-23
77	0x18890782	3.542125e-24
78	0x9ac36d9b	-8.082719e-23
79	0x1a1a461f	3.1903097e-23
80	0x19da8f12	2.2598457e-23
81	0x9a6b9cc1	-4.8723486e-23
82	0x19709a90	1.2438923e-23
83	0x1ac7700e	8.2485505e-23
84	0x998cded2	-1.4565657e-23
85	0x9a033bdb	-2.7138516e-23
86	0x9a133cc6	-3.044798e-23
87	0x1afeb4eb	1.05344227e-22
88	0x1a37f5e0	3.804213e-23
89	0x1a85f09c	5.5396236e-23
90	0x9aa17803	-6.678193e-23
91	0x1912c9a7	7.5887465e-24
92	0x9a60caca	-4.6485926e-23
93	0x9af47934	-1.0111185e-22
94	0x1ac8c250	8.303199e-23
95	0x9ac0f3ff	-7.9803536e-23
96	0x1aaf0a24	7.2394687e-23
97	0x93ff5195	-6.4451496e-27
98	0x9b01426a	-1.069209e-22
99	0x994648d4	-1.02510676e-23
100	0x9a9363b7	-6.095887e-23
101	0x19b6fcfd	1.892054e-23
102	0x9b06b3d6	-1.1142328e-22
103	0x19802c7c	1.3252857e-23
104	0x9b286bd7	-1.3931479e-22
105	0x977e6779	-8.2202427e-25
106	0x99247c6a	-8.5037265e-24
107	0x99f77b58	-2.558902e-23
108	0x993f8be7	-9.902722e-24
109	0x9b0998f4	-1.1381796e-22
110	0x99e9505f	-2.4124097e-23
111	0x1aa5d7b2	6.8590875e-23
112	0x19d10476	2.1611895e-23
113	0x9ad85521	-8.947304e-23
114	0x1ace0c53	8.5219514e-23
115	0x990d630e	-7.309533e-24
116	0x98bc775b	-4.871738e-24
117	0x19aeb4b4	1.8064164e-23
118	0x1806ea8e	1.7437514e-24
119	0x1a6c894c	4.8914564e-23
120	0x9795526b	-9.649705e-25
121	0x99022aa2	-6.729452e-24
122	0x1aab07c5	7.0736495e-23
123	0x19c18e71	2.0013264e-23
124	0x19f885f6	2.5696705e-23
125	0x9a460d83	-4.0956355e-23
126	0x198944b0	1.419321e-23
127	0x1786b3cc	8.704934e-25
128	0x1aa3d3f6	6.775766e-23
129	0x994869b8	-1.0361107e-23
130	0x18db4492	5.667941e-24
131	0x9990b8f7	-1.4963958e-23
132	0x1abf7545	7.918521e-23
133	0x99b43c4c	-1.8635917e-23
134	0x99e22c2c	-2.3385693e-23
135	0x1a99a4a2	6.3545296e-23
136	0x9a914657	-6.0084235e-23
137	0x182ac3d7	2.2070859e-24
138	0x980602d4	-1.7320522e-24
139	0x99631c31	-1.1741318e-23
140	0x9aa6425b	-6.8763194e-23
141	0x99a579ca	-1.710979e-23
142	0x19e1a180	2.3329684e-23
143	0x99907ac4	-1.4938836e-23
144	0x99ef61f7	-2.4751588e-23
145	0x9ab24656	-7.373271e-23
146	0x9ab21c42	-7.366473e-23
147	0x1944789e	1.0157321e-23
148	0x1a04a3fc	2.7429426e-23
149	0x9acd3039	-8.486392e-23
150	0x9ac98318	-8.3343445e-23
151	0x9a00c9dd	-2.6632843e-23
152	0x19c7c78d	2.0656716e-23
153	0x999fe2d0	-1.6531824e-23
154	0x9a8a675d	-5.7242455e-23
155	0x1a6127b4	4.656098e-23
156	0x19696637	1.206646e-23
157	0x9a6890c7	-4.8093426e-23
158	0x196064a9	1.1600857e-23
159	0x9af8a568	-1.02837624e-22
160	0x1930c6b7	9.139117e-24
161	0x9a59e9b6	-4.506334e-23
162	0x9711c662	-4.710242e-25
163	0x19f7606c	2.5578146e-23
164	0x180311ed	1.6940403e-24
165	0x998f9d10	-1.484929e-23
166	0x9a6fabb7	-4.9562752e-23
167	0x9b242120	-1.3576465e-22
168	0x1ab817c8	7.613904e-23
169	0x1ac46e48	8.124187e-23
170	0x189fd98c	4.1320203e-24
171	0x9a79e1e6	-5.1674472e-23
172	0x9a82b0c3	-5.4052314e-23
173	0x9897954a	-3.918333e-24
174	0x1aeb4021	9.729733e-23
175	0x992e87d0	-9.023016e-24
176	0x99907a21	-1.4938578e-23
177	0x19bb00db	1.9335692e-23
178	0x9ac7b821	-8.260195e-23
179	0x9a537359	-4.3726954e-23
180	0x180991ac	1.778038e-24
181	0x1a9be329	6.4473494e-23
182	0x9ac48ffd	-8.1296326e-23
183	0x1a1b8acb	3.2165365e-23
184	0x995ee832	-1.15240225e-23
185	0x1ac2945a	8.0476194e-23
186	0x9b0bde32	-1.1569606e-22
187	0x1b2a78f6	1.4101155e-22
188	0x18e3cce1	5.8885e-24
189	0x1a1b96b5	3.217499e-23
190	0x190075ca	6.641232e-24
191	0x1882d2ae	3.3816945e-24
192	0x9afaea63	-1.0377625e-22
193	0x18ef1f30	6.1811543e-24
194	0x9a8355aa	-5.431873e-23
195	0x1a9cd8c7	6.487031e-23
196	0x1aad3b54	7.164697e-23
197	0x1a2ea33c	3.6114216e-23
198	0x9a552684	-4.407848e-23
199	0x987b6adb	-3.2494938e-24
200	0x19bab824	1.9306323e-23
201	0x99f73763	-2.5561572e-23
202	0x9b025d87	-1.0783568e-22
203	0x9a62f611	-4.6934475e-23
204	0x9a34da75	-3.7399596e-23
205	0x1a5f870b	4.6224406e-23
206	0x98114ad5	-1.8778591e-24
207	0x1a828d83	5.3995364e-23
208	0x9a402fb4	-3.9743204e-23
209	0x998ec931	-1.4763716e-23
210	0x9ab18102	-7.341391e-23
211	0x1686a57c	2.1753303e-25
212	0x99cb2de3	-2.1008242e-23
213	0x1acdb49b	8.5077797e-23
214	0x1ac4546c	8.120009e-23
215	0x182dedd5	2.24798e-24
216	0x9a92aec3	-6.066653e-23
217	0x9a94393d	-6.130384e-23
218	0x9a8f1744	-5.9181e-23
219	0x9b056d20	-1.1036762e-22
220	0x19cc58f7	2.1129038e-23
221	0x99ceb79b	-2.1374058e-23
222	0x1a93823f	6.10082e-23
223	0x18b350df	4.6352074e-24
224	0x9aecfe02	-9.8017684e-23
225	0x9aa84b47	-6.960479e-23
226	0x9aae6644	-7.212993e-23
227	0x1a662e45	4.760026e-23
228	0x19cc843c	2.1146515e-23
229	0x9917ebba	-7.854122e-24
230	0x994355ac	-1.0098565e-23
231	0x9959e33f	-1.1264529e-23
232	0x9a718aa1	-4.9949615e-23
233	0x9a72d062	-5.0212757e-23
234	0x19b44932	1.8641127e-23
235	0x198be325	1.4464006e-23
236	0x1a737853	5.034842e-23
237	0x18d54fce	5.513979e-24
238	0x18e52c1f	5.9239664e-24
239	0x1a4abdfa	4.1926083e-23
240	0x9a53257d	-4.366406e-23
241	0x9a2ac4c5	-3.5314125e-23
242	0x1a8a8512	5.729045e-23
243	0x994ec945	-1.06905964e-23
244	0x9af2d0b2	-1.0042602e-22
245	0x996785c4	-1.1969434e-23
246	0x19d39fd2	2.188144e-23
247	0x9aff0f69	-1.05490425e-22
248	0x19af6805	1.8136589e-23
249	0x1a8307f9	5.419321e-23
250	0x9a722bf1	-5.0079923e-23
251	0x99a44108	-1.6983468e-23
252	0x9b034d7f	-1.0861106e-22
253	0x976bb276	-7.6157845e-25
254	0x1909eb37	7.130235e-24
255	0x1a55f13d	4.4242238e-23

sparse_weighted_adjacency_matrices.pair_attention.query.bias f4 [64]
0	0x1a9b6284	6.426566e-23
1	0x19811dc3	1.3350308e-23
2	0x1b106195	1.1942931e-22
3	0x96ad3472	-2.7982755e-25
4	0x9aa6730a	-6.8841846e-23
5	0x1ade7b49	9.2016226e-23
6	0x99c321dd	-2.0176205e-23
7	0x1b0b8bf4	1.1543032e-22
8	0x1a5d7a00	4.580028e-23
9	0x9ab666f5	-7.543977e-23
10	0x9ac9dbf8	-8.348703e-23
11	0x9a0f8211	-2.9676774e-23
12	0x9b0caa0b	-1.1635472e-22
13	0x9ab61a5f	-7.531604e-23
14	0x9988b8c9	-1.4136705e-23
15	0x98944190	-3.8323305e-24
16	0x9941708a	-1.0000593e-23
17	0x9a34ace1	-3.7362778e-23
18	0x1ac19262	8.0059423e-23
19	0x1ae00446	9.265113e-23
20	0x9b2d1a3a	-1.4318699e-22
21	0x19d3c80b	2.1897685e-23
22	0x9a59b054	-4.5016985e-23
23	0x1964b419	1.1823694e-23
24	0x18984b62	3.9367196e-24
25	0x1909c6c6	7.122876e-24
26	0x9ab2abfc	-7.389693e-23
27	0x1ae48944	9.4520354e-23
28	0x9826dc78	-2.1566305e-24
29	0x198fe305	1.4877546e-23
30	0x1b0f8596	1.1871847e-22
31	0x1a4b0273	4.1981395e-23
32	0x1b052181	1.1012328e-22
33	0x1a352ba4	3.7465175e-23
34	0x1a195ee3	3.1716307e-23
35	0x98ec096e	-6.101409e-24
36	0x98892020	-3.5446108e-24
37	0x9aa79d16	-6.932337e-23
38	0x19f116a0	2.4927954e-23
39	0x1a87be8d	5.614254e-23
40	0x1a29faba	3.5150916e-23
41	0x19882b5e	1.4079586e-23
42	0x9b1f32d0	-1.316859e-22
43	0x1a48d866	4.1533836e-23
44	0x1adcf1f1	9.1380745e-23
45	0x19c3a347	2.0228475e-23
46	0x9ac95b46	-8.327911e-23
47	0x99bba56b	-1.9402159e-23
48	0x1a05c7af	2.766506e-23
49	0x1a5df84d	4.5902305e-23
50	0x9aaa11ca	-7.033909e-23
51	0x997ef8d7	-1.3181745e-23
52	0x1aee300b	9.851211e-23
53	0x9879abfd	-3.2269328e-24
54	0x1a4f6b18	4.2893106e-23
55	0x1b332611	1.4818833e-22
56	0x198cf0b7	1.4572885e-23
57	0x97970fc9	-9.762131e-25
58	0x19f92a0f	2.5762984e-23
59	0x18b78c52	4.744608e-24
60	0x1b166c9e	1.2442805e-22
61	0x197993e0	1.29028614e-23
62	0x9a28d904	-3.491689e-23
63	0x9902eadc	-6.768272e-24

sparse_weighted_adjacency_matrices.pair_attention.key.weight f4 [64, 64]
0	0x1ad025a3	8.608759e-23
1	0x1936aef3	9.44451e-24
2	0x998f6cc4	-1.4829784e-23
3	0x18432a08	2.522438e-24
4	0x1b0db3a7	1.1721295e-22
5	0x18d8e77a	5.6068423e-24
6	0x198f8f52	1.484374e-23
7	0x98e3486a	-5.8751244e-24
8	0x9a7d82de	-5.2424887e-23
9	0x9a4b9d98	-4.210672e-23
10	0x1af6caf8	1.0207113e-22
11	0x18a11551	4.163905e-24
12	0x190b3f02	7.198856e-24
13	0x997d8ff7	-1.3108867e-23
14	0x9a2b223c	-3.5389625e-23
15	0x9abbd632	-7.768744e-23
16	0x19a13b1d	1.6670885e-23
17	0x9acef9ef	-8.560339e-23
18	0x1a1b5fa5	3.213051e-23
19	0x9961cbbf	-1.16733736e-23
20	0x1a0c0936	2.8958762e-23
21	0x1a8faba7	5.942073e-23
22	0x994e5533	-1.0667156e-23
23	0x19bf20fc	1.976226e-23
24	0x17cb34eb	1.3131926e-24
25	0x1a2d3b9e	3.582372e-23
26	0x9a71075e	-4.9843583e-23
27	0x1a1ca4e1	3.2393232e-23
28	0x1ad752ea	8.905587e-23
29	0x1a53d24b	4.380365e-23
30	0x9acb3698	-8.404703e-23
31	0x1849a879	2.6063698e-24
32	0x1acf642e	8.577504e-23
33	0x1a994800	6.339564e-23
34	0x99498cfd	-1.0419929e-23
35	0x9a9a9d57	-6.3947103e-23
36	0x1b197bfd	1.2695926e-22
37	0x197492b8	1.2644134e-23
38	0x9abf9f20	-7.925283e-23
39	0x98217452	-2.086749e-24
40	0x9ad916a2	-8.978566e-23
41	0x9a948543	-6.142666e-23
42	0x990731a2	-6.98936e-24
43	0x1a69dd79	4.8362175e-23
44	0x1a894db7	5.678743e-23
45	0x17f964fc	1.611674e-24
46	0x1aaa4cf2	7.0434664e-23
47	0x1a6a020f	4.839173e-23
48	0x9a6b6b4b	-4.868353e-23
49	0x197178e5	1.24838224e-23
50	0x9b06d7fe	-1.1154011e-22
51	0x9ab8eeaf	-7.648623e-23
52	0x1a833830	5.4271106e-23
53	0x1a7b933d	5.202452e-23
54	0x9b193f90	-1.2676402e-22
55	0x9a8c84d5	-5.8117245e-23
56	0x1aaa134a	7.0341515e-23
57	0x9a3b88c1	-3.8781163e-23
58	0x1aaf9101	7.261257e-23
59	0x99df69f4	-2.3100454e-23
60	0x1aa20a16	6.7017924e-23
61	0x99e3040d	-2.3472886e-23
62	0x194c54c4	1.0563671e-23
63	0x94a60ecb	-1.6767551e-26
64	0x1b17802b	1.253184e-22
65	0x1a1960fe	3.1718008e-23
66	0x1889dc5c	3.5636176e-24
67	0x1852a351	2.7224318e-24
68	0x1a50db5d	4.3190592e-23
69	0x9a958279	-6.1835746e-23
70	0x994ac2c5	-1.0482489e-23
71	0x9aa2ae89	-6.7283606e-23
72	0x1ad232e0	8.693616e-23
73	0x1aefbb4c	9.915068e-23
74	0x99b416eb	-1.862082e-23
75	0x1aadbb8a	7.185411e-23
76	0x1aa0124a	6.6203997e-23
77	0x9a45691a	-4.0823546e-23
78	0x19daf6d6	2.2640368e-23
79	0x1af49998	1.0116418e-22
80	0x19af2008	1.8107513e-23
81	0x1a1c2cb0	3.2296142e-23
82	0x99a27e65	-1.6801458e-23
83	0x991ebad0	-8.206135e-24
84	0x99aa162f	-1.7586548e-23
85	0x99a200c5	-1.6750718e-23
86	0x1a046748	2.738039e-23
87	0x99733bf9	-1.2574917e-23
88	0x1a2ab3cb	3.5300412e-23
89	0x1a122250	3.021981e-23
90	0x19a67dd5	1.7214821e-23
91	0x1b0d9b8b	1.1713505e-22
92	0x1926fcab	8.633025e-24
93	0x199ed074	1.642101e-23
94	0x1a4123cb	3.9940378e-23
95	0x1ad91cf0	8.979585e-23
96	0x97ace34f	-1.117262e-24
97	0x9b0660c1	-1.1115483e-22
98	0x1aeed1ec	9.877364e-23
99	0x993072a3	-9.1221374e-24
100	0x9abbbcc1	-7.7646336e-23
101	0x9a081b74	-2.8146317e-23
102	0x19999a22	1.5882083e-23
103	0x99c314ed	-2.017098e-23
104	0x998a2d2e	-1.4287113e-23
105	0x9a999272	-6.351591e-23
106	0x995ae41f	-1.13164045e-23
107	0x1ad3e132	8.763138e-23
108	0x182cc49a	2.2329737e-24
109	0x1ac2bd55	8.05424e-23
110	0x1975c979	1.270689e-23
111	0x19caf84b	2.0986595e-23
112	0x9982b513	-1.351482e-23
113	0x1ad56138	8.82518e-23
114	0x9a50e596	-4.319885e-23
115	0x9ac57da4	-8.1680274e-23
116	0x9b1e6419	-1.3101797e-22
117	0x9ac2251e	-8.0296485e-23
118	0x19cb4e41	2.1021315e-23
119	0x9a288c88	-3.4855106e-23
120	0x18fed178	6.586897e-24
121	0x18178a3a	1.958608e-24
122	0x9a10c098	-2.9934078e-23
123	0x1a1823a0	3.146164e-23
124	0x18faf43b	6.4870095e-24
125	0x9a0ae11a	-2.8719567e-23
126	0x9a54294c	-4.3873932e-23
127	0x19ee3354	2.4629354e-23
128	0x1a91bffe	6.0280775e-23
129	0x1a8da944	5.8589697e-23
130	0x160445f6	1.0684951e-25
131	0x98eb9111	-6.0892556e-24
132	0x18d4c3d9	5.499847e-24
133	0x9ade7bc9	-9.2017034e-23
134	0x1a4da6de	4.25278e-23
135	0x9a0ca957	-2.9088113e-23
136	0x1a9a8264	6.3903565e-23
137	0x983f82e9	-2.4752264e-24
138	0x1a1638a2	3.106502e-23
139	0x9b0330ac	-1.0851793e-22
140	0x1aae4891	7.208195e-23
141	0x19ed7f0c	2.455654e-23
142	0x99af1323	-1.8102305e-23
143	0x1993d5c1	1.5285778e-23
144	0x1b17db57	1.25613e-22
145	0x1a183723	3.1477402e-23
146	0x1abdf4cc	7.856406e-23
147	0x9ac0bceb	-7.971455e-23
148	0x1a51f04a	4.341429e-23
149	0x9a24908a	-3.4031163e-23
150	0x18b795bb	4.745558e-24
151	0x9ac2acb8	-8.051556e-23
152	0x9b2a492c	-1.4085714e-22
153	0x9aa9ccc0	-7.0227553e-23
154	0x1b09a3fe	1.1385363e-22
155	0x9aced950	-8.555069e-23
156	0x99d7c8df	-2.231161e-23
157	0x1add6eb5	9.1582315e-23
158	0x1689707d	2.2204534e-25
159	0x9a58a668	-4.4802175e-23
160	0x99beff14	-1.9748565e-23
161	0x9a66b38c	-4.7707922e-23
162	0x1a20d61b	3.3260178e-23
163	0x19da74e5	2.2587885e-23
164	0x9b107db4	-1.1952018e-22
165	0x19fac1b9	2.5927638e-23
166	0x1a11e64b	3.0171326e-23
167	0x9a3ee26f	-3.947399e-23
168	0x199639bd	1.5532957e-23
169	0x98e6dea5	-5.967842e-24
170	0x997d9046	-1.3108929e-23
171	0x9a6a36e8	-4.843442e-23
172	0x1b0c248d	1.1592339e-22
173	0x9844396b	-2.5361395e-24
174	0x188a23ca	3.57083e-24
175	0x9ad46bf9	-8.7855584e-23
176	0x18e585ec	5.933034e-24
177	0x197328a0	1.257101e-23
178	0x99a9be8f	-1.7551156e-23
179	0x182da1bd	2.2441383e-24
180	0x998bbb88	-1.4448006e-23
181	0x1990e46c	1.498151e-23
182	0x997e989c	-1.31623114e-23
183	0x158aa1bd	5.5992934e-26
184	0x194827fb	1.0347832e-23
185	0x9a9400b5	-6.121251e-23
186	0x1aac295b	7.1204346e-23
187	0x184fce4a	2.6858272e-24
188	0x1aa775d4	6.925994e-23
189	0x9ac766bd	-8.2470454e-23
190	0x9aad1cf9	-7.159793e-23
191	0x9afe17dd	-1.0509049e-22
192	0x1a7b7ae8	5.2004866e-23
193	0x1a3b36d6	3.871499e-23
194	0x97d4ac91	-1.3743741e-24
195	0x9910451b	-7.458581e-24
196	0x1a3bf637	3.8869584e-23
197	0x1abbd0c4	7.7678666e-23
198	0x1aadb012	7.183558e-23
199	0x99d214dd	-2.1721918e-23
200	0x1a10fa47	2.9980674e-23
201	0x9a9c8f90	-6.4752026e-23
202	0x1a627159	4.6827266e-23
203	0x9991d272	-1.5077647e-23
204	0x19c66911	2.0515156e-23
205	0x993c8815	-9.746854e-24
206	0x982b098c	-2.2106052e-24
207	0x997cd247	-1.307056e-23
208	0x9af6fd80	-1.02152767e-22
209	0x990c4327	-7.251392e-24
210	0x98a0608a	-4.145651e-24
211	0x1a102848	2.981104e-23
212	0x9797149a	-9.763347e-25
213	0x1ae2f16e	9.386146e-23
214	0x1b20c106	1.3297259e-22
215	0x1b1b7cca	1.2861621e-22
216	0x9a968573	-6.2254145e-23
217	0x199c87b3	1.618483e-23
218	0x1a9931b6	6.335963e-23
219	0x1957edb8	1.11632464e-23
220	0x99abbae4	-1.775647e-23
221	0x1aaae52b	7.068059e-23
222	0x9aa3b97f	-6.7714905e-23
223	0x19209821	8.302528e-24
224	0x1acddac2	8.5139435e-23
225	0x194ef646	1.0699685e-23
226	0x1a8ccb59	5.823117e-23
227	0x9988a9f7	-1.4130719e-23
228	0x9aa4f52e	-6.822492e-23
229	0x9a910faa	-5.99959e-23
230	0x18b997d0	4.797467e-24
231	0x9ab2e810	-7.399399e-23
232	0x1839074f	2.391438e-24
233	0x99fb3921	-2.5975866e-23
234	0x9a70aa69	-4.9768493e-23
235	0x99f6e598	-2.5528536e-23
236	0x99e7c149	-2.3962907e-23
237	0x19cead65	2.1369934e-23
238	0x9984044b	-1.3650214e-23
239	0x190b6f44	7.2086015e-24
240	0x9a0f5c0a	-2.9646055e-23
241	0x1afd9b52	1.0488928e-22
242	0x9aa2a41e	-6.7266775e-23
243	0x18fe1528	6.5678823e-24
244	0x9aae0351	-7.197007e-23
245	0x1b052243	1.1012573e-22
246	0x1a8cc02c	5.8213113e-23
247	0x1863b344	2.9429568e-24
248	0x1b013b49	1.0689786e-22
249	0x1b0b297e	1.1511217e-22
250	0x195d55ca	1.1442757e-23
251	0x9886566b	-3.4725448e-24
252	0x99812a75	-1.3355436e-23
253	0x1a5d43bf	4.5756454e-23
254	0x1a3cdb4d	3.905464e-23
255	0x198d83a6	1.463223e-23

sparse_weighted_adjacency_matrices.pair_attention.key.bias f4 [64]
0	0x9ae4cbb9	-9.462772e-23
1	0x19f0c826	2.4896258e-23
2	0x1ae7c5e5	9.5859077e-23
3	0x1a96ba30	6.233935e-23
4	0x19ab1fa1	1.769376e-23
5	0x97e15134	-1.4560783e-24
6	0x99549713	-1.0990652e-23
7	0x191e3b05	8.1803274e-24
8	0x1ac76131	8.246149e-23
9	0x19323e79	9.2150006e-24
10	0x1aa7a8d7	6.9342357e-23
11	0x1b21e3a2	1.339116e-22
12	0x99c5fa2e	-2.047037e-23
13	0x1a6fbc79	4.957629e-23
14	0x98b85982	-4.7653265e-24
15	0x1b180564	1.2574887e-22
16	0x980c002c	-1.8094663e-24
17	0x9adf8e05	-9.2460083e-23
18	0x9a156115	-3.08909e-23
19	0x99a988be	-1.752942e-23
20	0x19635458	1.1752658e-23
21	0x19bd2042	1.9555171e-23
22	0x9a4a7d2f	-4.1873743e-23
23	0x9928a102	-8.717912e-24
24	0x1b25aa0e	1.3703428e-22
25	0x19e8b814	2.4062586e-23
26	0x9b0a050a	-1.1416721e-22
27	0x1aba6543	7.7091394e-23
28	0x197d6787	1.3100701e-23
29	0x1a00632a	2.6549884e-23
30	0x199c33f4	1.6151006e-23
31	0x9a1bd9c2	-3.2229152e-23
32	0x9aceb0e9	-8.548542e-23
33	0x994ead93	-1.06850034e-23
34	0x1a2b03da	3.5365082e-23
35	0x9a4c4a44	-4.2246203e-23
36	0x1a04dfcc	2.7477742e-23
37	0x99de9eaf	-2.3018354e-23
38	0x9b00d438	-1.0656483e-22
39	0x190c73e0	7.261231e-24
40	0x1a449680	4.0653423e-23
41	0x1b0f9123	1.1875579e-22
42	0x19db7ba1	2.2694003e-23
43	0x19710215	1.24598284e-23
44	0x990a08dd	-7.136223e-24
45	0x199bbf74	1.6103952e-23
46	0x1a2dbb57	3.5926893e-23
47	0x9a3bfae0	-3.887335e-23
48	0x99b9131f	-1.9136275e-23
49	0x1a12d8f9	3.036736e-23
50	0x1a2311ab	3.3721882e-23
51	0x98bb03dd	-4.8342268e-24
52	0x1a813793	5.3442935e-23
53	0x9911cb6f	-7.537407e-24
54	0x19c9f682	2.0882477e-23
55	0x1b289203	1.3943813e-22
56	0x1a0833ed	2.8166086e-23
57	0x9af3461b	-1.00615706e-22
58	0x97a19253	-1.0441319e-24
59	0x194e61d4	1.0669707e-23
60	0x1a5ac5b4	4.5241047e-23
61	0x9ab36e64	-7.421101e-23
62	0x97b884c9	-1.1924241e-24
63	0x9ab619cc	-7.531511e-23

sparse_weighted_adjacency_matrices.pair_attention.edge_query.weight f4 [16, 16]
0	0xbde0aa30	-0.10969961
1	0xbe3b49a6	-0.18289813
2	0x3e4ce6b8	0.20009887
3	0xbd949260	-0.07254481
4	0xbdae4d70	-0.08510864
5	0xbe1a2824	-0.15054375
6	0x3d073f20	0.033019185
7	0xbe46f99c	-0.19431156
8	0x3db91834	0.090378195
9	0x3e61fd64	0.22069317
10	0x3e468c10	0.19389367
11	0xbe7ac500	-0.24489212
12	0xbe3c4e02	-0.18389133
13	0x3ceb56e0	0.028727949
14	0x3e35efb0	0.17767215
15	0x3d0dcb80	0.0346179
16	0xbdb426b4	-0.087964445
17	0xbe23a8c8	-0.15982354
18	0xbe395f2e	-0.18102714
19	0x3ae7b100	0.0017676651
20	0xbe56d194	-0.20978385
21	0xbe6591bc	-0.22418875
22	0xbdf2681c	-0.118362635
23	0x3cc4ccf0	0.024023503
24	0xbd5d23e8	-0.05398932
25	0xbe3fe7c6	-0.18740758
26	0xbdbde1d0	-0.09271586
27	0x3e75298e	0.23941633
28	0x3d29b470	0.041431844
29	0x3e0c94e2	0.1372867
30	0x3d1808e0	0.03711784
31	0xbc25b480	-0.010113835
32	0xbe048de8	-0.12944758
33	0x3b85d840	0.004084617
34	0x3e638fa4	0.22222763
35	0x3d24dbb0	0.040248573
36	0x3e10b1ce	0.14130327
37	0xbe0cf9cc	-0.13767165
38	0xbd41f178	-0.047349423
39	0xbd84eb2c	-0.06490168
40	0xbe7f6f26	-0.24944744
41	0xbdbd03cc	-0.0922924
42	0x3dc7e180	0.097598076
43	0xbe47dd4a	-0.19518009
44	0xbe66bace	-0.22532198
45	0xbd0c9ee8	-0.034331232
46	0x3e3d79d4	0.18503505
47	0x3dc9e528	0.09858161
48	0xbc732cc0	-0.014842212
49	0x3e4fddb4	0.20299417
50	0x3c7b6620	0.015344173
51	0x3e7c1f3e	0.24621293
52	0x3e482892	0.19546726
53	0xbe3ebfc0	-0.18627834
54	0xbe75e50e	-0.24013159
55	0xbb626e80	-0.0034550726
56	0xbe59ff32	-0.21288756
57	0x3dc79958	0.09746045
58	0x3e13ba0c	0.1442644
59	0xbde3ca9c	-0.11122629
60	0x3e223b18	0.15842855
61	0xbe42217e	-0.18958089
62	0x3e69ef28	0.22845137
63	0x3e486f9c	0.19573826
64	0x3e553072	0.20819262
65	0x3c838d40	0.016058564
66	0x3e72c886	0.23709306
67	0x3e201894	0.15634376
68	0xbe08d894	-0.13363868
69	0x3c198220	0.009369403
70	0xbd8980c0	-0.0671401
71	0x3e6a91ec	0.22907227
72	0xbe6ed2e6	-0.23322639
73	0xbe3ffbd0	-0.18748403
74	0x3ce16de0	0.027518213
75	0x3dee2a94	0.11629215
76	0x3e6622b0	0.2247417
77	0x3e628f36	0.22124943
78	0xbca6d1f0	-0.020363778
79	0xbe28e3ea	-0.16493192
80	0x3e119796	0.14217982
81	0x3cf882f0	0.030335873
82	0xbe19fba8	-0.15037405
83	0x3c9e1010	0.019294769
84	0xbe015990	-0.12631822
85	0x3ddf5818	0.109054744
86	0xbdd66140	-0.10467768
87	0x3e61f624	0.22066551
88	0xbd0946a8	-0.03351465
89	0x3d8f8ccc	0.07009277
90	0xbc22fa80	-0.009947419
91	0xbcbc3ca0	-0.022978127
92	0xbddb297c	-0.10701272
93	0x3d963c34	0.073357016
94	0xbe56d302	-0.2097893
95	0x3ade2f00	0.0016951263
96	0x3de28a8c	0.11061582
97	0x3e398cee	0.18120167
98	0x3e3c609c	0.18396229
99	0xbe65028a	-0.2236425
100	0xbb9a7740	-0.0047139227
101	0x3e11ffaa	0.14257684
102	0x3e5f4e30	0.2180717
103	0xbe25d6a6	-0.16195163
104	0x3e505784	0.20345885
105	0x3dab06ac	0.08350882
106	0x3e11d4e4	0.14241368
107	0xbd4d50c8	-0.050125867
108	0x3e6ddf80	0.2322979
109	0x3d867f80	0.065672874
110	0xbe1a3870	-0.15060592
111	0x3d8691d8	0.06570786
112	0xbbd68740	-0.006546885
113	0x3c8ddb40	0.01731646
114	0xbdd498c8	-0.10380703
115	0xbdfa8000	-0.12231445
116	0xbe6f7e04	-0.23387915
117	0xbe345040	-0.17608738
118	0xbe2066dc	-0.15664238
119	0x3e0062a0	0.12537622
120	0x3e4cbb5a	0.19993344
121	0x3c901e10	0.01759246
122	0x3dbdd244	0.092686206
123	0x3e5e4392	0.21705464
124	0x3e42e35c	0.19032043
125	0x3e25ca4c	0.16190451
126	0xbce9ceb0	-0.02854094
127	0x3df68fe0	0.12039161
128	0x3e72af10	0.23699594
129	0x3e74b26a	0.23896185
130	0xbd6db630	-0.058035076
131	0x3e1e582a	0.1546332
132	0xbdd48c38	-0.10378307
133	0xbe44773a	-0.19186106
134	0xbe01edec	-0.12688416
135	0xbe7a32d4	-0.24433452
136	0x3c758420	0.014985114
137	0xbe6c0216	-0.2304767
138	0x3e418e2c	0.1890189
139	0xbe2216e2	-0.15829042
140	0xbe4d757a	-0.20064345
141	0x3ce39050	0.027778774
142	0xbc758f40	-0.014987767
143	0x3e265c62	0.16246179
144	0x3e54123a	0.20710078
145	0x3e521680	0.20516396
146	0xbe0b2c58	-0.13591135
147	0xbca37330	-0.019952387
148	0xbe283866	-0.16427764
149	0x3e6384f8	0.22218692
150	0x3e4572e4	0.19282109
151	0xbe6fae32	-0.23406294
152	0x3e794760	0.24343634
153	0xbd54aed0	-0.051924527
154	0x3c82bb20	0.015958369
155	0x3e1dccd0	0.15410161
156	0x3d89d2d0	0.067296624
157	0xbe65be7e	-0.22435948
158	0x3e0f9320	0.14020967
159	0x3e71cc00	0.23612976
160	0xbe7a0bb0	-0.24418521
161	0x3d3a6d48	0.045514375
162	0xbe4b586a	-0.19857946
163	0xbdf0188c	-0.11723432
164	0xbe12b61c	-0.14327282
165	0x3e77a7de	0.2418513
166	0xbd8b48e8	-0.06801015
167	0xbdb8d6c8	-0.09025341
168	0xbd380680	-0.044928074
169	0x3e2f0446	0.17091474
170	0x3e129a72	0.14316729
171	0x3da8ea00	0.08247757
172	0x3d544cc0	0.051831007
173	0x3ca6e460	0.02037257
174	0x3e536d5e	0.20647189
175	0x3d93fb94	0.07225719
176	0x3d465400	0.048419952
177	0x3e575f5a	0.21032467
178	0x3e03c144	0.12866694
179	0x3dc5f2fc	0.09665486
180	0xbd9e2448	-0.07721764
181	0xbe10da8e	-0.14145872
182	0x3d7cb108	0.061692268
183	0xbe407a1a	-0.18796578
184	0x3cc2a740	0.023761392
185	0xbe712576	-0.23549446
186	0x3d2420a0	0.040070176
187	0x3e20c414	0.15699798
188	0x3e59600e	0.21228048
189	0xbe22345e	-0.15840289
190	0x3d7d1f68	0.06179753
191	0x3e58cc06	0.21171579
192	0xbdb7c820	-0.08973718
193	0x3e171408	0.14753735
194	0x3e38ed82	0.18059352
195	0x3e25f6f6	0.1620749
196	0x3d31f8b8	0.043450087
197	0xbd5ad2d8	-0.053423733
198	0x3e0b10a8	0.13580573
199	0xbdc9457c	-0.09827706
200	0xbc862880	-0.016376734
201	0xbd2781a0	-0.040895104
202	0x3e74e102	0.23913959
203	0xbe152c1c	-0.14567608
204	0x3e17bb76	0.14817604
205	0xbbfdf4c0	-0.0077501237
206	0x3e7c8746	0.24660978
207	0x3d856a78	0.06514448
208	0x3ca92970	0.020649642
209	0x3e5e52b2	0.21711233
210	0x3e79bf7e	0.24389455
211	0x3dba774c	0.09104785
212	0x3e5ac6a8	0.21364844
213	0x3e171d9e	0.14757392
214	0x3dae9bfc	0.085258454
215	0xbe286f2c	-0.16448659
216	0x3e4336c8	0.19063866
217	0x3e54db16	0.207867
218	0xbd9e3d5c	-0.07726547
219	0xbdff1384	-0.12454894
220	0x3ccbefa0	0.024894536
221	0x3db838bc	0.08995196
222	0xbe20058c	-0.15627116
223	0x3d750e68	0.059828192
224	0x3e0a05ec	0.13478822
225	0xbe0a865e	-0.1352782
226	0x3e4908f8	0.19632328
227	0x3e6664b0	0.22499347
228	0x3e131dbc	0.14366812
229	0x3e1966b4	0.14980584
230	0xbe483e86	-0.19555101
231	0xbe58fabe	-0.211894
232	0x3cd1cf20	0.02561146
233	0x3e45db94	0.19322044
234	0xbe65c01c	-0.22436565
235	0xbdd2fe8c	-0.10302457
236	0xbe371012	-0.17877224
237	0xbe22b4d8	-0.15889299
238	0x3e128daa	0.14311853
239	0xbc0edee0	-0.00872013
240	0x3e322aac	0.1739909
241	0xbe4201d8	-0.18946016
242	0xbdd161dc	-0.10223743
243	0x3cce73c0	0.025201678
244	0x3e0ed60e	0.13948843
245	0x3d8febac	0.07027373
246	0xbcad4770	-0.021152228
247	0xbe103e38	-0.14086235
248	0xbe394f98	-0.18096769
249	0xbd26d3b0	-0.040729225
250	0x3d26da38	0.040735453
251	0xbe5e0302	-0.21680835
252	0xbe14c95c	-0.14529938
253	0x3e5d3190	0.21600938
254	0x3dcc3c44	0.09972432
255	0xbd07a8b8	-0.033119887

sparse_weighted_adjacency_matrices.pair_attention.edge_query.bias f4 [16]
0	0x3e337d00	0.17528152
1	0xbda34838	-0.07972759
2	0xbde0582c	-0.109543175
3	0x3e7adf2c	0.24499196
4	0x3ce94300	0.02847433
5	0xbe70c066	-0.23510894
6	0xbe6c3fb0	-0.2307117
7	0xbe4fb2fc	-0.20283121
8	0x3e757660	0.23970938
9	0xbe534680	-0.20632362
10	0xbd91a094	-0.07110706
11	0x3d17e9d0	0.037088215
12	0x3b8c0380	0.004272878
13	0xbc77d640	-0.015126765
14	0x3e76fc3c	0.24119657
15	0x3ded51b8	0.11587852

sparse_weighted_adjacency_matrices.pair_attention.edge_key.weight f4 [16, 16]
0	0x3cc5e310	0.024156123
1	0xbe70a6e8	-0.2350117
2	0x3e20835e	0.15675113
3	0xbe2d19ac	-0.16904324
4	0x3c07cca0	0.0082885325
5	0xbe75d8fa	-0.24008551
6	0xbb0bb980	-0.0021320283
7	0xbd71af10	-0.059004843
8	0x3e7de7e4	0.2479549
9	0x3e1428be	0.14468667
10	0xbe3d2e32	-0.18474653
11	0x3e5e55f0	0.2171247
12	0x3dcd1fd4	0.10015836
13	0x3e3d2804	0.18472296
14	0x3e7a9506	0.2447091
15	0xbe292332	-0.16517332
16	0x3e64fef8	0.22362888
17	0xbdf934a4	-0.121682435
18	0xbe4fdb8c	-0.20298594
19	0xbb268180	-0.0025406778
20	0xbe4d7632	-0.20064619
21	0x3d5438a0	0.051811814
22	0x3e7c3312	0.24628857
23	0xbe385f24	-0.18005043
24	0xbe629f14	-0.22130996
25	0x3dca7338	0.098852575
26	0x3e2d6f24	0.16936928
27	0x3e7511e2	0.23932603
28	0xbd1bdbf8	-0.038051575
29	0xbe072304	-0.13196951
30	0xbb811700	-0.0039395094
31	0xbdceb578	-0.10093206
32	0x3d83aa30	0.06428945
33	0x3d0a2380	0.03372526
34	0xbe7b0410	-0.24513268
35	0x3bc426c0	0.0059860647
36	0xbcecd2f0	-0.028909177
37	0x3d97fa1c	0.074207515
38	0x3e364fd0	0.17803884
39	0xbe293fda	-0.16528264
40	0xbdfa7294	-0.12228885
41	0x3e793e34	0.24340135
42	0xbde83dbc	-0.113399
43	0x3dda7c50	0.10668242
44	0xbe5d0c2e	-0.21586677
45	0xbe4139ca	-0.18869701
46	0x3ca65c10	0.02030757
47	0xbd9947f0	-0.07484424
48	0xbcdefce0	-0.02722019
49	0x3e0493ca	0.12947002
50	0x3e165cbe	0.14683816
51	0xbd41b648	-0.047292978
52	0x3d17fa30	0.03710383
53	0x3e6606b6	0.22463498
54	0x3d1fb648	0.038992196
55	0x3dfe41d4	0.124148995
56	0x3de7bafc	0.11314961
57	0x3e0a96f2	0.13534144
58	0x3e3247a6	0.17410144
59	0x3cd77cd0	0.026304632
60	0x3db3f274	0.08786479
61	0xbe17cc50	-0.14824033
62	0x3e6d7a8e	0.23191282
63	0x3e542ea0	0.20720911
64	0x3cd4a170	0.025955886
65	0xbe652314	-0.22376662
66	0xbe367dda	-0.17821446
67	0xbe456b2c	-0.19279164
68	0x3dc06db4	0.09395924
69	0xbe77d224	-0.24201256
70	0xbe012678	-0.12612331
71	0x3e7d5790	0.24740434
72	0xbd39da90	-0.045374453
73	0x3afc0300	0.0019226968
74	0xbe46dd32	-0.19420317
75	0x3de4b140	0.1116662
76	0x3df6aaa4	0.12044266
77	0x3dd840e8	0.10559255
78	0xbdc5ccf8	-0.09658235
79	0xbd8132b8	-0.06308502
80	0x3ddc4504	0.10755351
81	0xbe722bec	-0.23649567
82	0xbe2eb474	-0.17061025
83	0xbc2b8840	-0.010469496
84	0xbe3d78a4	-0.18503052
85	0xbd3a7780	-0.04552412
86	0xbe0c6ee6	-0.1371418
87	0x3dff0ef4	0.12454024
88	0x3d5d4348	0.054019243
89	0xbdc34980	-0.095355034
90	0xbd5aa910	-0.053383887
91	0xbe3e4cc2	-0.18583968
92	0x3e59cc2e	0.21269295
93	0x3dd971d4	0.10617414
94	0xbda76d60	-0.081751585
95	0x3dba8748	0.09107834
96	0xbdefe40c	-0.11713418
97	0xbe545630	-0.20736003
98	0xbe6ea224	-0.23304039
99	0x3d8a9f30	0.06768644
100	0x3e5386ce	0.20656893
101	0xbd98b618	-0.074566066
102	0xbd37ab90	-0.04484135
103	0xbe2f9420	-0.17146349
104	0xbe4f9bb6	-0.20274243
105	0x3d82add4	0.06380811
106	0xbe354eca	-0.17705837
107	0xbe3fa3a4	-0.18714768
108	0xbe78d728	-0.24300826
109	0xbe3f72ce	-0.18696138
110	0xbe7d2024	-0.24719292
111	0xbdaffe78	-0.08593458
112	0xbc5fa9c0	-0.013651311
113	0xbd0258e0	-0.03182304
114	0x3d79eb58	0.061015457
115	0xbdeb6534	-0.11493912
116	0x3e4762fe	0.19471356
117	0xbe5b6d54	-0.21428424
118	0x3e76cb14	0.24100906
119	0xbd828758	-0.06373471
120	0x3d88c294	0.06677738
121	0x3ddc9cd4	0.107721
122	0xbe32796c	-0.17429131
123	0xbe093c92	-0.13402012
124	0x3e3d34b8	0.18477142
125	0xbde87c68	-0.113518536
126	0x3e1296e0	0.14315367
127	0xbe01c85e	-0.1267409
128	0xbe0344e0	-0.12819242
129	0xbe563ba8	-0.20921195
130	0xbd769020	-0.060196042
131	0xbd8939f4	-0.06700507
132	0x3e7b1bd0	0.24522328
133	0x3dd744d8	0.10511178
134	0x3e49bec6	0.1970168
135	0x3e4f4afe	0.20243451
136	0xbca7dcf0	-0.020491093
137	0x3d4c8fb8	0.04994175
138	0xbe558ef0	-0.20855308
139	0x3e0e8944	0.1391955
140	0x3d7fe0b8	0.062470168
141	0xbe2f28b8	-0.17105377
142	0xbd0dc3a0	-0.03461039
143	0x3cf72a70	0.030171603
144	0xbe027306	-0.1273919
145	0x3d8789f4	0.06618109
146	0xbe5cc84c	-0.21560782
147	0x3db9df54	0.090757996
148	0xbd851468	-0.06498033
149	0xbe7f8844	-0.24954325
150	0x3e42d014	0.19024688
151	0x3dac2b6c	0.084067196
152	0xbe5c40aa	-0.21509042
153	0xbdacac0c	-0.08431253
154	0xbe41230c	-0.18861026
155	0xbdf119c0	-0.117724895
156	0xbe276ea6	-0.16350803
157	0x3bc65ec0	0.0060537755
158	0xbb939e00	-0.004504919
159	0xbdbab500	-0.09116554
160	0x3e65e69e	0.22451255
161	0x3d180178	0.037110776
162	0xbe73797e	-0.23776814
163	0x3c17ff40	0.009277165
164	0xbd695df8	-0.05697438
165	0x3e0afb3e	0.13572404
166	0x3c9abfe0	0.018890321
167	0xbe3056ea	-0.17220655
168	0x3d78e398	0.060763925
169	0xbe2772ba	-0.16352358
170	0x3e359a84	0.17734724
171	0x3d2a73c8	0.041614324
172	0x3e215a32	0.15757063
173	0x3c98e210	0.018662483
174	0xbda85bfc	-0.082206696
175	0xbe6a2410	-0.22865319
176	0x3b224980	0.0024763048
177	0x3e2efee8	0.17089427
178	0x3e5b0be8	0.2139126
179	0xbd9cf69c	-0.076642245
180	0xbd0650c0	-0.032791853
181	0x3e5c96d6	0.21541914
182	0x3e48c78c	0.19607371
183	0x3e30e5b2	0.17275122
184	0xbb13d980	-0.002256006
185	0x3e3ee314	0.18641311
186	0x3dde66ec	0.108594745
187	0x3e1fc3fc	0.15602106
188	0xbde5380c	-0.11192331
189	0xbd7d8fc8	-0.0619047
190	0x3dc53038	0.096283376
191	0x3d31da10	0.04342085
192	0xbe6dc3d4	-0.23219234
193	0x3e2ceca0	0.1688714
194	0xbe4704d4	-0.19435436
195	0xbe19f4f4	-0.15034848
196	0x3e249aca	0.16074672
197	0x3e5124a0	0.20424128
198	0xbc983680	-0.018580675
199	0x3e167336	0.14692387
200	0x3df6ec30	0.12056768
201	0x3e281848	0.16415513
202	0x3d289568	0.04115811
203	0xbb3b2f80	-0.0028562248
204	0xbe42223c	-0.18958372
205	0x3e0260dc	0.12732261
206	0xbe081cdc	-0.13292259
207	0x3e4f64ea	0.2025334
208	0xbe4dfe68	-0.2011658
209	0x3e2d519e	0.16925666
210	0x3e0a5e82	0.13512614
211	0xbd2cafa8	-0.042159706
212	0x3c194b40	0.00935632
213	0x3e0e1b5c	0.13877624
214	0x3e01f822	0.12692311
215	0xbd45f830	-0.048332393
216	0x3e4f582c	0.20248479
217	0xbe3bd9b0	-0.1834476
218	0x3e33479a	0.17507783
219	0x3b9bd980	0.0047561526
220	0xbd74ee28	-0.059797436
221	0xbd246330	-0.040133655
222	0x3e42f6f2	0.19039515
223	0x3e6024b6	0.21889004
224	0xbe49dea0	-0.19713831
225	0x3df46660	0.11933589
226	0xbd0a1210	-0.033708632
227	0xbc132e20	-0.008983165
228	0xbdf40208	-0.1191445
229	0xbcc6f350	-0.024285942
230	0x3e7cd3c6	0.2469016
231	0x3e3c410a	0.18384185
232	0x3e566fa6	0.20941028
233	0xbe0573dc	-0.13032478
234	0xbe01d526	-0.12678966
235	0x3e703b42	0.23460105
236	0x3e22e4c0	0.15907574
237	0x3deb997c	0.11503884
238	0xbb2ae080	-0.0026073754
239	0xbdd47600	-0.10374069
240	0xbb83f700	-0.0040272474
241	0xbd46a950	-0.048501313
242	0x3e22d80e	0.15902731
243	0xbe56ffa2	-0.20995954
244	0x3ca52ad0	0.020162016
245	0xbd853834	-0.065048605
246	0x3bf26a00	0.00739789
247	0x3e6f29fa	0.23355857
248	0x3ca43350	0.020043999
249	0x3e6dd4d2	0.23225716
250	0x3dfc6ffc	0.12326047
251	0x3c2d47a0	0.010576159
252	0xbe453226	-0.19257411
253	0x3e23dc94	0.16002113
254	0x3df9384c	0.12168941
255	0x3e160a72	0.14652422

sparse_weighted_adjacency_matrices.pair_attention.edge_key.bias f4 [16]
0	0x3cf86e60	0.030326068
1	0xbdf37a08	-0.1188851
2	0xbc0542c0	-0.00813359
3	0x3e689cb8	0.22716033
4	0xbe410eac	-0.18853253
5	0xbe57eee2	-0.2108722
6	0x3e102878	0.14077938
7	0x3dc70d98	0.0971939
8	0xbe44c6aa	-0.1921641
9	0x3b29a580	0.0025886
10	0xbe37ca42	-0.17948249
11	0x3d7bac88	0.061443835
12	0x3d0c0d40	0.034192324
13	0x3e715abe	0.23569772
14	0x3dfbaec4	0.12289193
15	0x3e392cee	0.18083546
